app/src/main/ml/alexa.tflite (tflite, 206748 bytes, 9 tensors)

Const_1 f4 [32]
-0.01797552 -0.014158249 0.008340427 -0.010894996 0.021487692 -0.0007147116 0.02077938 -0.0060410486
-0.005866354 -0.0014413837 -0.0007053004 -0.0052919383 -0.01673728 -0.024220208 -0.017708968 -0.012314301
0.019073002 -0.01041925 0.024509707 -0.014161839 -0.002187892 -0.016537981 0.002478996 -0.014275387
-0.008604419 0.0016609142 -0.02527093 0.021943852 -0.025058225 -0.02061241 -0.0013970713 0.014418281
00000000: 6641 93bc 00f8 67bc 49a6 083c ed80 32bc
00000010: f506 b03c 7c5b 3bba 8539 aa3c fdf3 c5bb
00000020: 8b3a c0bb d0ec bcba e9e3 38ba ff67 adbb
00000030: 9f1c 89bc 7569 c6bc 6612 91bc ecc1 49bc
00000040: fc3e 9c3c 80b5 2abc 95c8 c83c 0f07 68bc
00000050: bd62 0fbb a97a 87bc a776 223b 50e3 69bc
00000060: 8df9 0cbc 08b3 d93a fb04 cfbc 98c3 b33c
00000070: e846 cdbc 5bdb a8bc ef1d b7ba a73a 6c3c

Const_2 f4 [32]
0.9726937 0.99907106 0.99380594 0.99230367 0.9544515 1.0295062 0.9941873 0.9739426
0.9946826 0.9939038 1.0081342 0.9945176 0.9606225 0.9925429 0.9969158 0.99440867
0.99812514 0.97954845 0.9969945 0.99803513 0.9919844 0.9942339 0.98613125 0.98439217
0.9893672 0.98920375 0.9845684 1.0156595 0.99551517 0.9925315 0.9834886 0.99500114
00000000: 7402 793f 1fc3 7f3f 116a 7e3f 9d07 7e3f
00000010: ef56 743f dcc6 833f 0f83 7e3f 4d54 793f
00000020: 85a3 7e3f 7b70 7e3f 8b0a 813f b598 7e3f
00000030: 5beb 753f 4b17 7e3f e035 7f3f 9191 7e3f
00000040: 2185 7f3f b0c3 7a3f 083b 7f3f 3b7f 7f3f
00000050: b1f2 7d3f 1d86 7e3f 1973 7c3f 2001 7c3f
00000060: 2b47 7d3f 753c 7d3f ad0c 7c3f 2101 823f
00000070: 15da 7e3f 8b16 7e3f e9c5 7b3f 65b8 7e3f

Const_3 f4 [32]
0.009506208 0.00041909344 -0.008367699 -0.004607866 0.007932943 0.0100879455 -0.004779317 0.0077324095
-0.0038243616 -0.00960997 0.012746072 -0.00628949 0.004091853 -0.0035981883 -0.0074210744 -0.007484509
-0.009987961 0.0023454593 0.004606943 -0.008554365 -0.0075317402 -0.0036935639 -0.006806712 -0.0022445575
-0.008504634 0.0013264758 -0.005249875 0.012940732 -0.009661981 -0.008167341 0.007927164 -0.00795246
00000000: edbf 1b3c c5b9 db39 ac18 09bc 95fd 96bb
00000010: 2df9 013c e947 253c d19b 9cbb 2760 fd3b
00000020: 24a2 7abb 2373 1dbc e7d4 503c 1118 cebb
00000030: f314 863b 95cf 6bbb 7c2c f3bb 9d40 f5bb
00000040: 8ba4 23bc 47b6 193b d7f5 963b 9b27 0cbc
00000050: d1cc f6bb b80f 72bb d70a dfbb 6d19 13bb
00000060: 0557 0bbc 24dd ad3a 2507 acbb 5d05 543c
00000070: 494d 1ebc 50d0 05bc f0e0 013c 094b 02bc

Const_5 f4 [32]
-0.17139451 -0.07707796 0.006105944 -0.09946373 0.07684957 0.17033996 -0.13286781 0.10780265
0.044914693 0.14581488 0.046769988 0.1327116 -0.119396634 -0.13114102 0.16318323 0.05270266
-0.08763975 -0.04709514 0.05762459 0.1451814 0.098170035 0.11113226 -0.014186789 -0.10792164
0.13601995 0.096062064 -0.023964213 0.08811309 -0.11602852 -0.108039744 -0.041776497 0.14095546
00000000: 0b82 2fbe 0ddb 9dbd 5f14 c83b a4b3 cbbd
00000010: 4f63 9d3d 996d 2e3e 800e 08be a3c7 dc3d
00000020: 78f8 373d 7f50 153e e391 3f3d 8de5 073e
00000030: 3986 f4bd d549 06be 8119 273e bfde 573d
00000040: 787c b3bd d5e6 40bd c307 6c3d 6faa 143e
00000050: 5f0d c93d 4f99 e33d b56f 68bc 0506 ddbd
00000060: d048 0b3e 30bc c43d 9950 c4bc a374 b43d
00000070: 5ca0 edbd f143 ddbd d51d 2bbd a156 103e

Const_6 f4 [32]
0.9980609 1.0211194 1.0049518 1.214707 1.2894697 0.99937296 0.9845062 1.2278647
0.9999872 1.0144087 0.99528 1.0362011 1.0067769 0.92069775 0.9982796 1.0307703
0.9943215 1.0312037 1.4551249 0.9941349 1.29598 1.002183 1.0038464 1.0167702
1.2505955 1.2497789 1.004095 0.99227446 1.0024866 0.9497264 1.00314 1.2593671
00000000: eb80 7f3f 0ab4 823f 43a2 803f 857b 9b3f
00000010: 580d a53f e8d6 7f3f 9908 7c3f ac2a 9d3f
00000020: 29ff 7f3f 25d8 813f acca 7e3f 3da2 843f
00000030: 11de 803f d9b2 6b3f 408f 7f3f 48f0 833f
00000040: db8b 7e3f 7cfe 833f 8841 ba3f a07f 7e3f
00000050: ace2 a53f 8847 803f 0a7e 803f 8725 823f
00000060: 8313 a03f c1f8 9f3f 2f86 803f b305 7e3f
00000070: 7b51 803f 4521 733f e466 803f f132 a13f

Const_7 f4 [32]
-0.0056262612 0.012443919 0.0052780304 0.23643112 0.27260515 -0.0011665431 -0.016650608 0.24653566
-0.001972123 -0.0015264432 -0.0095748985 0.02146958 0.007909049 -0.07407392 -0.0033294025 0.0059875487
-0.013770536 0.013718531 0.34660944 -0.0047082026 0.27416745 0.0031558338 0.007080015 0.015121848
0.24482675 0.25344005 0.0012282537 -0.009498886 0.011224234 -0.035306644 0.0058257976 0.25684175
00000000: 805c b8bb 94e1 4b3c 54f3 ac3b 001b 723e
00000010: e792 8b3e b1e6 98ba db66 88bc d873 7c3e
00000020: bc3e 01bb ef12 c8ba 09e0 1cbc f9e0 af3c
00000030: f594 013c 11b4 97bd 1b32 5abb 3333 c43b
00000040: d09d 61bc b0c3 603c cb76 b13e 4447 9abb
00000050: ad5f 8c3e 1bd2 4e3b 78ff e73b a1c1 773c
00000060: ddb3 7a3e e5c2 813e 5bfd a03a 37a1 1bbc
00000070: d9e5 373c b39d 10bd 55e6 be3b c380 833e

MatMul f4 [32, 1536]
0.0066173277 0.017869512 0.031385995 -4.268343e-05 -0.01325391 0.0010291712 -0.0023306927 0.013421334
0.022666099 0.0017488683 0.009601274 -0.006773394 0.004334509 -0.009790906 0.010492727 0.016053574
-0.005070183 -0.021413384 0.013825931 0.014523831 -0.004900648 0.010297399 0.016963078 0.012652318
-0.005541157 0.0016556139 -0.013272417 0.008829008 -0.01848943 0.009645399 0.009744647 -0.0068278206
0.012195555 0.003427673 0.005122007 0.0073961546 -0.01606896 0.008089568 0.009572794 -0.0029189028
0.0108766975 0.021876613 -0.0020638446 0.023388037 0.0056140297 -0.01131891 0.016227037 -0.0076114484
0.020281592 -0.021097599 -0.01764956 0.0006837312 -0.009180925 -0.0018271152 0.003327518 -0.011214904
0.0011118967 0.00061710237 0.0074901246 0.014942266 -0.02319268 -0.019639935 -0.016402604 6.1426814e-05
0.018186906 0.01648999 -0.013931874 -0.002631706 -0.006507604 0.013636269 0.0019666671 0.007938056
-0.016116964 -0.0167202 0.01311043 -0.01752117 -0.012656369 -0.025997028 0.0068333712 0.0042807576
-0.01085776 0.0028682088 -0.0015103581 -0.011676352 0.024937818 0.015196201 -0.009526138 -0.011307641
-0.0013483643 0.024666512 -0.0027269304 0.0066960924 -0.01843046 -0.00036316048 0.008907329 0.018028291
-0.015742028 -0.0002869082 0.00882429 0.0036803975 0.0038108563 0.012690549 0.0072514582 -0.02788358
0.027132554 0.0027848769 0.002422154 -0.0005202982 -0.0006478012 -0.001010993 -0.009501175 -0.008299801
-0.02197715 -0.01454929 -0.006211353 0.017250521 -0.0054184836 0.014204367 -0.019248514 0.004457265
-0.02846855 0.017711228 0.020233385 0.018296147 -0.010713731 0.0062779286 0.00816568 -0.009563449
0.015843324 0.003924662 -0.026292024 0.011728956 -0.0058719157 0.0137688 0.007994782 -0.009537556
-0.00018231354 -0.023046067 0.022979168 -0.0051445705 0.014738318 0.0074654142 0.0040666116 0.021659886
0.02277906 -0.006900639 0.0054014195 0.00033027804 0.025946965 -0.0020301875 -0.0019693014 0.021785276
0.015693506 0.0120489085 -0.01399701 -0.008157241 -0.021854235 -0.00047090635 0.0027016038 0.00068249943
-0.00030998976 -0.03006267 -0.018888703 0.0026581257 0.0097827455 -0.02631171 -0.019854821 -0.013410107
-0.014869471 0.0076950025 0.0071233152 0.0019969698 -0.0077867988 0.0010427438 0.0046980176 -0.008363913
-0.001742681 0.0050642756 -0.010089549 0.021655038 0.022170587 0.008769671 0.00041505415 -0.0056369915
0.0022224556 -0.010473932 -0.02514858 0.027038937 -0.001795234 -0.021657318 0.0062660524 -0.015706554
0.005395246 -0.011823513 0.015069474 0.01540902 0.016099563 0.0070999856 0.0066697304 0.009516637
-0.0033911637 0.02187056 -0.008867581 0.013534923 0.0030618596 -0.013747912 0.002883032 0.003352061
-0.025092661 -0.002591168 0.007019743 0.0124784745 0.008924627 -0.014367712 0.017842077 0.007901717
0.0051606335 0.009391519 0.018626116 -0.019603103 0.0033579431 0.017694985 0.0005473897 0.0022834456
0.014908181 -0.012514875 0.00018614509 0.01909321 0.02730068 0.0040782117 -0.006975811 0.020215595
0.018786525 -0.0040638777 0.02028148 0.009170186 -0.0064539756 0.0017923998 0.0023889325 -0.017996622
-0.004882973 0.01732929 -0.0125897275 -0.029351434 -0.006197916 0.0016528204 -0.017082833 0.0025357844
0.0042331866 -0.013887783 0.017664848 0.00665112 -0.0294519 0.023689484 0.016511569 -0.010979685
00000000: 2bd6 d83b 1563 923c 9a8e 003d fc06 33b8
00000010: ed26 59bc 41e5 863a 89be 18bb 28e5 5b3c
00000020: 41ae b93c 483a e53a a94e 1d3c 59f3 ddbb
00000030: 7f08 8e3b 096a 20bc b0e9 2b3c c982 833c
00000040: c723 a6bb 1f6b afbc 2886 623c 5df5 6d3c
00000050: 9d95 a0bb 6cb6 283c 27f6 8a3c ab4b 4f3c
00000060: 9892 b5bb 2f01 d93a 8d74 59bc 8ba7 103c
00000070: 2577 97bc bc07 1e3c 03a8 1f3c e9bb dfbb
00000080: ddcf 473c cfa2 603b 82d6 a73b 715b f23b
00000090: 0da3 83bc 1b8a 043c 35d7 1c3c 104b 3fbb
000000a0: 2d34 323c 9536 b33c 9141 07bb 4598 bf3c
000000b0: e5f5 b73b f372 39bc 90ee 843c 7569 f9bb
000000c0: 9525 a63c dfd4 acbc cf95 90bc 6d3c 333a
000000d0: 976b 16bc d07b efba 7d12 5a3b b7be 37bc
000000e0: 10bd 913a 0ac5 213a b86f f53b 68d0 743c
000000f0: 93fe bdbc eee3 a0bc c15e 86bc 45d2 8038
00000100: b5fc 943c 0416 873c 8442 64bc b378 2cbb
00000110: bd3d d5bb a86a 5f3c 33e3 003b 9f0e 023c
00000120: b907 84bc cdf8 88bc 21cd 563c 8f88 8fbc
00000130: a95c 4fbc b8f7 d4bc 79ea df3b 9945 8c3b
00000140: bfe4 31bc 8ff8 3b3b 35f7 c5ba 2b4e 3fbc
00000150: 654a cc3c 7df9 783c 8513 1cbc af43 39bc
00000160: 99bb b0ba 6d11 ca3c 4db6 32bb e56a db3b
00000170: 7afb 96bc 9366 beb9 0cf0 113c 11b0 933c
00000180: 6df5 80bc 2b6c 96b9 c193 103c d332 713b
00000190: 8fbf 793b 05ec 4f3c a49d ed3b 1b6c e4bc
000001a0: 1745 de3c 7b82 363b 00bd 1e3b 9f64 08ba
000001b0: 34d1 29ba 4c83 84ba d1aa 1bbc e3fb 07bc
000001c0: 6d09 b4bc 2560 6ebc 9b88 cbbb f750 8d3c
000001d0: 898d b1bb 6fb9 683c 0faf 9dbc 400e 923b
000001e0: e036 e9bc 2317 913c 7cc0 a53c cde1 953c
000001f0: a588 2fbc 15b7 cd3b 58c9 053c 03b0 1cbc
00000200: dcc9 813c 739a 803b 5f62 d7bc cf2a 403c
00000210: 3369 c0bb 8896 613c 8cfc 023c 6943 1cbc
00000220: 6b2b 3fb9 1bcb bcbc cf3e bc3c c993 a8bb
00000230: fc78 713c 6fa0 f43b 3641 853b 1370 b13c
00000240: 279b ba3c c11e e2bb 64fe b03b 2b29 ad39
00000250: bb8e d43c e50c 05bb 650f 01bb 0977 b23c
00000260: ab8f 803c c968 453c b753 65bc f3a5 05bc
00000270: a707 b3bc fbe3 f6b9 640d 313b c3e9 323a
00000280: 1f86 a2b9 fd45 f6bc 7bbc 9abc f333 2e3b
00000290: cf47 203c a88b d7bc 94a6 a2bc 11b6 5bbc
000002a0: 159f 73bc 5c26 fc3b b36a e93b 98df 023b
000002b0: 6728 ffbb adac 883a d4f1 993b cb08 09bc
000002c0: ac6a e4ba 39f2 a53b a34e 25bc e865 b13c
000002d0: 179f b53c abae 0f3c a09b d939 83b6 b8bb
000002e0: 9ea6 113b db9a 2bbc 6504 cebc c380 dd3c
000002f0: 0f4e ebba b06a b1bc 7553 cd3b 08ab 80bc
00000300: 9bca b03b 68b7 41bc f4e5 763c 1d76 7c3c
00000310: 3be3 833c ffa6 e83b c18d da3b abeb 1b3c
00000320: 493e 5ebb e329 b33c 5549 11bc 95c1 5d3c
00000330: 7ba9 483b ec3e 61bc 40f1 3c3b 40ae 5b3b
00000340: 208f cdbc 96d0 29bb df05 e63b 8472 4c3c
00000350: 9938 123c 8d66 6bbc 8c29 923c 3476 013c
00000360: 881a a93b e3de 193c cc95 983c b096 a0bc
00000370: f010 5c3b 13f5 903c b37e 0f3a dca5 153b
00000380: 7141 743c 310b 4dbc f12f 4339 5d69 9c3c
00000390: ada5 df3c 85a2 853b 5895 e4bb 2d9b a53c
000003a0: 33e6 993c 472a 85bb 5925 a63c 8c3e 163c
000003b0: df7b d3bb f5ee ea3a a38f 1c3b a76d 93bc
000003c0: 5901 a0bb 28f6 8d3c 2545 4ebc 6b72 f0bc
000003d0: e317 cbbb 73a3 d83a 4cf1 8bbc 672f 263b
000003e0: 8bb6 8a3b 9589 63bc dfb5 903c a3f1 d93b
000003f0: 1c45 f1bc 7310 c23c 4543 873c 23e4 33bc

MatMul_1 f4 [32, 32]
-0.09747928 0.08347252 -0.028198212 -0.052592207 -0.1117964 -0.15902156 0.12052623 0.031791613
0.17198122 0.07598302 -0.0043955226 0.0737272 -0.15719572 0.099500634 0.08601657 -0.0947558
0.12410411 0.045102227 0.034067992 0.035632037 0.015744256 0.11142699 -0.017208437 -0.0022403626
0.1322997 0.034663912 0.03404167 0.057813358 0.111767255 0.047354 0.10079696 0.113897115
0.117162146 -0.05300902 0.012584771 -0.017996727 0.073792875 0.03263336 -0.043840583 -0.13614196
0.10945181 0.026207758 0.124392055 0.13428332 -0.15108497 -0.116437525 -0.08732122 -0.007603318
0.12351617 0.11629766 0.049994905 -0.061060295 -0.12778227 0.15847841 0.013161931 -0.14648202
-0.048391774 -0.0741922 0.06049469 -0.16036272 0.008629554 -0.07147757 -0.15462758 0.106082775
0.05794121 0.005604673 0.10999718 0.048389602 -0.0057204515 0.14131396 -0.026474237 0.0069012833
-0.09307202 -0.06586643 -0.14946076 -0.13778445 -0.115101166 0.09069789 0.17236513 -0.07589216
-0.06848171 -0.15614265 0.06994184 0.03572675 -0.053474095 0.14558361 0.1444366 -0.06801482
-0.06694233 0.029245935 -0.03975031 0.004615514 0.17361873 0.06579878 0.14470406 0.11605278
0.12765692 -0.0741001 -0.055746462 0.038022622 0.10180233 -0.038772635 -0.007414451 -0.06640909
0.07439094 -0.07459042 0.16393964 -0.0608926 -0.12753145 0.07665143 -0.1297533 -0.17185204
0.08086673 -0.09650578 0.0728117 -0.0019086768 -0.043155786 -0.13237329 0.0806059 0.18198429
-0.112811305 0.17059429 0.1322337 0.09584266 0.11008131 -0.16591085 -0.07371541 0.028486116
0.16337775 0.12982853 -0.13620056 -0.0855288 0.012480524 -0.106740035 0.14971866 0.037397888
-0.16558354 -0.058019534 0.033338368 -0.14787084 -0.12455393 0.08034788 -0.060135365 -0.12998205
0.11371688 0.002557704 -0.04956205 -0.042924453 0.16016929 -0.11757495 0.06566048 0.022192935
0.053617314 0.0986399 -0.13695648 0.19248565 0.059803437 -0.1028443 0.009218781 -0.0179414
-0.113913774 -0.09465008 0.13941757 0.15000045 -0.092488855 -0.12647659 0.15566307 0.070168786
0.17067628 0.09828586 -0.13553834 0.11735422 -0.06345647 0.09181059 -0.07833302 -0.029230395
-0.032182686 0.12662874 -0.14470267 -0.11323515 0.16004889 -0.0755138 0.0074971016 0.09557953
0.17169638 0.069661655 0.026365412 -0.08464209 0.116604336 -0.09337457 0.1591301 -0.17386782
0.09696907 -0.032319847 -0.13742745 -0.09865331 0.08674676 0.113381825 -0.100936554 -0.15585892
0.06368432 -0.14669944 -0.13591276 0.0031399385 -0.060673226 0.16632329 0.10496474 -0.06250652
0.16455734 0.05851828 0.034129765 0.091142215 -0.04601979 0.06451273 -0.004713917 -0.00043486388
-0.08303926 -0.12637101 -0.088344835 0.012670244 -0.10935835 0.091415085 0.060856048 -0.071987055
-0.12187018 -0.15085359 -0.05958679 -0.029763432 -0.0077633434 -0.070951305 0.057305843 0.14255786
0.043790653 -0.1666531 0.16019964 0.10146829 0.10862269 0.11941818 -0.0931701 0.11859041
-0.16530584 -0.035989124 -0.041714463 0.033482883 -0.14252385 -0.10166144 -0.062154632 0.03216954
0.17555185 -0.090980195 0.042725757 0.13693398 0.005578203 0.01260065 0.102194846 0.039081585
00000000: 37a3 c7bd a4f3 aa3d f0ff e6bc ed6a 57bd
00000010: 83f5 e4bd 8cd6 22be 75d6 f63d ec37 023d
00000020: d81b 303e fc9c 9b3d 5108 90bb 49fe 963d
00000030: eaf7 20be fdc6 cb3d 7529 b03d 540f c2bd
00000040: 4c2a fe3d 1dbd 383d e18a 0b3d e6f2 113d
00000050: 19fa 803c d533 e43d b5f8 8cbc 0cd3 12bb
00000060: 9379 073e bffb 0d3d 476f 0b3d b3cd 6c3d
00000070: 3be6 e43d 45f6 413d a36e ce3d e442 e93d
00000080: b5f2 ef3d fc1f 59bd 5b30 4e3c df6d 93bc
00000090: b820 973d 8faa 053d 2f92 33bd cc68 0bbe
000000a0: 4528 e03d a7b1 d63c 43c1 fe3d 9181 093e
000000b0: 05b6 1abe cc76 eebd 78d5 b2bd 4125 f9bb
000000c0: 0cf6 fc3d 782d ee3d 75c7 4c3d 5c1a 7abd
000000d0: 5bd9 02be 2a48 223e 24a5 573c 62ff 15be
000000e0: 7436 46bd 15f2 97bd 48c9 773d 2036 24be
000000f0: f962 0d3c d562 92bd b156 1ebe ed41 d93d
00000100: c353 6d3d 68a7 b73b 3446 e13d 2d34 463d
00000110: a072 bbbb 9bb4 103e 80e0 d8bc 2924 e23b
00000120: 8b9c bebd fbe4 86bd 3e0c 19be 5e17 0dbe
00000130: 29ba ebbd d1bf b93d 7c80 303e 596d 9bbd
00000140: 2440 8cbd dce3 1fbe ab3d 8f3d 3656 123d
00000150: a707 5bbd df13 153e 30e7 133e 5b4b 8bbd
00000160: 0f19 89bd 2c95 ef3c 39d1 22bd bd3d 973b
00000170: 1cc9 313e 83c1 863d 4d2d 143e 14ad ed3d
00000180: 7fb8 023e cbc1 97bd 6756 64bd 9cbd 1b3d
00000190: bd7d d03d 0ed0 1ebd ecf4 f2bb 7d01 88bd
000001a0: 475a 983d ddc2 98bd cbdf 273e 856a 79bd
000001b0: 9b97 02be 6dfb 9c3d 0dde 04be fbf9 2fbe
000001c0: 759d a53d d3a4 c5bd 4d1e 953d 912c faba
000001d0: 1fc4 30bd dd8c 07be b514 a53d 175a 3a3e
000001e0: 9d09 e7bd 45b0 2e3e 4568 073e 2849 c43d
000001f0: 4f72 e13d 89e4 29be 1bf8 96bd b75b e93c
00000200: 7f4c 273e c5f1 043e 2978 0bbe b929 afbd
00000210: 1d7b 4c3c 859a dabd d94f 193e 872e 193d
00000220: bb8e 29be e4a5 6dbd d08d 083d 746b 17be
00000230: 2116 ffbd 6e8d a43d 8050 76bd 041a 05be
00000240: 65e4 e83d 279f 273b 9301 4bbd 8dd1 2fbd
00000250: 6b03 243e 23cb f0bd 0079 863d f5cd b53c
00000260: d49d 5b3d b703 ca3d 523e 0cbe f51a 453e
00000270: 73f4 743d 08a0 d2bd 5f0a 173c d8f9 92bc
00000280: a04b e9bd e7d7 c1bd 7bc3 0e3e b899 193e
00000290: cc6a bdbd 1483 01be 2466 1f3e a7b4 8f3d
000002a0: c3c5 2e3e 194a c93d 90ca 0abe 6957 f03d
000002b0: 77f5 81bd 3107 bc3d 106d a0bd 9574 efbc
000002c0: fed1 03bd f7aa 013e f02c 14be d5e7 e7bd
000002d0: dbe3 233e fba6 9abd 3faa f53b 33bf c33d
000002e0: 2dd1 2f3e c5aa 8e3d 47fc d73c d558 adbd
000002f0: 41ce ee3d 2b3b bfbd 00f3 223e 680a 32be
00000300: b897 c63d d161 04bd c8b9 0cbe bf0a cabd
00000310: 49a8 b13d bb34 e83d d3b7 cebd 7b99 1fbe
00000320: ed6c 823d 6138 16be b72c 0bbe 6dc7 4d3b
00000330: 7d84 78bd a750 2a3e c1f7 d63d 6b03 80bd
00000340: b881 283e ddb0 6f3d a7cb 0b3d c5a8 ba3d
00000350: 3f7f 3cbd 401f 843d 3477 9abb 71fe e3b9
00000360: 7d10 aabd 6767 01be 23ee b4bd db96 4f3c
00000370: 45f7 dfbd d537 bb3d 3144 793d f36d 93bd
00000380: 1397 f9bd 5d79 1abe 4711 74bd 71d2 f3bc
00000390: a563 febb eb4e 91bd 88b9 6a3d b0fa 113e
000003a0: d45d 333d 1ca7 2abe 600b 243e 9bce cf3d
000003b0: 9375 de3d 8591 f43d f7cf bebd 87df f23d
000003c0: ef45 29be 5569 13bd c9dc 2abd 5925 093d
000003d0: c6f1 11be e033 d0bd db95 7ebd 35c4 033d
000003e0: ddc3 333e d353 babd 3401 2f3d 6c38 0c3e
000003f0: 5cc9 b63b f572 4e3c 884b d13d 0314 203d

MatMul_2 f4 [1, 32]
0.060205553 0.13093746 0.17119397 -0.36199772 -0.30961773 0.13924637 -0.031259887 -0.3464285
0.13648772 0.045066517 0.09683007 0.0578543 0.05523926 -0.07369425 0.054352928 0.10690981
0.13092844 0.18808313 -0.389551 -0.06338956 -0.33525872 -0.07621401 -0.026830738 0.039384436
-0.37343428 -0.35822305 0.1673073 0.010082224 -0.09019395 -0.021826109 0.1080014 -0.32754162
00000000: 199a 763d 7814 063e 794d 2f3e c457 b9be
00000010: 3786 9ebe 9a96 0e3e 5e0a 00bd 145f b1be
00000020: 70c3 0b3e ab97 383d d84e c63d a1f8 6c3d
00000030: 9042 623d 03ed 96bd 2da1 5e3d 88f3 da3d
00000040: 1b12 063e dd98 403e 3b73 c7be 63d2 81bd
00000050: 08a7 abbe 1716 9cbd 23cc dbbc 9351 213d
00000060: c732 bfbe 0369 b7be 9b52 2b3e ea2f 253c
00000070: 9bb7 b8bd abcc b2bc d72f dd3d 89b3 a7be
