app/src/main/ml/alexa_v2.tflite (tflite, 206748 bytes, 9 tensors)

Const_1 f4 [32]
0	0x3c3d7d48	0.011565514
1	0xbcb5b7c0	-0.022182345
2	0xbcc2c28b	-0.023774406
3	0x3be3360c	0.006933933
4	0xbc0eeb2b	-0.008723061
5	0x3c1e89b0	0.009676382
6	0x3bf312b3	0.0074180006
7	0x3cd339d0	0.025784403
8	0x3c99f61a	0.018794108
9	0x3c37f17e	0.01122701
10	0x3ce3831a	0.027772475
11	0x3c8890dc	0.016670637
12	0xbb63f7c1	-0.0034785124
13	0x3bfd9d29	0.007739682
14	0xba172b89	-0.000576668
15	0x3cab35ed	0.020899737
16	0xb9b127d3	-0.00033789742
17	0x3c844ca1	0.01614982
18	0x3cbcd299	0.02304964
19	0x3cb3bf7d	0.021941895
20	0x3a322837	0.00067961536
21	0xbcb6d3ec	-0.02231785
22	0x3c66d8cf	0.014089777
23	0x3bc9e0c1	0.006160826
24	0xbcaa1580	-0.020762205
25	0x3ce0dbe9	0.027448611
26	0xbbdf6b01	-0.006818176
27	0xbc49b803	-0.012311938
28	0xbc44e228	-0.0120168105
29	0x3ca8fb56	0.020627659
30	0x3c778bb0	0.015108988
31	0xbc9b140e	-0.018930461

Const_2 f4 [32]
0	0x3f7e1d6a	0.9926363
1	0x3f7f6a45	0.9977153
2	0x3f7f47de	0.99719036
3	0x3f76e44e	0.96442115
4	0x3f7cdd0a	0.9877478
5	0x3f85e85f	1.0461539
6	0x3f811e94	1.0087457
7	0x3f764b0b	0.96208256
8	0x3f8066a9	1.0031329
9	0x3f7f8826	0.9981712
10	0x3f85e950	1.0461826
11	0x3f7e05f6	0.99227846
12	0x3f819c88	1.0125895
13	0x3f808372	1.0040114
14	0x3f7ffaca	0.9999205
15	0x3f7eafe0	0.99487114
16	0x3f7f8273	0.99808425
17	0x3f8255e1	1.0182458
18	0x3f822ea4	1.0170484
19	0x3f817237	1.0112981
20	0x3f804f1f	1.0024146
21	0x3f807413	1.0035423
22	0x3f7e51f9	0.9934383
23	0x3f7ea535	0.99470836
24	0x3f7d67a3	0.9898626
25	0x3f7f62a3	0.9975988
26	0x3f817f30	1.011694
27	0x3f7d4780	0.98937225
28	0x3f81b9cd	1.0134827
29	0x3f7f43f9	0.99713093
30	0x3f7e684b	0.9937789
31	0x3f7e91cf	0.99441236

Const_3 f4 [32]
0	0x3a99a590	0.0011722315
1	0x3c2f23a1	0.010689647
2	0xbc752d4a	-0.014964411
3	0xbce2f308	-0.027703777
4	0xbbccc044	-0.006248506
5	0x3ca4a9a9	0.020100432
6	0x3bde3104	0.0067807455
7	0x3c3f87fb	0.011690135
8	0x3c6d789e	0.014494089
9	0xbc80ccfa	-0.01572274
10	0x3c9038c2	0.01760519
11	0xbb93afee	-0.0045070564
12	0x3c22b01d	0.009929684
13	0x3cac68de	0.021046098
14	0x3c0ee55f	0.0087216785
15	0xbc8a0bf4	-0.016851403
16	0xbc7dfdec	-0.015502434
17	0x3b7f79e0	0.0038982555
18	0x3cb81ec9	0.022475617
19	0x3c441147	0.01196701
20	0x3b45d2e5	0.0030185517
21	0x3b1470e2	0.0022650291
22	0xbc089e0a	-0.008338461
23	0xbc401f7a	-0.011726255
24	0xbb9417f0	-0.004519455
25	0x3c44d1e3	0.0120129315
26	0x3bb32031	0.005466484
27	0x3b896d57	0.0041939425
28	0x3cdce0a7	0.026962591
29	0xbb2ff948	-0.0026851464
30	0xbbbd264a	-0.0057723867
31	0xbc5f41f3	-0.013626563

Const_5 f4 [32]
0	0xbd50be04	-0.050962463
1	0xbda7dabd	-0.08196018
2	0xbc54a145	-0.012977903
3	0xbd1a11e0	-0.037614703
4	0x3dca08c4	0.09864953
5	0x3d96d1dd	0.07364247
6	0xbdf43a4f	-0.11925184
7	0xbdc5035c	-0.096197814
8	0xbc5c75da	-0.013455832
9	0xbcf485ab	-0.029848894
10	0xbc4b65fa	-0.01241445
11	0xbc3b3b7d	-0.011427757
12	0xbc3439d9	-0.01100012
13	0x3de57402	0.11203767
14	0xbe1e0ddd	-0.15434976
15	0x3c2f52c7	0.010700888
16	0x3c2d06da	0.010560716
17	0x3da22ad4	0.07918325
18	0xbde5ec51	-0.112267144
19	0xbd01126c	-0.03151171
20	0xbcd3930b	-0.025826951
21	0x3cebaeb8	0.028769836
22	0x3df029d4	0.11726728
23	0xbdc9d7b5	-0.09855596
24	0xbcc1b969	-0.02364798
25	0x3e2981b4	0.16553384
26	0xbdaddaca	-0.08488996
27	0xbdfcbd3e	-0.123407826
28	0xbd33f15a	-0.043931343
29	0xbdc347ee	-0.09535204
30	0xbd469121	-0.04847825
31	0x3d0444b8	0.032292098

Const_6 f4 [32]
0	0x3f806483	1.0030674
1	0x3fa62337	1.2979497
2	0x3fb23b16	1.3924282
3	0x3f889710	1.0671101
4	0x3f7fce66	0.99924314
5	0x3f828215	1.0195948
6	0x3f8be1ce	1.0928285
7	0x3f8235c5	1.0172659
8	0x3f7a7069	0.97827774
9	0x3f7e91ba	0.9944111
10	0x3f7ecc0b	0.99530095
11	0x3f7e31c7	0.99294704
12	0x3f8602fb	1.046966
13	0x3fa775ed	1.3082863
14	0x3f7e8efd	0.9943693
15	0x3f7f3bcf	0.99700636
16	0x3f78213a	0.969257
17	0x3f82724b	1.019113
18	0x3f819027	1.0122117
19	0x3f76cc2f	0.9640531
20	0x3faf5191	1.3696767
21	0x3f8201d1	1.0156804
22	0x3f80e50d	1.0069901
23	0x3f7df184	0.9919665
24	0x3f9fa86a	1.2473271
25	0x3f85e8ad	1.0461632
26	0x3f7a5971	0.97792727
27	0x3f7dfb42	0.99211514
28	0x3f9f5915	1.2449061
29	0x3fa13f75	1.259749
30	0x3f8282b5	1.0196139
31	0x3fa31e09	1.2743541

Const_7 f4 [32]
0	0x3ba0da66	0.0049088476
1	0x3e912ab1	0.28352883
2	0x3ead2d89	0.33823803
3	0x3c079ceb	0.008277158
4	0x3bb0b492	0.0053926194
5	0x3c108951	0.008821801
6	0x3d94f738	0.07273716
7	0x3c9a0379	0.018800484
8	0xbc803704	-0.015651233
9	0xbc678293	-0.014130252
10	0xbbfcf6cf	-0.0077198516
11	0xbc64a1df	-0.013954609
12	0x3cfd2504	0.03090144
13	0x3e926fb2	0.28600842
14	0xbb160137	-0.0022888908
15	0xbc5c9589	-0.013463386
16	0xbcc48ec7	-0.023993863
17	0x3c85f4eb	0.016352138
18	0x3c89aa9d	0.016804988
19	0xbcaee0d1	-0.021347435
20	0x3ea03cfe	0.31296533
21	0x3c200655	0.009767135
22	0x3c6b9972	0.014379846
23	0xbcaa12da	-0.020760942
24	0x3e843c1b	0.25827107
25	0x3c4adb97	0.012381456
26	0xbcc0b386	-0.023523103
27	0xbc41c57b	-0.011826868
28	0x3e83882c	0.25689828
29	0x3e8906cb	0.26762995
30	0x3cb1eda7	0.021719767
31	0x3e8cff43	0.275385

MatMul f4 [32, 1536]
0	0xbba25dbb	-0.004955021
1	0x3c2979f5	0.010344018
2	0xbcb27ffb	-0.021789541
3	0x3c6a0da4	0.014285479
4	0x3bb66dbf	0.005567282
5	0x3cb33682	0.021876577
6	0x3b30a326	0.0026952713
7	0xbcef64a6	-0.029222798
8	0x3c27e6c0	0.010247886
9	0xbc8428d5	-0.016132751
10	0x3ca38982	0.01996303
11	0x3ca952ee	0.020669427
12	0x3ccc4ad9	0.024938034
13	0x3ca1aeb7	0.01973663
14	0x3cf4b925	0.02987344
15	0xbce2fa99	-0.027707385
16	0xbd0e411a	-0.034730054
17	0x3c4cc25f	0.012497514
18	0xbc255a8b	-0.010092388
19	0xbb4e5d50	-0.0031488724
20	0x3cc108a4	0.02356369
21	0xbcadf1bc	-0.021233432
22	0xbc06e877	-0.008234135
23	0xbc5678bc	-0.013090309
24	0xbc775091	-0.015094892
25	0x3ca7e372	0.020494197
26	0x3b4ac0f3	0.003093776
27	0xbc943e92	-0.018096242
28	0x3abaa647	0.0014240228
29	0x3c571306	0.013127094
30	0xbcc2173c	-0.02369272
31	0xbc90214e	-0.017594006
32	0xbba9b8a2	-0.0051794806
33	0x3cc29a2d	0.023755157
34	0xbc6b7454	-0.0143709965
35	0x3cae2f3b	0.021262756
36	0xbcafec38	-0.021474943
37	0xbc12c938	-0.008959107
38	0xbca82aee	-0.020528283
39	0x3b9304bb	0.004486648
40	0xbb303a12	-0.0026890081
41	0x3ca2be75	0.019866208
42	0x3c923853	0.017849123
43	0x3c0b9b41	0.008520902
44	0x3c3b9bb5	0.011450698
45	0x3c88a57a	0.016680468
46	0x3c54f05a	0.012996757
47	0xba0f38b2	-0.00054634653
48	0xbca663e6	-0.020311307
49	0x3c9697ae	0.018382873
50	0xbbc03c28	-0.005866546
51	0xbcbf4efe	-0.023353096
52	0x3cb8369b	0.022486975
53	0xbb96eda3	-0.004605965
54	0xbcd618a5	-0.026134798
55	0xbcb06b4e	-0.021535542
56	0x3c77c40a	0.015122423
57	0xbc9963f7	-0.018724425
58	0xbc209e57	-0.009803376
59	0xbc8f757a	-0.017512072
60	0x38b655fb	8.6944514e-05
61	0xbcb9bf94	-0.02267436
62	0xbc9e83f8	-0.019350037
63	0xbbac17cb	-0.00525186
64	0xbc8c575e	-0.017131504
65	0x3b368115	0.0027847935
66	0x3ab36770	0.0013687443
67	0xbc926060	-0.01786822
68	0x3c2e04d4	0.010621268
69	0x3b93aae1	0.0045064543
70	0xbc2c33df	-0.010510414
71	0x3ba9c22a	0.005180617
72	0x3cae5d63	0.021284765
73	0x3b3eb4c2	0.002909944
74	0x3ca502bb	0.020142904
75	0xbb95b5f0	-0.004568808
76	0x3b97db93	0.0046343296
77	0xb96301a0	-0.00021649012
78	0x3c627cca	0.013823697
79	0x3be207c6	0.0068978993
80	0xbc7de95b	-0.015497531
81	0x3c20f0f3	0.009823072
82	0x3c5464a5	0.012963449
83	0x3c776ae2	0.015101166
84	0xbca343c5	-0.019929776
85	0xbcd64cf3	-0.02615974
86	0x3be70dab	0.00705119
87	0xbca930f3	-0.020653224
88	0xbc2e6009	-0.010643014
89	0xbc6b1137	-0.014347366
90	0xbc276721	-0.010217459
91	0x3c8ea349	0.017411845
92	0xbcb969be	-0.02263343
93	0x3a9febae	0.0012200975
94	0xbbc0a840	-0.005879432
95	0x3ca4af0b	0.020102998
96	0xbc804072	-0.01565573
97	0xbc3f396c	-0.011671405
98	0xbba38ea1	-0.004991368
99	0xbc845966	-0.01615591
100	0x3b097ab7	0.0020977685
101	0xbc835691	-0.016032489
102	0xbb576d95	-0.0032871712
103	0xbc94caab	-0.018163046
104	0x3c4ccf47	0.012500591
105	0xbc1dc8dd	-0.009630409
106	0x3b30e12b	0.002698968
107	0x3c48823c	0.012238082
108	0xbc18ecce	-0.009333802
109	0x3b041fa1	0.0020160454
110	0xbc356f26	-0.011073863
111	0xbd0f5ccf	-0.03500062
112	0xbb88ae26	-0.0041711507
113	0x3bda5ab5	0.006663645
114	0x3cfa1a88	0.03053023
115	0x3c2c069f	0.0104996255
116	0xbb458b3a	-0.00301428
117	0x3c040cff	0.008059739
118	0xbc4d7767	-0.012540675
119	0x3c63c4f4	0.013901938
120	0x3c3155c5	0.010823672
121	0x3cc84d07	0.024450792
122	0x3bc5dca1	0.006038264
123	0xbb57eab6	-0.0032946295
124	0x3c6e5ccd	0.014548493
125	0xbc0fc432	-0.008774804
126	0xbc94dffa	-0.018173207
127	0x3cbb9df4	0.022902466
128	0xbcbb1aec	-0.022839986
129	0x3bdf3e4c	0.0068128463
130	0xbc3b2a82	-0.011423709
131	0x3c5dbd27	0.013533867
132	0xbc661f19	-0.0140455
133	0xbbefa2a4	-0.0073130894
134	0xbb33ea91	-0.0027453045
135	0x3cc6e9a7	0.024281336
136	0xbc6531c8	-0.01398892
137	0xbc64b27c	-0.01395857
138	0x3c1c9d5a	0.009559
139	0x3ba47c1c	0.005019678
140	0xbaf339d3	-0.0018556662
141	0xbc7f5e27	-0.0155864125
142	0xbc1b74bb	-0.00948828
143	0xbc109bfd	-0.008826253
144	0xbc87f82d	-0.016597832
145	0x3c8a41a7	0.016877009
146	0xb99ad724	-0.0002953346
147	0xbc43ce7e	-0.011951087
148	0x3b1aa3ee	0.0023596245
149	0x3c839784	0.01606346
150	0xbc335916	-0.010946533
151	0xbc32b23d	-0.010906753
152	0xbc069edf	-0.008216589
153	0xbc8f785e	-0.01751345
154	0xbbf55deb	-0.0074880025
155	0x3be739f5	0.0070564696
156	0xbb7fc190	-0.0039025284
157	0xbbe16dc2	-0.006879539
158	0xbc9b9da2	-0.018996064
159	0x3c39a4a6	0.011330759
160	0xbb50d14a	-0.0031863027
161	0xbb854334	-0.004066849
162	0x3b34c238	0.0027581584
163	0xbc378b11	-0.01120259
164	0xbc24148b	-0.010014663
165	0xbcd10db9	-0.025519239
166	0xbbc507b5	-0.0060128816
167	0x38d83a3a	0.00010310528
168	0x3b76d8d1	0.0037665854
169	0xbcaa6096	-0.020798009
170	0xbc65ae75	-0.014018645
171	0x3c3f026d	0.011658293
172	0x3cec0c40	0.028814435
173	0xbc6246f8	-0.013810866
174	0xbc8a7e98	-0.016906068
175	0xbccd01bf	-0.025025247
176	0xbbe6b386	-0.007040444
177	0x3cc4a811	0.024005922
178	0xbca1c843	-0.019748813
179	0xbcc2a481	-0.023760082
180	0xbc8549a6	-0.01627047
181	0xbd11b473	-0.03557248
182	0x3cf54cac	0.029943787
183	0x3b136cbe	0.0022495235
184	0x3c6af197	0.014339826
185	0x3c67c4b0	0.014146015
186	0xbca14a69	-0.019688802
187	0xbc676ea4	-0.0141255
188	0x3bf78b8e	0.007554478
189	0xbc443da5	-0.011977588
190	0xbb5d22bf	-0.0033742634
191	0xba9fc002	-0.001218796
192	0x3b00b2be	0.0019637789
193	0x3afcf6df	0.0019299648
194	0x3b501bcf	0.0031754856
195	0xbc84fbe9	-0.016233401
196	0x3c1621a4	0.009163294
197	0x3c220ab0	0.009890243
198	0xbc28ced7	-0.010303221
199	0xbccf1aaa	-0.02528127
200	0xbcae660c	-0.021288894
201	0xbbe08e6f	-0.006852917
202	0x3bd6fc7d	0.0065608607
203	0x3c668f92	0.014072316
204	0xbba31421	-0.004976765
205	0x3c11fc08	0.008910187
206	0x3bee3054	0.0072689448
207	0xbb61e06f	-0.0034466048
208	0x3c9f7404	0.0194645
209	0x3bdff3eb	0.006834497
210	0x3c2cbfde	0.010543792
211	0xbbeeb71e	-0.007285013
212	0xbc151063	-0.009098145
213	0xbbd28c49	-0.0064254147
214	0x3c60529d	0.013691572
215	0xbc47e915	-0.012201567
216	0xbc48b502	-0.012250187
217	0xba53f5f3	-0.00080856605
218	0xbb9ba4bf	-0.004749864
219	0xbca19e98	-0.019728944
220	0xbbe7d808	-0.0070753135
221	0x3a5ab81c	0.00083434745
222	0xbbdc185e	-0.006716772
223	0x3cd7df10	0.026351482
224	0x3cc7e5ba	0.024401534
225	0x3cc5573e	0.024089452
226	0x3c10d599	0.008839988
227	0x3c9246e5	0.01785607
228	0x3c1b69c0	0.009485662
229	0x3c5bfb58	0.013426624
230	0xbce40968	-0.027836516
231	0xbab695a3	-0.0013930093
232	0x3c97b9a2	0.018521134
233	0x3c871fcd	0.016494656
234	0xbcb4d658	-0.022074863
235	0xbb718741	-0.00368543
236	0x3c557ec1	0.013030709
237	0xbbf8081b	-0.0075693256
238	0x3c03cd99	0.008044624
239	0xbc823f1c	-0.015899234
240	0xbcb8a121	-0.02253777
241	0xbcafb403	-0.021448141
242	0xbcb50ccb	-0.022100827
243	0x39847596	0.0002526461
244	0x3a4d8a2d	0.0007840719
245	0xba71e40c	-0.0009227402
246	0xbcb93219	-0.022606896
247	0xba558127	-0.00081445504
248	0x3c2a14e1	0.0103809545
249	0x3c6e5f43	0.014549079
250	0xbaa73993	-0.0012758247
251	0xbcb6a16d	-0.02229377
252	0xbbaab87b	-0.00520998
253	0xbca973f1	-0.020685168
254	0xbc4e81bf	-0.012604176
255	0xbc9609ac	-0.018315159

MatMul_1 f4 [32, 32]
0	0x3d920345	0.0712953
1	0xbe2790c4	-0.16363817
2	0x3da2877b	0.07935997
3	0x3d62d526	0.055379055
4	0xbadddef0	-0.0016927402
5	0x3d3d733a	0.046252467
6	0x3c52a88c	0.0128575675
7	0x3d542c90	0.05180031
8	0xbda043d4	-0.07825437
9	0x3de2639c	0.11054155
10	0xbd983db8	-0.07433647
11	0x3e03ff96	0.12890467
12	0xbe1da0d6	-0.15393385
13	0x3da1c6d2	0.0789925
14	0x3d93e0ba	0.072205976
15	0x3d577a41	0.052606825
16	0x3c8626c4	0.016375907
17	0x3cd94a6d	0.026524747
18	0x3d6778b3	0.056511592
19	0x3c3aef4c	0.011409592
20	0x3e304459	0.17213573
21	0x3e363b4a	0.17796054
22	0x3cfdeeb6	0.030997615
23	0x3c4c4475	0.012467493
24	0xbbe6b3cf	-0.007040478
25	0x3dc7ade9	0.097499676
26	0xbd9072b2	-0.070531264
27	0xbe1d5207	-0.15363322
28	0xbd330940	-0.043709993
29	0xbd42eaa2	-0.047587045
30	0x3b430cfc	0.0029762378
31	0xbe32d33e	-0.17463395
32	0x3e43dc6f	0.19127057
33	0x3d9b0ca6	0.07570772
34	0x3da674d2	0.081277505
35	0x3d5458bb	0.051842432
36	0x3dfa4cbd	0.12221668
37	0x3e3f4a03	0.18680577
38	0x3dba141c	0.09085867
39	0xbded64a7	-0.115914635
40	0xbd8e41f7	-0.069461755
41	0x3d10342d	0.03520601
42	0x3d3646d2	0.044501133
43	0x3decd31e	0.11563705
44	0x3e2345d5	0.15944608
45	0x3d000461	0.031254176
46	0xbd419280	-0.047258854
47	0x3e35e2d4	0.1776231
48	0xbd8d66de	-0.06904386
49	0x3ba9bf2f	0.0051802616
50	0x3d44a569	0.04800931
51	0x3de710c4	0.11282495
52	0xbe04d6cb	-0.12972562
53	0x3e0ca4a9	0.13734688
54	0x3e106a3d	0.14103027
55	0x3cebae87	0.028769745
56	0xbe01e59b	-0.12685244
57	0x3dd31a73	0.10307779
58	0xbe1a39f5	-0.15061171
59	0xbd7a4da3	-0.061109196
60	0xbcd4be88	-0.025969759
61	0xbe10c77d	-0.14138599
62	0xbd708e15	-0.05872925
63	0x3e139c03	0.14414982
64	0xbdc60405	-0.096687354
65	0xbd378dd4	-0.044812992
66	0xbc7db982	-0.015486123
67	0x3d143089	0.0361791
68	0x3d303c48	0.04302624
69	0x3df0560e	0.11735164
70	0x3d33cb08	0.043894798
71	0x3deca7b6	0.11555426
72	0x3ce45326	0.02787168
73	0xbe217e29	-0.15770783
74	0x3e67d676	0.22640404
75	0xbd9fc117	-0.07800501
76	0x3d1efb67	0.038813975
77	0x3bca2991	0.006169506
78	0xbdf40220	-0.11914468
79	0x3e17206e	0.14758465
80	0xbd1fe1bd	-0.03903364
81	0xbe2a56d8	-0.16634691
82	0x3dd69d0a	0.104791716
83	0x3e3ba229	0.18323578
84	0xbdb3eca3	-0.08785369
85	0x3c62e465	0.013848399
86	0xbd3bbb1b	-0.045832735
87	0xbde110c5	-0.10989527
88	0xbc120b24	-0.008913789
89	0xbd8a10a9	-0.06741459
90	0xbe00e4db	-0.12587301
91	0xbc316a79	-0.010828608
92	0x3ddb5dad	0.107112266
93	0x3de8897d	0.11354349
94	0x3dbc299e	0.09187625
95	0xbd5d499b	-0.054025274
96	0x3a61c531	0.00086124527
97	0xbdbfde2d	-0.093685485
98	0x3e11b953	0.14230852
99	0x3cabbc2e	0.020963755
100	0x3c9b47e9	0.018955188
101	0xbdcf0a28	-0.10109359
102	0x3e35012f	0.17676233
103	0xbabc7076	-0.0014376778
104	0xbe13d8fe	-0.14438245
105	0xbdffa988	-0.124835074
106	0xbe255834	-0.16146928
107	0x3ce17e84	0.027526148
108	0xbd017548	-0.03160599
109	0x3e254a0d	0.1614153
110	0x3d1018ba	0.03517983
111	0xbcc15826	-0.023601603
112	0x3d755aae	0.059900932
113	0x3e354b4f	0.17704509
114	0x3e40d357	0.1883062
115	0xbcd31369	-0.025766091
116	0x3db5ab37	0.08870547
117	0x3d9c9e98	0.07647437
118	0xbd88d3de	-0.066810355
119	0x3e28d466	0.16487274
120	0x3e2599ce	0.16171953
121	0xbdca1ecd	-0.09869156
122	0x3c130970	0.008974418
123	0xbd0820cf	-0.033234414
124	0x3dcf1bfc	0.101127595
125	0x3c1267d2	0.0089358855
126	0x3d9ed97f	0.07756328
127	0xbe28046e	-0.1640794
128	0xbe29ec31	-0.16594006
129	0xbc222c8a	-0.009898314
130	0x3e01f6f9	0.12691869
131	0xbd52771c	-0.051383123
132	0x3e03bd00	0.12865067
133	0xbb4ab93c	-0.0030933162
134	0xbe1611cf	-0.14655231
135	0xbe2a5162	-0.16632608
136	0x3de629fc	0.11238477
137	0xbbe7c9ca	-0.0070736157
138	0xbd0a8d6b	-0.033826273
139	0xbe0a45f5	-0.13503249
140	0x3d89d337	0.06729739
141	0x3d7d9c7f	0.061916824
142	0xbe03fcb9	-0.12889375
143	0xbd9ff91e	-0.07811187
144	0x3dbe282e	0.092850074
145	0x3da141b1	0.07873858
146	0x3db2f874	0.08738795
147	0x3cf0d64a	0.029399056
148	0xbd33df04	-0.043913856
149	0x3cceed9a	0.025259782
150	0xbcf9979a	-0.030467797
151	0x3b842f2a	0.0040339427
152	0xbda5efd7	-0.081023864
153	0xbdc63280	-0.09677601
154	0x3d96461b	0.0733759
155	0x3da7f114	0.08200279
156	0xbe3b6736	-0.1830109
157	0x3e05a66b	0.13051765
158	0xbde3ec87	-0.111290984
159	0xbe301884	-0.17196852
160	0xbe2e3899	-0.17013778
161	0xbdcef0d9	-0.10104532
162	0x3b6e0370	0.0036317967
163	0x3d949de6	0.07256679
164	0x3dc2129a	0.09476204
165	0x3dee2f59	0.116301246
166	0xbdc9558e	-0.098307714
167	0x3e08ad5e	0.13347384
168	0xbdc0be6b	-0.09411319
169	0x3e17dfb6	0.14831433
170	0x3c986061	0.018600645
171	0xbd05d714	-0.032675818
172	0xbd5dd3a4	-0.054156914
173	0x3c86b892	0.016445432
174	0xbc45451d	-0.012040404
175	0x3df96972	0.12178315
176	0x3d093814	0.033500746
177	0x3e3a8cba	0.18217745
178	0xbd702a69	-0.058634195
179	0xbd13daaa	-0.036097206
180	0xbe0b3b09	-0.13596739
181	0x3e41b9aa	0.18918481
182	0x3e2d251c	0.16908687
183	0x3d7ee202	0.062227257
184	0x3e107ab1	0.14109303
185	0xbca08193	-0.019593036
186	0x3d63530a	0.055499114
187	0xbd02d734	-0.031943515
188	0xbe3355ca	-0.17513195
189	0x3e322669	0.17397465
190	0x3d805eaa	0.06268056
191	0x3d3223ce	0.043491177
192	0xbe0d91b9	-0.1382512
193	0x3dc60f98	0.09670943
194	0x3d683679	0.056692574
195	0xbd6e16df	-0.05812728
196	0x3e06731b	0.13129847
197	0xbde84b90	-0.113425374
198	0xbdde8b6f	-0.108664386
199	0x3e053628	0.1300894
200	0xbca45fe2	-0.020065252
201	0xbd41b4a6	-0.04729142
202	0x3db6b049	0.089203425
203	0x3d9b8a88	0.07594782
204	0xbd1ab5b8	-0.037770957
205	0xbd296a36	-0.041361056
206	0xbdeaea26	-0.114704415
207	0x3e1e04e2	0.1543155
208	0xba8c7610	-0.0010716338
209	0xbd4e0be9	-0.050304327
210	0x3e5c7545	0.2152911
211	0x3c21b7aa	0.009870449
212	0xbd9321d3	-0.07184186
213	0xbbc38961	-0.0059673046
214	0xbd64b3a9	-0.0558354
215	0xbe25ce53	-0.16191988
216	0x3bee77a8	0.0072774477
217	0x3cd04713	0.025424516
218	0x3cc4b877	0.024013741
219	0xbe225e58	-0.15856302
220	0xbdcbc241	-0.0994916
221	0xbdee9d47	-0.11651092
222	0x3d967645	0.07346777
223	0x3e041d01	0.12901689
224	0x3dc5e4f6	0.096628115
225	0x3cefb8e8	0.029262975
226	0xbe1e637b	-0.15467636
227	0xbd5895a7	-0.052877095
228	0x3da4505c	0.0802314
229	0x3d691a11	0.056909624
230	0xbd9c0160	-0.0761745
231	0x3dd8522e	0.105625495
232	0xbdd39216	-0.10330598
233	0x3ca75c91	0.020429881
234	0x3d177811	0.03697974
235	0x3d72f7c9	0.059318338
236	0x3d38e7cc	0.045142934
237	0x3d567630	0.052358806
238	0xbbdd996a	-0.006762673
239	0x3ddb2464	0.107003
240	0xbdd56ea6	-0.10421495
241	0xbc6c9dda	-0.014441932
242	0xbdc814c5	-0.097695865
243	0xbe21af29	-0.15789475
244	0x3d9f0aaf	0.077657096
245	0x3dd6bd45	0.10485319
246	0xbd341236	-0.04396268
247	0xbd59bb7c	-0.053157315
248	0x3e22f60e	0.15914175
249	0xbe379b34	-0.17930299
250	0x3e3e6852	0.18594483
251	0x3d974a8a	0.07387264
252	0xbde5668b	-0.11201199
253	0x3e269a42	0.16269782
254	0xbdebccc4	-0.11513665
255	0xbd03f969	-0.032220278

MatMul_2 f4 [1, 32]
0	0x3dbad639	0.09122891
1	0xbeab03a1	-0.33401206
2	0xbeba5248	-0.363909
3	0x3e65ba9a	0.22434464
4	0xbcb8553a	-0.022501577
5	0x3e34962e	0.17635414
6	0x3ddfb428	0.10923034
7	0x3cbe9ee4	0.023269124
8	0xbc52654d	-0.012841535
9	0x3e12e337	0.14344488
10	0x3e169873	0.14706592
11	0x3c13ad2c	0.009013455
12	0x3e37a535	0.17934115
13	0xbeae5f8a	-0.34057266
14	0xbdfef152	-0.12448372
15	0x3e16a767	0.14712296
16	0xbce3c93d	-0.027805919
17	0x3dfc70f9	0.12326235
18	0xbbe6a560	-0.007038757
19	0xbc872e0c	-0.016501449
20	0xbeb1fd78	-0.34763694
21	0x3e3db34f	0.18525432
22	0xbcc76ba3	-0.024343317
23	0x3dcc7cb6	0.09984724
24	0xbec35e34	-0.3815781
25	0x3e62a338	0.22132576
26	0xbd8d11cb	-0.06888159
27	0x3db95b9d	0.09050677
28	0xbec6cc59	-0.3882778
29	0xbeabe9c3	-0.33576784
30	0x3dd2103c	0.10257003
31	0xbea9794c	-0.33100355
