app/src/main/ml/alexa_20000_10000_1200.tflite (tflite, 206748 bytes, 9 tensors)

Const_1 f4 [32]
000000 de c8 6d bc ca 3e 88 bb 64 9a 89 bc 3c ee 57 3b
       -0.0145132225 -0.0041578757 -0.016797252 0.0032948395
000010 a6 8e 8e bc 7c 74 44 bb 3f eb 3c bc dc 1d 3e bc
       -0.017402004 -0.0029976657 -0.011530696 -0.011603799
000020 3d ff 88 3c 4a 17 8e 3a 28 03 34 3c a8 c0 d5 bc
       0.01672327 0.0010840681 0.010987081 -0.026092842
000030 24 ce 47 3c f2 ff 80 3c a9 f2 c0 bc e0 a7 ce bb
       0.012195144 0.015747044 -0.02355321 -0.0063066334
000040 f0 80 c4 ba d3 21 51 bc 7a d9 92 38 80 5d 1d 3b
       -0.001499204 -0.012764412 7.002331e-05 0.002401203
000050 f5 1c 7a 3c a4 04 b8 bb d8 f2 aa 3c f9 32 04 bd
       0.015265693 -0.0056157876 0.02086775 -0.032275174
000060 a6 89 88 bc 43 2f 87 bb 3d 92 6d 3c 32 46 9a 3c
       -0.016667198 -0.004125507 0.014500198 0.0188323
000070 ea 08 9e 3c dd 5f a6 3c d7 01 11 3b e2 02 04 bc
       0.01929136 0.020309383 0.002212634 -0.008057328

Const_2 f4 [32]
000000 f0 43 81 3f fa 35 7e 3f 14 d3 7d 3f fd b0 7d 3f
       1.0098858 0.9930111 0.99150205 0.9909819
000010 53 2b 7f 3f 37 5c 77 3f 54 ec 7d 3f c5 ef 7e 3f
       0.9967548 0.96625084 0.99188733 0.9958461
000020 03 74 7d 3f d4 6d 7a 3f cc bf 7e 3f b0 ff 7b 3f
       0.99005145 0.97823834 0.9951141 0.98437023
000030 ac ea 7e 3f 68 af 7d 3f 6b d0 7e 3f 3c b2 7f 3f
       0.9957683 0.99095774 0.9953677 0.9988134
000040 d3 1a 7e 3f 82 21 73 3f 65 71 7b 3f c1 0e 7d 3f
       0.9925968 0.94973004 0.982199 0.9885064
000050 24 78 7f 3f 47 78 7f 3f c1 2d 7e 3f 89 eb 7f 3f
       0.99792695 0.99792904 0.99288565 0.99968773
000060 5f bd 7e 3f 02 d3 82 3f a1 50 7f 3f 3e ea 82 3f
       0.9950771 1.0220644 0.99732405 1.0227735
000070 45 00 7c 3f 38 8b 7f 3f 77 2e 7b 3f 16 2e 7f 3f
       0.9843791 0.99821806 0.98117775 0.99679697

Const_3 f4 [32]
000000 05 7e 87 bc 48 44 13 3c 89 e2 96 3c 5a d1 02 bd
       -0.016539583 0.0089884475 0.018418567 -0.031937934
000010 6c ce 87 3c ff 71 a5 3c f4 46 9d bc 7d f7 56 bc
       0.016577922 0.02019596 -0.019198872 -0.013120529
000020 9c 3c 4f bc 30 51 dd bb f2 b3 1c bc 8e 2b 77 bc
       -0.012648728 -0.006754063 -0.009564387 -0.015086068
000030 f4 fb 09 3b c5 b8 a5 bc c4 7d 89 bc 3a 7e f5 bb
       0.0021054717 -0.020229707 -0.016783603 -0.007491854
000040 59 23 1e 3c ed 22 8a 3c b7 9d 85 bb 26 a4 81 bc
       0.009651982 0.016862357 -0.004077639 -0.015825342
000050 aa 66 2b bc a5 32 93 bc 3c 6d b5 bc 02 0a b5 b9
       -0.010461489 -0.017968485 -0.022146814 -0.00034530467
000060 f3 15 86 bc 8e 99 a4 3c 4a d1 36 bc 7e 54 56 3c
       -0.016367888 0.020092752 -0.011158297 0.013081668
000070 1e ba d8 3b 07 24 3d bc 56 45 b0 bc 61 6f 5e bc
       0.006613984 -0.011544234 -0.021517437 -0.0135763595

Const_5 f4 [32]
000000 7f 57 b7 3c bb 69 04 3e 46 2d f7 3a 5f f3 0e 3e
       0.022380589 0.12930958 0.0018858097 0.13960026
000010 9e f0 e9 3b 2c e5 07 3d 28 c4 1c be b8 2f 18 be
       0.0071392795 0.03317754 -0.15309203 -0.14861953
000020 1d d0 35 3e ee f8 01 be 62 17 cb bd 82 54 f5 bb
       0.1775517 -0.12692615 -0.09916569 -0.0074868808
000030 08 05 1d be 5c 01 b6 bd 8a 9f 38 3d 88 ce f7 bd
       -0.1533395 -0.08886978 0.045074023 -0.120999396
000040 92 b2 1b be 22 54 e2 3d 10 3f 20 be d8 f2 f7 3d
       -0.15204838 0.11051203 -0.15649056 0.12106866
000050 3b 5f d2 3d 7d e1 f0 3a 8e 30 db 3d 36 0c 27 bd
       0.1027207 0.0018377748 0.107026204 -0.04078313
000060 0e 43 df bd c8 db 5b 3d 52 a4 98 3d d4 03 d1 3c
       -0.109014615 0.053676397 0.074532166 0.02551452
000070 c2 99 39 3e 36 88 f4 bd e6 bf 85 bd 62 76 0f 3e
       0.1812506 -0.11940043 -0.06530742 0.14010003

Const_6 f4 [32]
000000 9d 6f 83 3f 3e ff 84 3f 99 44 7f 3f 09 62 a6 3f
       1.0268437 1.0390394 0.99714047 1.2998668
000010 73 d2 b1 3f 55 2a 7f 3f 00 2e 7b 3f f8 7d 82 3f
       1.3892349 0.9967397 0.98117065 1.0194693
000020 86 31 b9 3f 88 5c 7f 3f 96 1b 83 3f 89 1b 76 3f
       1.4468238 0.99750566 1.0242794 0.96135765
000030 1b 7a 7f 3f 52 29 8b 3f 57 1e 7e 3f fa 4f 8a 3f
       0.99795693 1.0871985 0.99265045 1.0805657
000040 3c 33 85 3f 72 80 83 3f f0 17 7f 3f d1 1a 7f 3f
       1.040626 1.0273573 0.996459 0.99650294
000050 3f d7 a2 3f 24 5e 83 3f 7c c4 7f 3f 4d 7b a7 3f
       1.2721938 1.0263104 0.99909186 1.3084503
000060 d8 01 89 3f d6 3e 7e 3f 17 87 87 3f ca 2b 83 3f
       1.0703688 0.9931463 1.0588101 1.0247738
000070 b9 fb 81 3f ce 67 7b 3f fa ff 81 3f 64 0f 80 3f
       1.0154945 0.9820527 1.0156243 1.0004697

Const_7 f4 [32]
000000 50 bb 38 3d 1e 28 4a 3c 0d 77 2b bc 16 9a 99 3e
       0.04510051 0.012338666 -0.010465396 0.3000037
000010 d0 0d b2 3e d7 b2 91 bb 15 7d 11 bd 22 72 b3 bb
       0.34776163 -0.004446368 -0.03551968 -0.005476252
000020 7b 74 c0 3e 4f 82 01 bb 1e 03 59 3d 7a 14 83 bd
       0.37588868 -0.0019761508 0.05298149 -0.0640039
000030 06 25 9f ba c2 db 33 3d 36 20 2a bc 62 1e 7d 3c
       -0.0012141771 0.04391075 -0.010383656 0.015449138
000040 e5 64 0f 3c 76 2e 84 3c 88 fc 00 bc ad 31 d9 bb
       0.0087520825 0.016135436 -0.007872708 -0.0066282363
000050 e8 7e 95 3e 8a c3 99 3c 04 74 33 bb df b4 9f 3e
       0.29198384 0.018769998 -0.0027382383 0.3119268
000060 39 bb 1f 3c 32 1c 4a bc 95 f1 93 3d eb 4b 9e 3c
       0.009749227 -0.012335824 0.072238125 0.01932331
000070 2b 48 b0 3c cc ee 0b bd c0 7e 5b 3c a0 46 45 bb
       0.021518787 -0.03416328 0.013396919 -0.003010191

MatMul f4 [32, 1536]
000000 28 f1 d2 3b 8c 2d 34 bc ce 33 fd bc 7e e1 15 bd
       0.0064374395 -0.010997187 -0.030908491 -0.036592
000010 f1 2a 0a 3d ea 70 b9 3b 5e f9 77 bc 76 bd fc bb
       0.03373236 0.0056592124 -0.015135137 -0.007713015
000020 0c 8a 7f bc 70 47 19 bb a4 1f aa bb b6 d2 58 bb
       -0.015596878 -0.0023388527 -0.00519176 -0.0033084578
000030 ac 7e a8 bc e2 52 5d bc e9 58 4c 3a 37 4a 30 bd
       -0.020568214 -0.01350853 0.0007795231 -0.043039527
000040 ca 86 2e bc 3c 4a c0 3c 5a c2 29 bc 9c 58 ac 3c
       -0.010652253 0.023472898 -0.010361278 0.021038346
000050 04 f5 a9 3b be e0 01 bc 8c fd 1b 39 a8 28 53 3c
       0.005186679 -0.007927118 0.00014876405 0.012888111
000060 90 2f 03 3d 9a e5 fe 3c 5f 5e d1 bc 0d be 77 3c
       0.03202778 0.031115342 -0.025557695 0.015120995
000070 3a 73 0f bc c4 cb 6f bc ac 4f 97 3b 77 a3 72 bc
       -0.0087554995 -0.014635984 0.004617652 -0.014809481
000080 ea e9 91 bc 45 47 d3 bc 55 12 aa bc a2 b2 fb 3b
       -0.017811734 -0.02579082 -0.020760695 0.007681207
000090 65 2b 84 3c 54 5e 26 bc 1b 2c 91 39 2e 55 a2 3c
       0.016133973 -0.0101543255 0.00027689416 0.019816007
0000a0 2a 62 59 bc a0 00 8f 3b c9 62 0a bc b3 69 10 bc
       -0.013268033 0.004364088 -0.008446404 -0.008814263
0000b0 d9 48 11 bc 0f 0a a2 bc 0e 80 9e bb f2 c7 20 3a
       -0.008867466 -0.019780187 -0.0048370427 0.000613331
0000c0 73 1a 80 bc a6 c9 a6 3c 6b df fb 3c 40 c5 13 3c
       -0.015637612 0.020359825 0.030746182 0.009019196
0000d0 34 62 f9 3a fd b6 8d 3c a5 81 9c bc ce 33 0f 3c
       0.0019026459 0.01729917 -0.019104788 0.008740379
0000e0 73 51 4e bc c9 69 96 bb 77 46 a4 b9 16 42 8f 3c
       -0.012592661 -0.0045902473 -0.00031333018 0.017487567
0000f0 83 4a 21 3c 70 65 b9 3b 48 9a 91 3c d1 c8 a5 bc
       0.009844425 0.0056578442 0.017773762 -0.020237358
000100 7c f0 b5 bc 04 dc 01 3d d6 f7 87 3b 90 2f a3 3b
       -0.022209398 0.031703964 0.0041494174 0.004980035
000110 c4 33 73 bc 24 65 9b 3c 22 28 c6 3b ba d3 65 3c
       -0.014843885 0.018969126 0.0060472647 0.01402753
000120 06 96 4c 3d 76 37 82 bc 76 a7 b5 bc 83 73 92 bc
       0.04994776 -0.015895586 -0.022174578 -0.017877346
000130 56 97 d5 bb c8 ad 92 3c f6 44 f2 39 87 57 5c 3c
       -0.006518285 0.017905131 0.00046209217 0.0134486025
000140 e8 48 7f 3a 8b c8 5c bc c8 2e 6a 3c 30 56 a0 3c
       0.0009738342 -0.013475548 0.01429338 0.019572347
000150 ca f9 70 3b 9c b1 09 bd 22 76 25 bc 88 7d ab bc
       0.003676998 -0.033616647 -0.010098966 -0.020933881
000160 2c b0 ad 3c 6e fd d6 bc df 91 38 3a c6 2c 8d bb
       0.02120217 -0.026243892 0.00070407795 -0.004308316
000170 cb b7 df 3c 79 79 54 3c 77 4c d5 3c 32 60 81 bc
       0.027309319 0.012968414 0.026037438 -0.01579294
000180 e2 e6 90 bb 99 cd 10 bc 44 15 fa bc fc 3d 22 bd
       -0.0044220546 -0.008838081 -0.030527718 -0.039609894
000190 d2 cc 01 3b c2 14 5f 3c f8 13 85 3b d4 4c a3 3a
       0.001980592 0.013615789 0.0040612184 0.001245881
0001a0 3e f4 96 3b b2 c1 a5 bc 30 50 62 3c 54 8e 23 bc
       0.0046067527 -0.020233963 0.0138130635 -0.009982664
0001b0 f0 ce 3d 3c 28 6e 00 3c 62 15 b1 bb 0e 88 c6 bc
       0.011584982 0.007838763 -0.0054041604 -0.024234798
0001c0 0c d5 fe bb e9 61 be 3b 5a e0 24 bc c1 ea b4 3b
       -0.007776862 0.0058100116 -0.010063255 0.005521149
0001d0 2f 67 de bc 27 e5 0f bc 45 14 83 3c 56 b8 d3 bb
       -0.027148811 -0.0087826615 0.016000876 -0.0064611835
0001e0 bb 08 09 bc e7 1a 33 3c ea d3 3e 3c 51 45 bd 3c
       -0.008363898 0.010931707 0.011647204 0.023104342
0001f0 d4 d5 98 bc aa 95 a3 bc 22 fa fa bb 90 f7 8f bc
       -0.018656649 -0.019968826 -0.0076592127 -0.017574102
000200 10 8e 0e bc 99 d8 e8 bc f2 a6 3b 3c 35 70 7e bb
       -0.0087008625 -0.028423594 0.011453377 -0.0038824205
000210 52 ba 7e bc 07 6f 40 3b a3 57 08 bc 1d 30 f3 3b
       -0.015547352 0.0029363052 -0.0083216755 0.007421507
000220 2e ee 14 3c 54 18 c5 3c 36 95 d0 bc a3 47 0e bc
       0.00908999 0.024059452 -0.025461774 -0.008684072
000230 82 68 83 3b 38 55 c2 3c a8 f7 1e bc 1c f2 f6 ba
       0.004010261 0.023722276 -0.009702601 -0.0018840465
000240 9a cc a4 3b 4f 5a 84 3b e3 76 36 bb 95 db 7f 3c
       0.005029273 0.004039086 -0.0027841858 0.015616317
000250 45 48 e2 bc 58 12 b0 3c 54 81 1c bc 82 d4 3f bc
       -0.027622351 0.021493122 -0.009552319 -0.011708381
000260 52 fe 29 bc be cf 34 3c 4b 93 e0 3c 19 05 34 3c
       -0.010375576 0.011035858 0.027413985 0.0109875435
000270 9d a7 37 3c bd 5b 07 bb b2 f2 98 3c a0 ee b0 bb
       0.011209396 -0.0020654046 0.018670414 -0.00539954
000280 aa de 14 3c b2 be 10 3d 9a e9 58 3c 92 88 be bc
       0.00908629 0.03533811 0.013239289 -0.023258481
000290 5f 97 fc bb 10 c6 ce bb 12 0c a7 bc 86 54 22 3b
       -0.0077084745 -0.006310232 -0.020391498 0.0024769618
0002a0 b3 08 e1 3c 1e 45 86 3a de 03 94 3c 1f 85 3a 3b
       0.027469968 0.0010243987 0.01806825 0.0028460694
0002b0 f6 f8 61 3c a6 e7 06 bd 34 65 b8 3c 43 1f 85 bb
       0.013792267 -0.03293576 0.022509195 -0.0040625646
0002c0 82 23 b4 3b 4d 38 32 bb e9 17 0d bc ea b2 a5 3c
       0.005497397 -0.0027194202 -0.008611658 0.020226914
0002d0 d1 cd 89 3c b2 60 21 bd fc 75 ad bc 7e 35 f3 bc
       0.016821774 -0.039398856 -0.021174423 -0.029688593
0002e0 c3 6d 3f 3c 9e b9 15 3c a0 00 75 bb 37 a7 c6 3c
       0.011683884 0.009138493 -0.0037384406 0.024249656
0002f0 29 cf 68 3b ce 94 cd ba ad 25 bf ba 7a 04 ac 3c
       0.0035523868 -0.0015684606 -0.0014583372 0.020998228
000300 fb 30 86 3c a4 59 8c 3c 7e b7 d0 bc 2d f7 2a bd
       0.016380778 0.017132588 -0.02547812 -0.04173963
000310 e2 ea b5 3b c9 69 12 3b f3 fa 8d bc 31 f6 90 bc
       0.005551682 0.0022340885 -0.017331576 -0.017695518
000320 31 dc 1b 3c 00 43 4b bc 20 ec be 3c ac 0c 1f bc
       0.009512947 -0.012406111 0.023305953 -0.009707611
000330 d5 a0 96 3c 15 d6 cb 3c f2 f2 8e bb 81 b0 40 bb
       0.018387238 0.024882356 -0.0043624574 -0.002940208
000340 16 7e 6c ba d8 2e e6 3c 4c 94 7a bc 27 ba 12 bc
       -0.0009021474 0.028098509 -0.015294146 -0.008955515
000350 d2 09 88 3c 3d f6 57 3c 54 e2 ad 3b 74 b8 b4 bc
       0.016606245 0.013181266 0.0053065214 -0.02206061
000360 1d d4 b3 3c d6 bd 9c bb 8f 6b 9e 3c c6 79 83 3c
       0.02195173 -0.0047833724 0.019338397 0.016049277
000370 78 e0 fc 3c ea d7 1a 3c 5b 34 57 3c 0d 5b b7 39
       0.030868754 0.009450892 0.013135041 0.00034972318
000380 e3 65 af 3c c4 31 70 bc fe 48 60 3c 96 54 23 3b
       0.021410888 -0.014660303 0.013689278 0.0024922243
000390 52 b4 0a 3b 36 99 b3 3c ac 80 86 bc 5f 26 9e bc
       0.0021164608 0.021923643 -0.016418777 -0.019305406
0003a0 84 59 aa 3c 1c c1 14 3b 0a 2e 66 3c 98 e0 3a bc
       0.020794638 0.002269811 0.0140490625 -0.011406086
0003b0 98 41 3e 3c e6 0e 83 bc f6 58 2b 3c a3 fd 44 3c
       0.011612318 -0.015998315 0.010458222 0.012023362
0003c0 72 1b 27 bc 9f a1 92 3c 2e 5e e9 b8 64 9a db 3c
       -0.010199415 0.017899333 -0.00011127848 0.026807018
0003d0 e0 2e 3b 3c c6 da 0b 3d 66 66 b6 bc c2 93 85 3c
       0.01142475 0.034144185 -0.022265624 0.016305808
0003e0 83 ca 8a bc 28 c7 39 3c b8 4d aa 3a 96 c1 8a 3b
       -0.016942268 0.011338986 0.0012993133 0.004234503
0003f0 82 a9 29 3d fe 4b 86 bb 9c 50 db 3c 84 1e 94 bc
       0.04142142 -0.0040984144 0.026771836 -0.018080957

MatMul_1 f4 [32, 32]
000000 1c 0f 7b 3d 70 70 2c be ee 81 a2 bd 9a 2b 3d bd
       0.061293706 -0.16839767 -0.07934938 -0.04618416
000010 78 75 5d 3d f0 e4 81 bc 95 c2 ff bd 5c 57 a2 3d
       0.054067105 -0.015856236 -0.124882855 0.07926819
000020 62 53 ea 3c e6 f0 bd 3d 68 06 81 bd fa c3 91 3c
       0.028604213 0.09274463 -0.0630005 0.017793644
000030 a4 4a f2 bd 46 3b 18 be 49 90 6e 3d a9 05 c2 bd
       -0.11830643 -0.14866361 0.05824307 -0.09473736
000040 37 46 d4 3d b2 25 13 3e 6a 78 d8 3d f8 5a 50 bd
       0.10364955 0.14369848 0.10569842 -0.050868005
000050 ef 4f 94 bc be 62 95 bc a2 cf ba bd d1 5f 3c bd
       -0.018104522 -0.01823556 -0.09121634 -0.045989815
000060 88 ab da 3d 4e ad 1e b8 ed 9b 25 be 45 57 0f be
       0.10677248 -3.7831538e-05 -0.16172762 -0.13998134
000070 34 a8 01 be 32 31 1b be 6a df d4 bd af c6 3c bd
       -0.1266182 -0.15155485 -0.10394175 -0.046087917
000080 c0 0d 00 3d c5 82 ec bd 92 64 01 3e 8e 37 0b be
       0.031263113 -0.1154838 0.12636021 -0.13595411
000090 b4 88 74 3d 51 88 ff 3d 34 34 a4 bd f8 4e 52 3c
       0.059700683 0.12477172 -0.080177695 0.01283621
0000a0 78 b2 db 3c b1 7d e1 bd 12 1a 9f 3d 45 b8 33 3e
       0.026818499 -0.11010302 0.077686444 0.17550762
0000b0 f4 02 33 3d 80 ba ab 3d c4 00 1d 3e 1f a0 64 bd
       0.04370399 0.083851814 0.15332323 -0.055816766
0000c0 b1 b6 18 be c1 ad f2 bc d9 b9 e6 bd 0d aa 22 be
       -0.14913441 -0.029623868 -0.112659164 -0.15885182
0000d0 32 68 c4 bd dc 2e 89 3c 06 b4 ad 3d 48 21 40 3d
       -0.09590186 0.016745977 0.08481602 0.04690674
0000e0 60 2d 56 3c 80 78 19 be ae d0 01 be 72 c4 aa bc
       0.013072342 -0.14987373 -0.12677261 -0.020845626
0000f0 40 0b dd 3d cc 82 4d 3d fc b6 1e 3e dc 15 b2 bd
       0.107931614 0.050173566 0.1549949 -0.086955756
000100 8e 2c 85 bb 23 cc b4 3d 5e 18 eb bc ce f9 9e 3d
       -0.004064149 0.088279985 -0.028698143 0.0776249
000110 8e 85 a2 bc b8 29 36 be 53 1f d2 bd 70 f8 21 3e
       -0.019839074 -0.17789352 -0.10259881 0.15817428
000120 74 79 02 3e b6 77 7b 3c d0 9f a4 3c 9e 6d de bd
       0.12741643 0.0153483655 0.020095736 -0.108607516
000130 54 3d b7 3d 2d c0 66 3d 3e 0b df bd 37 44 48 bd
       0.08947244 0.056335617 -0.10890816 -0.04889318
000140 a6 33 37 be 1e 9e ec 3d 06 9c 3a 3d ed 98 8d 3d
       -0.17890796 0.11553596 0.04555895 0.06913934
000150 e2 78 50 bc 9f 33 bb 3d 42 27 e6 3d f3 bf be bd
       -0.012724133 0.09140705 0.112379566 -0.09313955
000160 44 92 96 bd 0d dc ce 3d f5 c4 75 bb dd f3 3b bd
       -0.07352117 0.10100565 -0.0037501429 -0.045886863
000170 c5 9f d5 3c 97 c0 c5 3d 5a 57 0d be 1c 12 1b be
       0.02607716 0.09655874 -0.13802853 -0.15143627
000180 ec 5e 19 be 70 d2 19 3e 24 8c bd 3c 4a 3f 08 3d
       -0.14977616 0.15021682 0.023138113 0.033263482
000190 75 61 60 3e 5b a3 16 bd 71 63 ad bd 54 8b 25 be
       0.21912177 -0.03677688 -0.084662326 -0.1616643
0001a0 84 58 d6 3d b0 c4 29 3e 22 82 2b be 1e 58 b0 bd
       0.10466102 0.16578937 -0.1674886 -0.08610557
0001b0 ea 1f 76 3d ee 94 b9 bd 9a 9a 66 bb 06 2d ad 3d
       0.06008903 -0.09061609 -0.0035187365 0.08455853
0001c0 a6 c4 f3 bc 00 cc 04 be b7 b3 0b 3e c1 7a 14 3e
       -0.029756855 -0.12968445 0.13642775 0.14499952
0001d0 5c a3 2e be a6 13 a9 bd ce 6b 4d bd 84 00 c3 3d
       -0.17054504 -0.08255701 -0.05015164 0.09521583
0001e0 dc 46 45 bd e6 17 06 3e 04 1a c2 bd 89 60 e0 3d
       -0.04816328 0.13095054 -0.09477618 0.109559126
0001f0 dc 57 9c bb 2c e8 2d bd 61 94 08 be b0 f6 7c 3d
       -0.004771216 -0.042457744 -0.13337852 0.061758697
000200 58 ce 37 3a dc fa e0 3c 96 8f 15 3e 6c 69 f5 bd
       0.00070116436 0.02746337 0.14605555 -0.11982998
000210 44 0d 6b 3e fd 3a be bc 86 8c 87 3c ee d1 f1 bd
       0.22954279 -0.023221487 0.016546499 -0.11807619
000220 5b 49 01 bd e0 f2 d5 bd 48 8e 33 3e 2c 6f ef 3c
       -0.031564098 -0.10446715 0.17534745 0.029227816
000230 95 4a 5f 3e 85 87 67 3d d0 ff 70 bd 62 0b 7b bc
       0.21805795 0.056525726 -0.05883771 -0.015322538
000240 9c e2 21 3e 86 a6 f3 bd 92 6a 5a 3c c4 2f f1 bd
       0.15809101 -0.11896996 0.013331072 -0.11776689
000250 3d 35 28 3e 72 29 ef 3c 83 b2 40 bd 2e 44 9b bd
       0.16426559 0.029194567 -0.047045242 -0.075813636
000260 f8 21 4e 3d 74 ab 8c 3d 22 60 27 3e 03 36 fc 3d
       0.050325364 0.068686396 0.16345266 0.123149894
000270 ca be c0 bc 9e 8d 6c bb 2c fd ca bc b5 da 97 3c
       -0.023528475 -0.0036095153 -0.024778925 0.018536905
000280 a8 7d 45 3c 37 90 ef bd a2 b0 60 3c 33 f1 60 3d
       0.012053885 -0.11697429 0.013713988 0.054917526
000290 5a fe b9 3d d3 4c 0e bd c6 d9 fc 3d 8c 8a ff 3b
       0.09081717 -0.034741234 0.123462245 0.0077984985
0002a0 7f 31 de 3c 83 b7 03 be 4f d0 c1 3d d0 7c c6 3d
       0.027123211 -0.12862973 0.0946356 0.09691775
0002b0 f7 59 0b bd 99 79 c1 bd 18 98 1c 3e a8 39 28 3e
       -0.034021344 -0.09447021 0.15292394 0.16428244
0002c0 f2 75 24 3e 93 51 0e 3d 9d af c7 bd 6e 9b ee bd
       0.16060618 0.034745764 -0.097502925 -0.116507396
0002d0 50 52 ec 3d 2a 2e 0b be 1e 42 cd bd 06 c6 26 3e
       0.11539137 -0.13591829 -0.100223765 0.16286477
0002e0 fc e9 bf 3d 23 7b 44 bd 6c e1 f7 bd 23 c2 49 bd
       0.09370801 -0.047968995 -0.12103543 -0.04925741
0002f0 29 08 ad bc 93 4b 20 3e 2b b4 8c bd 12 4d 05 3e
       -0.021122055 0.1565383 -0.06870302 0.13017681
000300 dc 76 dc bc 73 ce 07 3e ce b5 10 3e c2 c7 00 3e
       -0.026912145 0.13262348 0.14131853 0.12576202
000310 3c 48 8b bc b3 5d 09 bd 4c 78 07 be b2 c4 da bb
       -0.017002217 -0.033536624 -0.13229483 -0.00667628
000320 db 9c 16 be f2 ae 16 bd 24 eb cc 3d 73 fe 6c bb
       -0.14708273 -0.036787935 0.10005787 -0.0036162406
000330 82 8c d6 3d 21 68 ce bd f1 23 54 bd 31 d6 29 3d
       0.104760185 -0.10078455 -0.05179209 0.041464034
000340 42 8e 09 3e 95 ed 8f bd 85 72 78 3c 6c 41 96 3b
       0.13433173 -0.07027737 0.015164022 0.0045854356
000350 c7 37 36 bc ee aa 17 bd d2 4a c1 bd 8a 68 bc 3b
       -0.011121697 -0.037028246 -0.09438099 0.0057497667
000360 7c f1 70 39 37 b8 40 be 76 57 36 be 58 24 5b 3d
       0.00022978144 -0.18820272 -0.17806801 0.053501457
000370 18 ca 0d be 9d a7 6a 3d 2e 92 87 3d dd 27 d1 bd
       -0.13846624 0.057288755 0.066196784 -0.102126814
000380 25 8a 39 3e d1 91 87 bd 8b 77 01 3e e5 1b c2 3c
       0.18119104 -0.06619609 0.12643258 0.023694942
000390 bc c2 21 be d0 46 37 3d 0e 45 27 be ba 8e 90 bb
       -0.15796942 0.044745266 -0.16334936 -0.0044115456
0003a0 0a 12 dc 3c 16 e9 21 3d 51 65 22 3e b8 a5 8d 3c
       0.02686407 0.03952893 0.15858962 0.017290935
0003b0 7e f3 47 bd e0 1f 29 3e 97 1b b7 3d 45 a6 bf 3d
       -0.048816197 0.16516066 0.08940809 0.09357885
0003c0 8f 40 2d be d4 25 0b 3e e9 92 36 be 61 e9 76 3d
       -0.16919158 0.13588649 -0.1782948 0.06028116
0003d0 8c 85 98 3d 07 b6 95 3c b0 68 8f 3d f1 85 42 bd
       0.07447347 0.018275274 0.070023894 -0.047491018
0003e0 e0 0a 83 bd 2f f5 20 3e da 56 18 3e 7c c9 b4 bc
       -0.063985586 0.1571853 0.14876881 -0.022068731
0003f0 f7 05 29 3e 98 92 96 3d 25 c4 28 3e 23 d5 a4 3d
       0.16506182 0.07352179 0.16481073 0.08048465

MatMul_2 f4 [1, 32]
000000 e4 88 39 be 64 4b 4f 3e fa 28 23 3e 8d 21 db be
       -0.18118626 0.20243603 0.159336 -0.42799035
000010 56 9c bf be 40 cb 2d 3e 2a d1 06 3e aa 7b 03 3e
       -0.37423962 0.16972065 0.13165727 0.12840143
000020 24 83 ca be 5c a9 1c 3c 72 68 00 bd 1c 4b f3 3d
       -0.39553177 0.009561863 -0.031349607 0.1187956
000030 ac 06 12 3e 71 71 b4 3d 26 4e d1 3d c6 0c b5 3d
       0.14260358 0.088107 0.10219984 0.08840327
000040 7e 02 37 3e 72 9a fd 3d 56 11 54 bd d5 d1 4a 3d
       0.17872044 0.12382974 -0.051774345 0.049516518
000050 15 f0 d2 be e3 50 2a 3e c0 da b6 3d 8e 87 bd be
       -0.41198793 0.16632418 0.08928442 -0.37017483
000060 fe 25 b5 3d 70 db 01 3e 0d 9d 73 3d 95 b2 45 3d
       0.08845137 0.12681365 0.059475947 0.048266012
000070 42 e4 a5 3d 42 6e dc 3d 67 bf 3b 3d eb a6 1b 3e
       0.08100177 0.107632175 0.045836832 0.15200393
