app/src/main/ml/alexa_2500_5000_500.tflite (tflite, 206748 bytes, 9 tensors)

Const_1 f4 [32]
00000000: 4939 cebc 2086 823c 542e bfbc 4c60 fd3c
00000010: acc1 d63c 4ee1 81bc 30bb 033c eded 253c
00000020: a806 dfbb ffd5 9dbc 092a 80bb b91b 0fbc
00000030: e6e6 85bc 5650 973c f689 0bbd 5f92 d9bc
00000040: 0364 5d3c 5c91 523c 8613 bd3b 9b75 e5bc
00000050: 059f 213c 285f b33c 80bb 34ba 0ae5 493c
00000060: bfa0 803c b041 80bc d624 aebc 3b27 08bc
00000070: 3993 84bc 8d1c dbbc 15e2 83bc 71ea fabc
-0.0251738 0.015933096 -0.02333752 0.030929707 0.026215397 -0.015854504 0.008040234 0.010127527
-0.0068062134 -0.01926708 -0.003911261 -0.008734637 -0.016345453 0.018470924 -0.034067117 -0.026559053
0.013512614 0.012852039 0.0057701496 -0.02801018 0.009864573 0.02189596 -0.0006894395 0.012322674
0.01570165 -0.015656322 -0.0212578 -0.0083101345 -0.016183482 -0.026747013 -0.016099015 -0.030629368

Const_2 f4 [32]
00000000: c8fe 803f f2c4 7f3f a628 7f3f dcb6 833f
00000010: a281 813f a11d 803f 2f91 7f3f 0625 813f
00000020: 586c 853f 2fb4 823f 48a3 7c3f 8902 803f
00000030: f86a 753f f1bf 7f3f 010c 803f 81ca 7f3f
00000040: 45ee 7f3f efa9 7f3f 8ee0 7f3f c211 803f
00000050: c590 7f3f 7d6e 7f3f f4bc 853f 0ecb 7f3f
00000060: 16a5 7f3f fde2 7f3f 4f7e 7a3f 48d0 7b3f
00000070: 139d 7f3f c1bb 7f3f adbb 7f3f 8905 803f
1.0077753 0.9990989 0.996714 1.0290179 1.0117686 1.0009042 0.9983091 1.0089424
1.0423689 1.0211238 0.9868665 1.0000774 0.95866346 0.99902254 1.0003663 0.9991837
0.99972945 0.99868673 0.9995202 1.0005419 0.99830276 0.99777967 1.0448289 0.9991921
0.99861276 0.9995573 0.9784898 0.98364687 0.9984905 0.99895865 0.99895746 1.0001689

Const_3 f4 [32]
00000000: e42c e03c c864 bcba de62 173c 85e9 bc3c
00000010: fe62 873c b816 9b3a 5780 20bb 650f 8b3c
00000020: d083 0b3d 6bf7 d93c 9149 803c 80c2 3539
00000030: d383 1b3c a52f ceba 7a7e 323a 65f2 ddba
00000040: 95c8 6fb9 89e4 71bb 7efc 1cba ba0c 373a
00000050: 855b e1ba 08e0 07bc 723c fe3c 174d aa3c
00000060: ddcc a3bb dae1 0fba 729b 663c dafa cb3c
00000070: d645 85bb 6ae9 45ba 1ed7 f0ba 2cd3 da39
0.027365156 -0.0014373297 0.00923988 0.02306057 0.016526695 0.0011832332 -0.002449056 0.016975114
0.034061253 0.026607236 0.01566008 0.00017333962 0.009491879 -0.0015730752 0.00068090076 -0.0016933201
-0.00022867539 -0.00369099 -0.0005988552 0.00069827924 -0.0017193413 -0.008293159 0.031034682 0.020788712
-0.004998787 -0.00054886716 0.014075147 0.024899889 -0.004067163 -0.0007549735 -0.0018374657 0.00041737536

Const_5 f4 [32]
00000000: d74e 863c 4d4d b0bd 9ff0 ac3d 187d f03c
00000010: e449 b9bc 364b 1fbd eb6b 27be 4c16 8fbc
00000020: 0151 923d 9089 f73d 09ec b0bd 34b6 0cbe
00000030: a8ca 23bd f4df 9fbd 9b52 1c3e 55e9 e33d
00000040: 0f98 e1bd a9b5 b5bc 71d2 09be 81fe c93d
00000050: 451c fabd 6dcc 6cbc 3011 23be 2145 aabc
00000060: 0204 10be 93a3 e5bd 0a81 4d3d 136d b3bd
00000070: a98c 07be 3490 b0bd d3f7 6c3d 49d3 5a3c
0.016395016 -0.08608494 0.08444332 0.029356524 -0.022618242 -0.038890086 -0.16349761 -0.017466687
0.071443565 0.12086785 -0.0863877 -0.1374138 -0.03998819 -0.078063875 0.15265886 0.11128489
-0.11015331 -0.022181349 -0.13459183 0.09862996 -0.12212423 -0.014453036 -0.15924525 -0.020784916
-0.14064029 -0.1121284 0.05017189 -0.08761039 -0.13237251 -0.086212546 0.05785353 0.013356038

Const_6 f4 [32]
00000000: 5129 7f3f 8111 803f 7be9 7f3f c14c 7f3f
00000010: 5308 7f3f 72cd 7f3f df46 a93f 51dc 7f3f
00000020: 2c73 a53f 1949 803f 1345 7f3f 6db2 7f3f
00000030: d763 803f 7fe4 7f3f 6fc6 9d3f 05d6 7d3f
00000040: fe51 803f 42ff a63f 1f0f 803f fb72 9a3f
00000050: 5037 a13f 727f 7f3f efe2 7f3f 7b41 7f3f
00000060: 038a 7f3f d3dd 7f3f 761b aa3f 010a 7f3f
00000070: 8577 9c3f 7262 a13f 7b0c 7f3f a21c 803f
0.9967242 1.0005342 0.9996564 0.9972649 0.99622077 0.9992286 1.3224753 0.9994555
1.2925773 1.0022308 0.99714774 0.9988163 1.0030469 0.9995803 1.2326182 0.9915469
1.0025022 1.3046649 1.0004615 1.2066339 1.2595005 0.9980384 0.9995565 0.9970929
0.99819964 0.9994785 1.328963 0.9962464 1.2223974 1.2608168 0.9962842 1.0008738

Const_7 f4 [32]
00000000: 6687 95bb 2817 193a 4655 e1b9 7f9e 02bc
00000010: bf81 f5bb f945 aaba dc51 913e 45f6 7fba
00000020: 85b8 893e 26aa 8f3b 824d 83bb 20e7 13bb
00000030: 0783 ac3b 4169 78ba 37b5 723e 03c9 7dbc
00000040: e8bd 413b 2186 8b3e 5aba 303a 4946 793e
00000050: 8fa4 833e 295a 46bb fa0a 20ba 210a 86bb
00000060: c24d 47bb 1c68 20ba 5c6c 903e 184c c0bb
00000070: 8713 6d3e 6fdd 843e e41e 1fbc 817d ba3a
-0.00456326 0.00058399374 -0.00042978878 -0.007972359 -0.0074922736 -0.0012990824 0.28382766 -0.0009764175
0.2689859 0.004384297 -0.0040070424 -0.002256818 0.005264643 -0.0009476133 0.2370194 -0.015489819
0.0029562656 0.2725077 0.0006741636 0.24343218 0.25711486 -0.0030266142 -0.0006105151 -0.004090563
-0.0030411338 -0.0006119029 0.28207672 -0.005868446 0.2315198 0.2595019 -0.009711955 0.0014228077

MatMul f4 [32, 1536]
00000000: b6ca 9e3b a43b e53b b6b3 11bc 21d0 83bc
00000010: 2f34 603c 2f21 1bbc d490 d83b a885 b63a
00000020: 6beb a23c c283 8f3c 77e4 03bc 45a4 9e3b
00000030: bd57 a8ba fa80 bfbb c286 433a 2555 43bc
00000040: c8f4 56bc a15f 90bb 26d7 44bc 68e8 ca3c
00000050: cffb ebbb 7966 b8ba e4a9 7f3b af59 203c
00000060: 5dfe ddbb cfbd 47bc 3e25 7a3c 0c1e 30bc
00000070: c2c8 0abc 6d04 46bc 617f 743c df1c 2ebc
00000080: 01de ebbb fa1e b9b8 5f8f 05bb 5776 f23b
00000090: b4c9 adbb 51d8 803c 38ef 31bc 8d0e 683c
000000a0: bd4c 1dbb 8df4 953c a67b 3c3a c36b 56bb
000000b0: 6591 553b d322 bdbb da88 1c3c 660d 853c
000000c0: db74 21bc 3a50 993b d1c7 efbb fd4e 35bc
000000d0: db87 bfbb 78e8 993c 5f3d 303b 1ce3 78bc
000000e0: 2a65 273c 39d8 55bb 8cda e53b be6d ccbb
000000f0: 409c cb3c 24b0 a7ba 6325 8638 ed86 6b3b
00000100: 3bcd 44bc dfc4 f23b ad5e 67bc 1b63 98bc
00000110: d36c b6bc 213e 123c a511 6a3c fd7a ccbb
00000120: 0122 9bba 415b 9dbb 3498 0e3b fa54 55bb
00000130: dfb9 34bc d155 f7b9 0974 293c bbdd 953b
00000140: ddd0 85bb f9d9 9bbb 2ab5 263b 5b3e 143b
00000150: 1fd5 8bbc 24e5 19bc 62a8 bb3b 25e5 863b
00000160: c7f2 b5b9 c647 583c 7a4d ae3b a526 be3b
00000170: b307 dbbb 7d57 c33c eab1 f8ba a875 2b3c
00000180: 46b2 da3a 51d0 b23b 432c 413b a105 483c
00000190: 616e b9bc c1f2 c43b 09b3 cebb bd92 50bc
000001a0: 4091 ffbb a81c a6ba b76c 99ba a1c9 82bc
000001b0: d5da d63b 3666 1ebc a136 92bb 65ed 063c
000001c0: 0f2f 343c 1fa2 f6bb 8d4f 283b 80fc 3ebc
000001d0: fd2d d0ba 5670 133c 1634 d4bb 5f50 8bbb
000001e0: 576f 40bb fb48 f1bb 1cdc 02bc 18bc ca3c
000001f0: aa9e dbbb ba97 5e3c 1014 da3b 0a71 10bc
00000200: ada6 58bc 8fe2 fe37 72ac fb3b 70d6 2bbb
00000210: 1bf5 59bc e60f 90bb 46a6 f53b 9723 303c
00000220: d89c fb3b 1b5a b4bb 6dcc 313c 0704 35bc
00000230: 9117 d2bb 4694 243b e3b0 f13a a51b 28bb
00000240: c2e5 023c 4d2c 613c 2b76 e63b 2c04 f9ba
00000250: 5d45 193c 02d8 b93c b2fb 1c3c 4207 543c
00000260: dd8f 9ab9 4d4f 3a3c fb84 bbbc 3064 0a3c
00000270: 0e07 bcbb 97f0 693b 9ea6 c6ba 4e7d 4cbc
00000280: e44a d03a 32ab 0abc ab6b 2b3b ad49 cb3a
00000290: 0a3f 253c 87fd 7f3b 0df0 d2bb 3d48 4bbc
000002a0: b85f 893b 81a8 c33b 7079 3d3c 93a6 413c
000002b0: 62b3 483c 2346 863c f41f 6fbc c663 a0bc
000002c0: c993 1cbb 8ae7 d4ba a20c 563a a294 ecbb
000002d0: 25af f03b 24fc 3e3c 3996 3abc c73b 31ba
000002e0: c729 9cba a3a3 29bc 58ba 183b 6372 5d3c
000002f0: 3e0a 0bbb dec2 3bbc 228e a33c 6cb5 64bc
00000300: 9137 8abb 2a3d 14bc e641 3c3c 0681 ebbb
00000310: 90bf aabb 564a 79bc 06ee dc3b 7d6a 8639
00000320: 685c 8dbb df7f a03c 741e 57bb 2b49 7f3c
00000330: 37c7 b73b 0bcd 853c 8df0 723c b8b1 03bc
00000340: 09cf 9f3c 8dc5 98ba 230e efbb f193 e2bb
00000350: 0d05 ca3a 8ac7 6ebb 7fe8 ffbb 96e5 a53c
00000360: e123 4abb 072f d93c 4ff3 92ba d418 58bb
00000370: 3fd5 823c c2b1 4abc 018c 05bc 7b8e 153b
00000380: 1c04 2d3c cadd 53bb ddbe cdbc 6e52 0d3c
00000390: 8317 223c ecfa 583c abaf 2b3c dfb3 aeba
000003a0: 3fe8 80bc 3814 1fbc bb05 763c 31d7 973c
000003b0: 9d77 2dbc 234c 87bb 07ec 0abc 18dd a93c
000003c0: 30f9 5f3c 6293 e7ba 2d2f bf3a f024 c13a
000003d0: c59e 94bc 52e0 8abc f963 e1bc 4058 f03b
000003e0: 8ed2 1e3c 909a 8f3c 6be6 9cbb a4ca 09bb
000003f0: a1d4 fcbb b87c 183c c27a 05bc 8e9b 193c
0.0048459424 0.006995635 -0.008892944 -0.016090455 0.013684317 -0.009468361 0.0066090617 0.0013925331
0.019887647 0.017518882 -0.008050076 0.00484136 -0.0012843531 -0.0058442326 0.000745874 -0.0119221555
-0.013119884 -0.004405931 -0.012014186 0.024769023 -0.007201649 -0.0014068625 0.0039011175 0.009787007
-0.006774707 -0.01219125 0.015267668 -0.010749351 -0.008470716 -0.012086016 0.014922948 -0.010627001
-0.007198096 -8.827257e-05 -0.0020379645 0.007399361 -0.005303586 0.015728148 -0.010860257 0.014163625
-0.0024002038 0.018305087 0.0007190056 -0.003271804 0.0032587883 -0.0057719736 0.009554112 0.01624174
-0.009854521 0.004678753 -0.007317521 -0.011066196 -0.0058450527 0.018787608 0.0026892049 -0.015190866
0.0102169905 -0.00326301 0.007014578 -0.006238668 0.02485478 -0.0012793583 6.396582e-05 0.0035938576
-0.012011821 0.007408723 -0.014121694 -0.018601945 -0.022268688 0.0089259455 0.014286433 -0.0062402473
-0.0011835695 -0.004802138 0.00217582 -0.003255187 -0.011030643 -0.0004717545 0.010342606 0.0045735515
-0.0040837363 -0.004756209 0.0025437572 0.0022620175 -0.017069397 -0.00939301 0.00572686 0.0041166716
-0.00034703893 0.013200706 0.0053192945 0.0058029466 -0.0066842674 0.023845429 -0.0018973921 0.010465063
0.001668521 0.005456962 0.0029475845 0.012208373 -0.02263564 0.006010384 -0.0063079637 -0.012730298
-0.0077992976 -0.0012673335 -0.0011705373 -0.015965285 0.0065568485 -0.009667924 -0.0044620787 0.00823531
0.010997548 -0.0075266506 0.0025682182 -0.01165688 -0.0015882846 0.008998951 -0.0064759357 -0.0042515243
-0.0029363239 -0.0073634363 -0.0079870485 0.024747893 -0.006702264 0.013585979 0.0066552237 -0.008816013
-0.013223332 3.038466e-05 0.007680469 -0.0026220344 -0.013303067 -0.0043964265 0.007496628 0.010750673
0.0076786093 -0.0055039055 0.010851962 -0.0110483235 -0.0064115007 0.0025112792 0.0018439557 -0.0025651243
0.007989349 0.013743472 0.0070331297 -0.0018998436 0.009354916 0.022686008 0.009581493 0.0129411835
-0.00029480355 0.011371446 -0.022890558 0.008446738 -0.0057381457 0.0035696381 -0.0015155857 -0.012481047
0.001589146 -0.008463668 0.0026156704 0.0015509628 0.01008583 0.0039061026 -0.0064373077 -0.01240736
0.004192319 0.005971015 0.0115645975 0.0118195 0.012249799 0.016390866 -0.014595021 -0.019578826
-0.0023891798 -0.001624332 0.00081653346 -0.007219867 0.0073450976 0.011656795 -0.011388355 -0.00067609217
-0.0011914306 -0.010353955 0.002330443 0.013516041 -0.0021215822 -0.011460034 0.019965235 -0.01395927
-0.00421805 -0.009047786 0.011490321 -0.0071870117 -0.0052108243 -0.015215477 0.006742242 0.00025637812
-0.004313994 0.019592224 -0.0032824548 0.015581409 0.005608465 0.016333124 0.01482786 -0.008037977
0.019507902 -0.0011655554 -0.0072953864 -0.0069146086 0.0015412882 -0.0036434853 -0.007809698 0.020251077
-0.003084414 0.026511682 -0.0011211428 -0.0032973783 0.015970824 -0.012371482 -0.008151055 0.002282052
0.010560062 -0.0032328242 -0.025115425 0.00862561 0.009893301 0.013243418 0.010478894 -0.0013328752
-0.015735744 -0.00970941 0.015016015 0.018535228 -0.0105876 -0.0041289493 -0.008479125 0.020735309
0.013670251 -0.0017667825 0.0014586203 0.001473574 -0.018142113 -0.016952667 -0.027513491 0.007334739
0.009693755 0.017529756 -0.00478821 -0.0021025324 -0.007715777 0.009307079 -0.0081469435 0.009375466

MatMul_1 f4 [32, 32]
00000000: 82fb 72bd c02e 27be 9baa aabd 511d 29bd
00000010: fbbc df3c 8f42 fcbd b82d 123e caca 0dbe
00000020: 23a6 e7bd 2969 b03d 33bc 343d 81f9 2cbe
00000030: 7f01 e13a ec9c eb3d ef60 4c3d 1787 143d
00000040: 6c8e b73c 96ea 3c3d 21b7 843b 2a4e a3bc
00000050: 7f0a 693d 1468 1e3e b4a7 9d3d aa33 083e
00000060: 4ab4 893d 015d 14be 421e 1dbe 47d3 3ebe
00000070: fe96 acbd 1544 ddbd d45b afbd bfbf 10be
00000080: f5e2 0abe 15dd 2a3e 5ad6 14be f479 023e
00000090: 65ce 14bc 6ae0 293e 1114 5f3d da64 cd3d
000000a0: 1049 7abd 97b2 bf3d c9d7 c4bd 6baa ed3c
000000b0: 7508 0cbe ba61 b93c 77ff 833d 1536 eebd
000000c0: 8860 13be 585d d83d b9bc b83d 3f52 f2bd
000000d0: 7145 4dbd 7d4e cf3d 4ffb b8bd 924e 11be
000000e0: 250f 0e3e 7fff c83c 634e 123e 7f69 67bd
000000f0: 81eb 273e 7e1a c3bd d7af 1a3e 1c0c 213d
00000100: 48f1 c63c f12c 77bd 9d20 e13d 41ad 1fbd
00000110: ecf7 04be a86b bdbd ff7f 99bd 38e5 a1bd
00000120: 0698 923d 3b08 22bd 8101 e8bc 3797 823d
00000130: 2999 cd3c c6ea 12bd d4fd 32be a90a 1b3d
00000140: face 46bd 923d 0d3c 80f8 1d3e d094 debd
00000150: cad7 813c f348 95bd a8c7 c6bd 1bf5 46bd
00000160: 1cd8 1c3e ed2b ff3d 2fda 003e 2595 1fbd
00000170: 790b 883d 3810 8a3d 0fb1 6a3d c679 d33c
00000180: ee9f 88bd e3a5 1e3e cc25 1fbe b3f1 acbd
00000190: 5c61 dcbd c63e 43bc c6d8 ff3c 796b 963d
000001a0: 0687 f6bd 2554 143e c384 8bbd 3066 f0bb
000001b0: 10b1 d43d 83a2 d93c 977d a3bd 43a7 ab3d
000001c0: 5e43 833d 2bac 703d 1beb 29be 25a5 26be
000001d0: 3b96 fdbd 08ae 013e d329 eb3d befc 49be
000001e0: 8d50 34bc eae7 cdbd 25c9 b73d 79b8 9fbc
000001f0: 4297 483d 2164 043e 6172 963d 450e 7a3d
00000200: 3e1c d43d 33ea f63b 8008 24be c0f6 063d
00000210: 09ad 34bd d500 adbc 41a1 cc3d 24ba 9c3a
00000220: 5f73 c0bd 9cd8 dabc 3e2e edbd c5ae c03d
00000230: 0800 0a3c 6d24 ca3d 1400 34bd 7ac1 20be
00000240: bfbd dbbd aff4 fc3d f9a8 2c3e 825e acbd
00000250: 4165 193e 949f 9d3a 3fc7 003e d7f9 9dbd
00000260: c9c9 9a3d 1d9a 9bbc 90e9 1ebd de6f e6bd
00000270: 8576 563c fb35 ed3d c1f4 5b3d 1174 78bd
00000280: c9a1 ea3d 5538 bd3d cd10 febd 6f9a 183e
00000290: f73f 29be 0251 ae3c 5586 a73d c0f6 53bc
000002a0: 7f2d 063e 48fc bd3c 2a9b 1f3e 9bc6 29be
000002b0: 8dd2 a2bc ff22 1ebd 3894 073e 3baa ffbd
000002c0: e7eb 053e e2cc 81bd 1771 29bd 83a1 77bd
000002d0: af04 fcbd 2c7a 333e d370 3dbe bd22 01be
000002e0: 6287 6dbc 6be6 eb3d 8f71 be3c 62de 1cbe
000002f0: e328 a03d b945 983c ebfb a73d d6a4 2e3e
00000300: e533 c13d ff8c 7cbd ea1a c3bc 2fec 943d
00000310: 8ee2 df3d 9610 56bd addf bf3d 9858 533d
00000320: ec4f 353e e046 14be ab0d e23d f992 833d
00000330: f825 153e 6b0f 2cbc 166d 4ebd 81d4 e7bd
00000340: ff56 c9bd 5792 463d 2db4 7ebd 9626 d3bd
00000350: 1e53 19be cf41 033e 2ff3 183e 795b e9bc
00000360: 8136 ba3d d050 e13d d47c a4bd 1f04 d63d
00000370: e918 ca3c 31f2 f5b9 c0d3 0f3e 8eb4 fabd
00000380: 513e 0b3e c934 023e 1bd0 d539 ef7a 88bd
00000390: 4f6f 093c 681b 8bbd 98ff 8fbd bbc0 e4bc
000003a0: a907 8b3c 0b32 07be ff3b d23d 41b0 bb3d
000003b0: d83d ab3c c60e 183e 2cf9 e53d 90c0 efbd
000003c0: fffe e93d 87f4 d43d 582c 15be 3a2a e83c
000003d0: 2907 753c a98c 2d3e dbc8 e93c 4014 a0bd
000003e0: bb6a c63c d3ae ec3d dfbc 9e3c 54f0 c3bd
000003f0: bb5b 72bd 3ed6 afbd d62a ddbc 79bd 213e
-0.059321888 -0.16326427 -0.08333322 -0.041287724 0.027311793 -0.123173825 0.14275253 -0.13846889
-0.11310985 0.08613808 0.044124793 -0.16892053 0.0017166584 0.1150454 0.04989713 0.036261644
0.02240678 0.046122156 0.004050151 -0.019934732 0.056894775 0.1546939 0.076980025 0.13300958
0.067238405 -0.14488603 -0.15343574 -0.18635283 -0.08427237 -0.10804001 -0.08562437 -0.14135645
-0.1356314 0.16685899 -0.14534894 0.12741834 -0.009082411 0.16589513 0.054462496 0.100290015
-0.061104834 0.09360235 -0.0961147 0.029011926 -0.13675101 0.022629607 0.064452104 -0.11631409
-0.14392292 0.10564679 0.09020371 -0.118320934 -0.050115053 0.10122392 -0.09032308 -0.14190128
0.13872965 0.024535893 0.14287715 -0.056497093 0.16398431 -0.09526537 0.1510614 0.03931819
0.024284974 -0.060345594 0.109925486 -0.038983587 -0.129852 -0.092490494 -0.074951164 -0.07905048
0.071579024 -0.03955863 -0.02832103 0.06376498 0.025097447 -0.03586843 -0.1747964 0.037851963
-0.048537232 0.008620637 0.15426826 -0.108682275 0.015849967 -0.072893046 -0.0970605 -0.048573595
0.15316814 0.1245955 0.1258323 -0.038960595 0.06642813 0.06741375 0.057297762 0.025814902
-0.06671129 0.15492968 -0.15541762 -0.08444538 -0.10760757 -0.011916822 0.031231295 0.073447175
-0.120374724 0.14485224 -0.06812432 -0.0073364004 0.103853345 0.02656675 -0.07982939 0.08381512
0.06409334 0.058757942 -0.16593592 -0.16273935 -0.1238217 0.12664044 0.11482587 -0.1972532
-0.011005533 -0.10054 0.08973912 -0.019497143 0.048972376 0.12928821 0.07346035 0.061048765
0.10356949 0.007535243 -0.16018867 0.032950163 -0.04411033 -0.02111856 0.09991694 0.001195733
-0.09397005 -0.026714616 -0.115810856 0.09408335 0.008422859 0.09870229 -0.043945387 -0.15698805
-0.107295506 0.12351357 0.16861333 -0.084164634 0.14980032 0.0012025707 0.12576006 -0.07713669
0.07558019 -0.018994385 -0.03879696 -0.11251806 0.013089781 0.115825616 0.053700212 -0.060657565
0.11456639 0.0923926 -0.12405548 0.14902662 -0.16528307 0.021278862 0.08179919 -0.012937248
0.13103293 0.023191586 0.15586534 -0.16579668 -0.019875789 -0.038607594 0.13240135 -0.12483641
0.13078271 -0.063379064 -0.041367617 -0.060456764 -0.12305581 0.17527074 -0.1850007 -0.12610908
-0.01449761 0.11518558 0.023247508 -0.15319207 0.078202985 0.018587934 0.082023464 0.17055067
0.09433726 -0.0616579 -0.023816545 0.07271611 0.10931884 -0.05226191 0.09368835 0.05159816
0.17706269 -0.14480162 0.11037763 0.06424517 0.14565265 -0.010501723 -0.050397 -0.11319829
-0.09831046 0.048479404 -0.062183548 -0.10310094 -0.14973113 0.12818073 0.14936517 -0.028486
0.09092427 0.11001742 -0.080316216 0.10450005 0.024670081 -0.00046910488 0.1404562 -0.12241469
0.1359799 0.12715448 0.00040781577 -0.06664073 0.008388354 -0.06792337 -0.070311725 -0.027923932
0.016971426 -0.13202684 0.102653496 0.09164477 0.020903513 0.14849386 0.112291664 -0.1170665
0.1142559 0.103982024 -0.14567697 0.028340448 0.01495532 0.16948189 0.028538158 -0.078163624
0.024220815 0.115567826 0.01937717 -0.09567323 -0.059169512 -0.08585785 -0.026997965 0.15794934

MatMul_2 f4 [1, 32]
00000000: 69df ce3c bef8 13bd 8816 173e b861 953c
00000010: ad1a ea3d 9191 da3d f1bb 99be 085d 133e
00000020: 9fbb 9abe d5a7 b6bb 945f e33d 22b2 063e
00000030: c78d a1bb 79ac 313e 417b b4be c79d 953d
00000040: e983 c6bd 4af1 a1be f84f 9fbd 71f6 85be
00000050: be66 96be e94a cc3d fd1b f73d 1109 d13c
00000060: ea53 c33d 87b3 363d bfbd a4be 4135 9b3b
00000070: 143b bbbe d1b0 91be b936 2e3e 683c 34bd
0.025253015 -0.03612589 0.14754689 0.018235072 0.11430869 0.10672296 -0.300262 0.14390957
-0.3022127 -0.0055742064 0.111022145 0.1315389 -0.0049302313 0.1735095 -0.35250285 0.07305484
-0.096931286 -0.316294 -0.07778925 -0.26164582 -0.2937526 0.099752255 0.12065885 0.025517019
0.0953749 0.044604804 -0.32176015 0.004736573 -0.3656851 -0.28455213 0.17013063 -0.04400292
