app/src/main/ml/alexa_ca_25000_15000_100.tflite (tflite, 207052 bytes, 9 tensors)

Const_2 f4 [32]
000000 bb b3 91 3e b9 06 ad 3e ce d2 0c 3e 41 af ce 3c
       0.28457436 0.3379419 0.1375229 0.025230052
000010 40 9f a8 3e 35 b8 04 3e 30 1a 89 bc fd f0 e7 3c
       0.32933998 0.12960894 -0.01673612 0.028313154
000020 5f 3e 22 3e 8f 4e a0 3e a5 73 34 3d 36 6b aa bb
       0.15844105 0.31309935 0.0440556 -0.005200769
000030 89 7b a0 3d 3e f5 36 3d 49 a4 1d 3e 1e ae b1 3d
       0.078360625 0.044667475 0.15394701 0.08675788
000040 02 7c 77 3d 21 cb ca 3e 74 b8 9b 3d d3 9a 1e be
       0.060420997 0.396081 0.07603541 -0.15488748
000050 fe 85 4b 3d 2a 30 82 3c 7c 7e a3 3d 3b 34 fd 3d
       0.04968833 0.015892107 0.07983109 0.12363478
000060 e9 c3 c6 bc db 7a a5 3d 22 8e b0 3e 29 a3 57 3d
       -0.02426334 0.080800734 0.3448344 0.052645836
000070 f4 88 9a 3e eb 8f d3 3d d2 a1 b4 3d e0 ec 94 3e
       0.30182612 0.103301845 0.08819927 0.2908697

Const_3 f4 [32]
000000 da 61 a3 3f 8f 78 b2 3f 9d ea 9a 3f 06 ea 86 3f
       1.2764237 1.3943042 1.2102848 1.0540168
000010 95 90 ae 3f 77 4e 9c 3f ee e6 7d 3f dc 2c 84 3f
       1.3637873 1.2211446 0.99180496 1.032619
000020 d3 f9 9e 3f 3f bf a9 3f 91 51 86 3f d5 ba 7b 3f
       1.241999 1.3261489 1.0493642 0.9833196
000030 7c 6e 8f 3f ef 20 88 3f 37 9b 95 3f 2a 10 90 3f
       1.1205592 1.063505 1.1687993 1.1254933
000040 48 d6 8f 3f 60 31 c4 3f bb cb 88 3f 2b 17 68 3f
       1.1237268 1.5327568 1.0687174 0.9066035
000050 27 b0 8d 3f 1e a7 80 3f 9b 1e 90 3f c5 b7 94 3f
       1.1069382 1.0051 1.125934 1.1618582
000060 3b 27 7b 3f 58 98 8b 3f 25 c3 b2 3f 7b 4b 87 3f
       0.98106736 1.0905867 1.3965803 1.056991
000070 03 1e a4 3f 6d 38 90 3f 81 d2 90 3f 12 72 a3 3f
       1.2821659 1.126722 1.1314241 1.2769186

Const_4 f4 [32]
000000 0a d3 a5 3d 3f f3 0b 3e 60 a6 06 3d 93 9e 0f be
       0.08096893 0.1366701 0.03287351 -0.14025335
000010 de 05 ae bd 3a 21 9e bd 3d 55 17 be 50 b8 37 bd
       -0.08497213 -0.07721181 -0.1477861 -0.04485351
000020 1f fe 9e 3d 15 97 00 3e 5d c1 c7 bc ec 38 7e bd
       0.077633135 0.12557633 -0.024384195 -0.062066004
000030 cf c8 c8 bd c4 5a 85 bd c7 59 6c 3d 79 d7 8d bc
       -0.09803926 -0.06511453 0.057702806 -0.01731466
000040 d4 89 54 3d e8 73 26 3e 26 9b ad bd 42 76 00 3d
       0.051889256 0.16255152 -0.08476858 0.03136278
000050 00 2e f5 3d 45 e6 78 3d a7 ef 4e 3d 45 91 3c 3e
       0.119716644 0.060766477 0.05052152 0.18414791
000060 9b f4 10 3d 83 ab 9c 3d df 67 25 3e b1 95 69 bb
       0.035389524 0.07649901 0.16152905 -0.0035642202
000070 ba 1c a8 3d 90 4f 06 be 0a 27 e0 3d b7 68 12 3e
       0.08208604 -0.13116288 0.10944946 0.14297758

Const_6 f4 [32]
000000 db 95 a4 bb 08 87 c7 bc 83 bc 21 bb bd 2b 1a bd
       -0.005022747 -0.02435638 -0.0024679012 -0.03763937
000010 73 eb 02 bd 03 14 46 bc 95 93 2b bc f4 1d 11 bd
       -0.031962823 -0.012089732 -0.010472198 -0.035428956
000020 ac f4 d7 bc e4 06 ef bb 75 29 86 bc cf d4 8f bc
       -0.026361786 -0.0072945226 -0.01637719 -0.01755753
000030 e8 48 03 bd 85 9e ce bc 94 b0 51 3b d9 35 18 bd
       -0.03205195 -0.025222072 0.0031996118 -0.037160728
000040 1a c0 09 3c 02 0b 41 bc 8d 3c b9 bb 6c 40 d8 bc
       0.008407617 -0.01178241 -0.00565297 -0.026397906
000050 e1 27 5e bd 4c 96 fa bb 8c 79 2b bd 66 9f 90 3b
       -0.05423725 -0.0076473113 -0.041863963 0.004413533
000060 db 7b 2e bd 0e a5 4e 3c b3 fb 38 3b f6 3c 93 bc
       -0.042598587 0.012612594 0.0028226196 -0.017973404
000070 72 b1 94 bc 61 67 38 3c 84 be 12 bd 23 a3 36 3c
       -0.018151019 0.011255116 -0.03582622 0.011147293

Const_7 f4 [32]
000000 ff 44 87 3f 28 2f 7e 3f 87 97 85 3f 13 ee 73 3f
       1.0567931 0.99290705 1.0436867 0.9528515
000010 fd 78 78 3f f5 f8 8a 3f 51 48 76 3f ae c2 78 3f
       0.97059613 1.0857226 0.96204096 0.9717206
000020 98 f1 7f 3f 9a 3f 88 3f 8a 31 79 3f 7e fc 7f 3f
       0.9997802 1.064441 0.97341216 0.9999465
000030 98 84 7a 3f 94 9a 83 3f b9 3c 89 3f 6f 98 86 3f
       0.9785857 1.0281549 1.0721656 1.0515269
000040 d1 62 77 3f fa 7d 72 3f 00 6a 7b 3f a4 cd 73 3f
       0.96635157 0.94723475 0.9820862 0.9523566
000050 e7 81 6f 3f 80 2e 8c 3f aa 26 77 3f c7 34 7d 3f
       0.9355759 1.0951691 0.9654337 0.98908657
000060 4b 00 75 3f 59 04 7d 3f 95 02 86 3f e8 cc 76 3f
       0.9570357 0.9883476 1.0469538 0.9640641
000070 9c 80 75 3f f2 e0 7e 3f 56 e5 77 3f 29 60 80 3f
       0.9589937 0.9956199 0.96834314 1.0029346

Const_8 f4 [32]
000000 c3 90 99 ba 53 40 9b bc d9 7c f8 bb cb 81 89 bc
       -0.0011716116 -0.01895157 -0.0075832424 -0.016785523
000010 29 67 7f bc 9f e2 d0 3b 96 b3 4f bc 5e 43 e8 ba
       -0.01558856 0.0063746716 -0.012677094 -0.0017720272
000020 d6 f9 a9 bc 89 07 e2 39 7f b4 8c bc d7 d1 5e bc
       -0.020749014 0.00043111693 -0.017175911 -0.013599834
000030 fd 80 4d bb a5 4d ee bb 29 3a 09 3c 38 dd 18 3c
       -0.00313574 -0.0072724395 0.008375683 0.009330086
000040 6a 82 ae 3c ed d5 68 3c 89 ed 66 3b 7b f1 b9 bb
       0.02130242 0.01421116 0.0035236797 -0.0056745387
000050 de d1 8b bc 9d 00 b1 3c de dc b7 3c be ff 8a 3b
       -0.017067846 0.021606738 0.022444185 0.0042419126
000060 c7 ec 36 3b dd 63 15 ba 8b cc d0 3c 20 a2 ab bc
       0.0027912126 -0.000569878 0.025488159 -0.02095133
000070 0c 0d c2 3c 80 b1 30 bc 21 2d 66 bc d8 67 d9 bb
       0.023687862 -0.010784507 -0.0140488455 -0.0066346936

MatMul f4 [32, 1536]
000000 79 2b 6c 3b 25 ce 00 bc 8d dd 82 bd e0 df 9f bd
       0.0036036654 -0.007861649 -0.06389914 -0.07806373
000010 a5 cc 4f 3d 59 7c f9 bb 92 c2 0e 3d ee 69 a8 3c
       0.050732274 -0.0076137003 0.034853525 0.020558324
000020 4f e7 11 bd a5 9d eb 3c 6f d5 f6 bc 40 a2 1f 3c
       -0.035620984 0.028761694 -0.03013107 0.009743273
000030 29 82 b3 bc a3 6f 93 3c 63 6e 04 bc 9b 82 1c bd
       -0.021912651 0.017997568 -0.008082959 -0.038210493
000040 f9 65 b6 bc 5a 9f 70 bc 64 40 f2 bc 35 f6 40 bc
       -0.022265421 -0.01468643 -0.02957172 -0.01177745
000050 df 1e 87 bd e2 2b 03 3c 1c 6c 44 3c 4f 3d e7 bb
       -0.06597685 0.008006068 0.011988666 -0.007056869
000060 ae 6a d4 bc 8c 02 e9 bc 8f 24 79 bc fd 13 b3 bc
       -0.025929775 -0.028443597 -0.01520647 -0.021860117
000070 4e 46 b8 bc d5 2b 0e bd c3 79 82 bc 12 6e 96 bc
       -0.022494461 -0.03470977 -0.015927201 -0.018363032
000080 4d 9b 89 bc a5 b8 07 bd d9 67 a9 3c 83 30 10 3d
       -0.016797686 -0.033135075 0.020679401 0.035202514
000090 1f c3 47 3c fb e3 f5 bc c1 32 82 3c 7c 44 ca 3c
       0.012192517 -0.030015936 0.015893342 0.024690859
0000a0 6c eb 76 bc 4a 2b 89 ba 2c 04 9e 3c ae 61 cb 3c
       -0.015070777 -0.0010465172 0.019289099 0.02482685
0000b0 53 c0 25 bd cb bc 1b bc e0 53 9b 3c 40 5a 1e bd
       -0.040466618 -0.009505461 0.018960893 -0.038660288
0000c0 d7 81 a1 3c b2 ac 54 bb 19 1d 96 3c b9 78 a7 3c
       0.019715233 -0.0032451567 0.018324422 0.020443307
0000d0 dc 31 43 3c 09 e4 f9 3c a1 52 11 bd 93 0a 49 3d
       0.011913743 0.030504243 -0.03547919 0.04908235
0000e0 d4 10 ef bc f9 5c 90 bc 17 26 41 3c 4a 94 bc 3c
       -0.029182829 -0.017622458 0.0117888665 0.023019928
0000f0 51 e7 97 bc b0 a4 82 bc 73 22 01 3d bc 1c 15 3d
       -0.018542917 -0.01594767 0.031526994 0.036404356
000100 a6 a7 b4 bc 20 cb 37 3d 6f d5 a5 bc d1 3d 66 bc
       -0.022052597 0.04487145 -0.020243375 -0.014052824
000110 7a 87 01 3c d4 6f b7 3c 07 3a 03 bd 5b 7a 03 bd
       0.007905835 0.022392191 -0.03203776 -0.03209911
000120 c7 26 ba 3b 82 ed 66 3c 48 ec 42 bc 20 03 e0 bc
       0.005680892 0.014094712 -0.011897154 -0.02734524
000130 8c 6b 38 bc c4 d3 ae 3c 5f 14 be 3c 99 81 4a bc
       -0.01125611 0.021341212 0.023203073 -0.01236
000140 ff 96 25 3d e3 56 fa bc 0f b3 fe bb 41 2d 6e bc
       0.040427204 -0.030559009 -0.0077728103 -0.014537157
000150 8d b9 95 3c b9 dd 6e bd 38 46 42 bc f9 a8 69 bd
       0.018276954 -0.05831692 -0.011857562 -0.05704591
000160 30 2d de 3c bb 4e ad 3b c0 4f 26 3d 06 ba 34 3a
       0.027121156 0.0052889264 0.0406034 0.0006894175
000170 c5 5a 6f 3c a2 9e c6 bb eb d9 1e 3d 49 2d 08 bc
       0.0146090435 -0.006061391 0.03878204 -0.008311578
000180 40 5f 60 bc b0 83 10 bd a4 1f ae bc 19 e8 54 bd
       -0.013694584 -0.035281837 -0.021255322 -0.051979158
000190 3b e7 83 3d 52 6e df bc ae 31 98 bc 5d 43 02 3c
       0.06440588 -0.027274285 -0.018578377 0.007950631
0001a0 8e d7 38 bd d3 1d 88 3c 67 a6 81 bb 55 65 85 3c
       -0.045127444 0.016615784 -0.0039566043 0.01628367
0001b0 00 4d 04 3c 8c df 8c 3b 3f 36 eb 3b 4e c1 9d bc
       0.008074999 0.00429911 0.0071780975 -0.019257214
0001c0 47 6c cc 3c 1d 1b b2 3c e6 99 62 3c af 02 ed 3a
       0.024953974 0.021741444 0.013830638 0.0018082465
0001d0 27 ad d1 bc 2e af 7d 3c b0 e4 66 bc 00 4b 61 3c
       -0.02559526 0.015483661 -0.014092609 0.013750792
0001e0 ff 5b ec 3c ff 73 df 3b d2 da a0 bc 5b 01 9a bc
       0.02885246 0.0068192477 -0.019635592 -0.018799474
0001f0 8d c4 b5 3c 8a 41 16 bd 51 f4 a2 3c d9 4c 92 bc
       0.02218845 -0.036683597 0.01989189 -0.01785891
000200 c4 9b e9 3b 57 0a 26 bd 50 7f 31 bd 55 98 e5 3c
       0.0071291644 -0.040537205 -0.043334305 0.02802674
000210 f9 12 86 3b fd 76 17 ba 31 ba ae 3b 62 cd fa 3b
       0.004091617 -0.00057779235 0.0053322543 0.007653878
000220 9e 5d 4e bb ae ef ac bc 12 e5 84 3c 6f 5f 40 3c
       -0.0031488906 -0.021110382 0.01622251 0.011741503
000230 ed 22 01 3c 2c e2 db bc 7b a7 98 3c bf 5b 40 bd
       0.007881862 -0.026841246 0.018634548 -0.046962496
000240 b9 e3 8e bc bd b8 56 39 6f 68 b5 bc 4e 52 0d 3c
       -0.017442571 0.00020477451 -0.022144524 0.00862558
000250 a0 b4 82 3a b9 81 2d 3d 32 61 9b 3c ee 5f 24 bb
       0.0009972043 0.04236004 0.018967245 -0.0025081593
000260 a5 b1 3a ba a5 a2 17 3c 3f d6 5f 3c b5 f9 33 3b
       -0.0007121808 0.009255086 0.01366192 0.002746207
000270 7e 11 cd bb 65 63 e4 3c 81 84 af bc be 06 1f 3d
       -0.0062581887 0.027879426 -0.021425487 0.03882479
000280 66 b1 d2 bc 71 37 68 3c ab dc 51 3c 2b 0d c4 3c
       -0.025719356 0.0141733745 0.012808959 0.02393206
000290 cd 08 f1 bc 4a 48 e4 3c e1 a9 31 ba 1a 77 18 bb
       -0.029423142 0.027866501 -0.0006777328 -0.002326435
0002a0 5e e9 77 3c 43 c2 5b 3d 5b 2f 40 39 3c b8 39 bc
       0.015131323 0.05365206 0.00018328188 -0.011335429
0002b0 ae d4 63 3c 78 eb ac bc 49 e2 e5 3c 5a 4d 7f bb
       0.013905687 -0.021108374 0.028062003 -0.0038956017
0002c0 9f ae 25 3d dd 79 1e bd 24 b2 89 bc 4f 84 f9 3c
       0.040449735 -0.038690437 -0.016808577 0.030458597
0002d0 7b 4c 8a bc 2e 05 e8 bc 8e 41 5e bb 53 01 23 3b
       -0.016882172 -0.028322782 -0.0033913585 0.0024872615
0002e0 42 6c 35 bd 80 db 71 3c cb bc 52 3a c4 f9 79 bc
       -0.044292696 0.014761806 0.00080389966 -0.015257303
0002f0 33 96 25 3d 03 c9 8e bc 9b b6 a6 3c 39 30 c4 3c
       0.040426444 -0.017429834 0.020350745 0.023948776
000300 12 8f 72 3c f3 c7 86 bc f8 2e 58 bb 97 5a 0e bc
       0.014804618 -0.016452765 -0.003298698 -0.0086885905
000310 7d 81 d8 3a cc 33 93 3c 82 3b 0f bc c6 5e 5e 3c
       0.0016518083 0.017969035 -0.008742215 0.0135724
000320 ed 68 b2 bc 17 67 86 bb bd 08 00 bb 3b 29 1f bd
       -0.021778548 -0.0041016447 -0.0019536458 -0.03885768
000330 1d 31 9b bc e7 02 07 bc 74 d4 90 3c dd 60 d0 3c
       -0.018944317 -0.008240438 0.01767943 0.025436813
000340 8a c9 c7 bc 12 64 01 3d 89 48 87 3c 5a fa dd bc
       -0.024388094 0.031589575 0.01651408 -0.027096916
000350 95 c1 92 3c 47 8e 00 3c f4 ca 93 3c 81 d9 69 3c
       0.017914573 0.007846422 0.018041112 0.014273048
000360 54 88 f8 bb 83 f6 15 3c 04 54 54 bc 23 c3 94 bc
       -0.007584611 0.009153011 -0.012959484 -0.018159455
000370 f8 13 52 3d 4c 6c 78 bd 3a e8 ce 3c 0e a8 0d bc
       0.051288575 -0.060650155 0.025257219 -0.008646024
000380 4a 9f 8a 3c c4 a6 6f bc 4c a3 b4 bb e9 28 da 3c
       0.016921658 -0.014627162 -0.0055126306 0.026630836
000390 8f ca 2c 3c fa f6 c8 ba 7c 53 04 bd 71 60 c4 ba
       0.010546341 -0.0015332394 -0.03230618 -0.0014982355
0003a0 7e 4f 1c bd a3 76 68 bc da 7a cc 3c 5e d0 c6 bc
       -0.038161747 -0.014188441 0.024960924 -0.02426928
0003b0 77 ec 12 bc 37 c9 2b bd 16 6f aa bc a3 12 5b bd
       -0.00896751 -0.04193994 -0.020804923 -0.05348457
0003c0 dd b2 15 3b 3a 8e 55 bd 86 9a 19 bb 14 39 52 bc
       0.0022842207 -0.05213759 -0.002343805 -0.012830991
0003d0 c4 e2 be 3c f1 8d 32 3d 60 0d 73 bb fd 34 9f 3c
       0.02330149 0.043592397 -0.003708683 0.019434446
0003e0 1c 99 fa bc b0 48 8c bc 3e 52 17 3c c1 62 66 3c
       -0.030590586 -0.017124504 0.009235917 0.014061631
0003f0 27 81 a9 3c a8 70 83 3b ea f2 20 bc 07 06 4f 3c
       0.020691467 0.0040112324 -0.00982354 0.012635714

MatMul_1 f4 [32, 32]
000000 66 d9 5b 3d d2 82 14 be 9a 54 f1 bd 8d cc f8 3d
       0.053674124 -0.14503029 -0.117837146 0.1214839
000010 ec 38 12 3e db 5e 2e bd 1c 90 28 bd 5c 2d a9 bd
       0.14279526 -0.04257093 -0.04115306 -0.08260605
000020 8a 8c de bd ab 59 4c 3e 11 fd 24 3d 6d 14 03 3e
       -0.108666494 0.1995608 0.040280405 0.1280076
000030 43 5f df bd 15 43 40 bd 33 a0 39 be 3c 28 29 be
       -0.109068416 -0.046938974 -0.18127517 -0.16519254
000040 97 c1 2a 3e d0 88 1e 3e 85 43 f6 3c 84 bf 54 bc
       0.16675411 0.15481877 0.030061493 -0.012985114
000050 5d 6d 0c 3d d1 db 0b be 5d b8 be bb b1 94 b0 3d
       0.034283984 -0.13658072 -0.0058203177 0.08622111
000060 96 61 95 3d ac 54 14 be 5c 34 bd bd 32 83 70 3d
       0.07294004 -0.14485425 -0.092385024 0.058718868
000070 fd fb 35 3e 22 93 84 3d 8f 39 83 bd 74 ef 02 be
       0.17771907 0.06473376 -0.06407463 -0.12786657
000080 82 86 5f be 91 d9 83 bd 24 d6 94 bd 9f bd d1 3b
       -0.21828654 -0.06437982 -0.072674066 0.0064007784
000090 8d 7f ee bd 4c 9f 16 bd 75 18 31 3e 63 8e 91 3d
       -0.11645422 -0.03677301 0.17294486 0.07107236
0000a0 95 d5 8a 3c f8 ca 36 3e 1b b9 84 bb 2f 4c a9 3d
       0.016947547 0.17850864 -0.0040503866 0.08266484
0000b0 6f 33 d0 bb 88 6f 8a 3d 90 e1 ac bd 23 1e df bd
       -0.0063537876 0.06759554 -0.0844146 -0.1089442
0000c0 9d 0f cb bd 63 be d3 bc 0b 55 e5 bc 6f 16 26 3e
       -0.09915087 -0.02584762 -0.027994653 0.16219495
0000d0 fb f2 4b 3d 5c 12 55 be ac 70 ac bd f1 d0 04 3d
       0.04979227 -0.20807785 -0.08419928 0.032425825
0000e0 20 0d 19 3d 5a a9 24 3e c4 c9 3a be 29 bb ee 3d
       0.037366033 0.16080227 -0.1824103 0.11656792
0000f0 7e 9b 02 b9 b6 d1 a6 bd 1a aa b3 3d 2c 56 03 3e
       -0.00012455691 -0.08145468 0.08772679 0.1282584
000100 80 c6 80 3e 58 cd 95 bc 91 b8 08 3e fc fb d9 bd
       0.25151443 -0.018286392 0.13351656 -0.10643765
000110 a7 1f cf 3d 61 23 c1 bd 89 58 82 bd c8 67 3f 3c
       0.10113459 -0.09430576 -0.06364543 0.011682458
000120 93 5d 05 3e 45 b2 7d 3c c8 f0 05 be a7 10 af 3d
       0.13023977 0.015484397 -0.13080132 0.08548098
000130 a7 c7 30 3e 24 16 7c bd b1 87 53 3e 3f d9 1f 3e
       0.17263661 -0.061544552 0.20657231 0.15610217
000140 f6 b8 d8 bd 05 cc d4 bc 1d 72 00 be 41 e3 99 bc
       -0.105821535 -0.02597619 -0.12543531 -0.01878512
000150 61 8b 8c bd f0 3f 52 3e e6 c0 f8 bd f2 d8 e2 3b
       -0.06862522 0.20532203 -0.121461675 0.0069228346
000160 9a c6 bf 3d 1a 2d 38 3d 8c 3a 9a 3c 8d f1 31 3e
       0.09364052 0.044964887 0.018826745 0.173773
000170 96 8a d3 bd 89 7f 19 3e 50 28 e4 3d 7b 66 c5 bc
       -0.103291675 0.14990057 0.111405015 -0.024096718
000180 19 6c 9e 3a 54 4e 29 be be 21 6d 3d f9 8e a1 3d
       0.0012086659 -0.16533786 0.057893507 0.07888598
000190 3d 1b 7e 3d 98 ec b8 3d ab dc 92 bd a6 ad 57 bd
       0.062037695 0.09029502 -0.07170995 -0.05265584
0001a0 5b 32 53 3b 57 10 7c bc 64 c9 0f be 68 2d 84 3d
       0.003222606 -0.015384755 -0.14041668 0.06453973
0001b0 1b 35 6f bd 19 03 2f 3d 24 87 95 3d 07 c0 a4 bd
       -0.058400255 0.042727564 0.07301167 -0.08044439
0001c0 4c b0 b0 bd 85 09 f4 3d 35 1e 28 be 1a d1 22 bd
       -0.08627376 0.11915878 -0.16417773 -0.039750196
0001d0 00 4c e3 3d 7b 8c 83 3e dd 24 fc 3c 0b c6 09 3e
       0.1109848 0.25693116 0.030779297 0.13454454
0001e0 dc e9 97 3d d1 e6 2a 3e b7 72 8a 3d dd 77 89 3c
       0.07417652 0.16689612 0.06760161 0.016780788
0001f0 fd d5 02 3e 95 4c fa bd 15 f4 8e 3d f0 f4 b7 3c
       0.12776943 -0.12221638 0.06980149 0.022455662
000200 83 91 8e 3d 50 e6 04 bd 13 15 37 be 42 96 15 3c
       0.06961348 -0.032446206 -0.17879133 0.009130063
000210 8d a7 02 be 74 b0 1e be 7e 18 4e ba 90 f7 b6 3d
       -0.12759228 -0.15496999 -0.0007861926 0.089339375
000220 b4 1c bf bd 6b a5 00 3e c7 59 99 bd 01 3e 41 3e
       -0.093316466 0.12563102 -0.07487827 0.18871309
000230 97 ab 21 be e4 dd 97 3d 0c 74 c1 3c 5a 2b 1f 3d
       -0.15788113 0.07415369 0.023614906 0.038859703
000240 e3 ab f1 bd dc 68 f2 3d 3c bf 06 3e 01 e7 c3 3d
       -0.11800363 0.118364066 0.13158888 0.09565545
000250 d6 b7 84 3d df a3 52 be 9d 0a 00 3d 39 71 a1 3d
       0.064803764 -0.20570324 0.03126012 0.07882924
000260 ff 59 3f 3a e0 82 9f 3c f5 10 f1 bc 50 9f fe bb
       0.0007299482 0.019471586 -0.029427031 -0.0077704564
000270 11 5c cc 3d 11 e5 33 bd 35 cf d5 3d 73 93 2d bd
       0.09978498 -0.043919627 0.10439912 -0.042376947
000280 64 c9 2e 3e df 30 18 be 20 b6 2d 3e c0 62 31 bd
       0.17069012 -0.14862393 0.16964006 -0.043307066
000290 c3 9b 12 3d ed b7 b7 3d 36 85 3b bd 29 3e 99 bd
       0.035793077 0.08970628 -0.045781337 -0.07482559
0002a0 2d 6f c6 3d 61 a8 28 bd ed 23 0a 3e 4e 0c 47 bd
       0.09689174 -0.041176204 0.13490267 -0.04859572
0002b0 cd f7 1a 3d 3b 8b 24 be 11 40 9e 3d 0b fd a8 3c
       0.037833977 -0.16068737 0.077270634 0.020628473
0002c0 bf 20 4e 3e d7 60 a0 3a 1e f9 d5 bd 45 21 1b be
       0.20129679 0.0012235892 -0.10447906 -0.1514941
0002d0 ff ab 1a 3e 08 1c 96 3c 5b 45 27 3c 42 1e 8b bd
       0.15104674 0.018323913 0.010209407 -0.067928806
0002e0 8d ce cb bd 8b bb 43 3e f4 b5 11 3e c4 d8 39 3e
       -0.09951506 0.1911451 0.14229566 0.18149096
0002f0 b1 e7 3f bc 87 53 2d 3e 72 30 30 3e 92 1f 81 bd
       -0.011712954 0.16926394 0.1720598 -0.0630485
000300 cc 68 ee 3d d4 80 66 3c f1 9e 23 3d 19 50 f7 bc
       0.11641082 0.014068801 0.0399465 -0.03018956
000310 f8 7c 3f 3d a8 56 aa 3d 6b ca b5 3d ba ec 77 3d
       0.04675004 0.083173096 0.08876499 0.060528494
000320 2d 0f e1 3d a7 c9 8a bd 8e 72 f2 bd a4 0a 81 3b
       0.10989223 -0.067767434 -0.11838256 0.003938036
000330 a7 d5 19 3d 35 14 64 3d e2 2d ef 3d ee bf 84 3d
       0.03755727 0.055683333 0.11678673 0.0648192
000340 e1 b3 7a 3d bb bb c1 3b ec 5a be bd 69 ed df 3c
       0.061206702 0.005912272 -0.09294686 0.027334886
000350 59 97 e3 bd 20 d3 05 bd da 4b a9 3d c6 3e e0 bd
       -0.11112852 -0.032672048 0.08266421 -0.10949473
000360 e6 6a f1 3d 66 fc f0 3d 92 72 5d bd 2c f9 4d 3d
       0.117879674 0.11766891 -0.05406434 0.050286457
000370 18 cf 7e 3d 44 5c 9f 3d 40 ba b3 bd 53 85 a8 3d
       0.06220922 0.0778127 -0.08775759 0.082285546
000380 16 b1 2e 3e 66 31 2e 3e a2 0e 0b 3e d2 9b ca bc
       0.1705974 0.17011032 0.135798 -0.024732504
000390 1d e5 f0 3d 90 e2 fe 3b f2 6a 0e 3e 40 57 bf 3d
       0.1176245 0.007778473 0.13907984 0.093428135
0003a0 4b e8 87 bd fa 02 d4 3c bb 58 62 3d d3 b1 a1 3d
       -0.06636103 0.025880326 0.0552604 0.078952454
0003b0 aa ed 84 bd 19 a0 ff ba ce 6a a2 3d 69 10 bb bd
       -0.06490643 -0.0019502669 0.079305276 -0.09133989
0003c0 6c 5d ad bc 1d 5e ca bd d7 28 0f bd 7e 3c 67 3c
       -0.021162711 -0.09881232 -0.034951057 0.014113544
0003d0 f0 c0 44 3b 8a 9f ab bd b7 d4 c0 bd 57 c2 7a bd
       0.0030022226 -0.08380039 -0.09415572 -0.061220493
0003e0 ab da 72 bd 16 b8 f6 3c 98 d1 7f 3d 64 8a f2 3c
       -0.05929057 0.030117076 0.062455744 0.029607005
0003f0 cd bb 99 3d 31 0c 11 3e 8d 96 08 3e 0d 64 3c be
       0.07506523 0.14164807 0.1333868 -0.18397541

MatMul_2 f4 [1, 32]
000000 2d d9 c2 be 2a a1 bd be 9d fa 9a 3e f9 d5 09 3e
       -0.38056317 -0.3703702 0.30269328 0.1346053
000010 c4 e9 bb be de 32 7a 3e 54 da 81 3c 8a a1 ee 3d
       -0.36701787 0.24433467 0.015851177 0.11651905
000020 7d c9 cd 3e 92 59 b5 be b2 bf 6b 3d ca 3a 5d bb
       0.40192786 -0.354199 0.05755586 -0.0033756965
000030 e7 dd 2b 3e 1c 9a de 3d 12 b6 2c 3e c8 ec 57 3e
       0.16783868 0.10869238 0.1686633 0.21086419
000040 b0 37 5e 3e 1a 36 dd be 9a e8 87 3d db 42 87 3d
       0.2170093 -0.4320534 0.06636162 0.066045485
000050 97 5a 79 3e d0 6f 22 bc dc 02 94 3e 7c 64 58 3e
       0.24350964 -0.0099143535 0.28908432 0.21132082
000060 56 bb 8f bd 99 e6 1c 3e f3 9a af be d3 3e 21 3e
       -0.07018153 0.15322341 -0.34297904 0.15746622
000070 93 ca 9c be 98 1c 4a 3e 21 2d 4b 3e 5a fb b7 be
       -0.30623302 0.1973747 0.19841434 -0.35933954
