app/src/main/ml/alexa2500015000100.tflite (tflite, 206748 bytes, 9 tensors)

Const_1 f4 [32]
0	0xbb55f31b	-0.0032646123
1	0xbc81e5a5	-0.015856573
2	0x3bce4e84	0.006295981
3	0x3c2614ec	0.010136824
4	0x3c203afd	0.009779689
5	0xbad98c8e	-0.0016597675
6	0xbc737fa3	-0.014861974
7	0x3c419502	0.011815311
8	0xbbc5403d	-0.0060196207
9	0x3b03cf90	0.002011273
10	0x3c891798	0.016734883
11	0x3c190649	0.009339877
12	0xbcbacb49	-0.022802012
13	0x39616748	0.00021496147
14	0xbcb84dd5	-0.02249805
15	0x3c9639c6	0.018338095
16	0x3ab445c9	0.0013753708
17	0x3c658a7c	0.014010068
18	0x3c78d720	0.015188009
19	0x3cdb9943	0.02680648
20	0x3a31a9ae	0.00067772984
21	0x3c6e1c34	0.014533091
22	0xbc336331	-0.010948942
23	0x3b462ffd	0.0030241006
24	0xb577c3ed	-9.229978e-07
25	0xbccc312c	-0.02492579
26	0x3cc2c4a9	0.023775415
27	0xbcd78842	-0.02631009
28	0x3cabd3ae	0.02097496
29	0x3c59dd6c	0.01329742
30	0x3cc8e615	0.024523774
31	0x3cb0fa23	0.02160365

Const_2 f4 [32]
0	0x3f789e4f	0.9711656
1	0x3f7764fd	0.9663847
2	0x3f812ccf	1.00918
3	0x3f8135bb	1.0094522
4	0x3f82c12c	1.0215201
5	0x3f798403	0.9746706
6	0x3f7f849f	0.9981174
7	0x3f831c49	1.0243007
8	0x3f805ad6	1.0027721
9	0x3f8a1d0e	1.0790117
10	0x3f8236e0	1.0172997
11	0x3f79ef3d	0.97630674
12	0x3f78620f	0.97024626
13	0x3f7c5f93	0.98583335
14	0x3f84fd55	1.0389811
15	0x3f80ff56	1.0077922
16	0x3f7a1d57	0.9770102
17	0x3f807c32	1.0037901
18	0x3f7d77cb	0.99010915
19	0x3f809414	1.004519
20	0x3f807d9d	1.0038334
21	0x3f7d778b	0.99010533
22	0x3f7ad549	0.979817
23	0x3f796d02	0.9743196
24	0x3f8520c7	1.0400628
25	0x3f7e0309	0.9922338
26	0x3f864f7b	1.0493006
27	0x3f8c16af	1.0944422
28	0x3f7ae811	0.98010355
29	0x3f82e2b8	1.0225439
30	0x3f719dae	0.94381225
31	0x3f7ea0e7	0.9946427

Const_3 f4 [32]
0	0xbc968855	-0.018375555
1	0xbcf955dc	-0.030436449
2	0xbc1272d2	-0.008938508
3	0x3b6a152c	0.0035718186
4	0x3bca8559	0.006180447
5	0x3c7d5b47	0.015463657
6	0x3d0c2253	0.03421242
7	0x3cab2357	0.020890875
8	0xbc4362be	-0.011925397
9	0x3c9e4273	0.019318795
10	0x3c779544	0.015111271
11	0x3b5e134c	0.0033886014
12	0x3c426b09	0.0118663395
13	0x3cd4d3ac	0.02597984
14	0xba238d78	-0.0006239037
15	0xbb984167	-0.0046464684
16	0xbce434e6	-0.027857255
17	0xb98434fa	-0.00025216473
18	0xbce31c4c	-0.027723454
19	0xbc0acb4c	-0.008471321
20	0x3b612f0e	0.0034360322
21	0x3c157725	0.009122645
22	0xbcca2ce0	-0.024679601
23	0xbc875449	-0.016519682
24	0x3c82cb1e	0.015965994
25	0xbc754cea	-0.014971951
26	0x3ba85704	0.005137326
27	0xbb3ecae6	-0.0029112636
28	0xbc831641	-0.016001822
29	0xbcb7f43f	-0.022455333
30	0x3c4fc049	0.012680122
31	0xbc2d74e0	-0.010586947

Const_5 f4 [32]
0	0xbbf990ab	-0.0076161227
1	0xbe200e13	-0.15630369
2	0x3d8c2989	0.0684386
3	0x3bad1e1b	0.00528313
4	0xbd439223	-0.04774679
5	0xbe36a15a	-0.17834988
6	0x3e118727	0.14211713
7	0xbde0f233	-0.10983696
8	0xbc671bf2	-0.014105784
9	0x3c8936c0	0.01674974
10	0xbd50b3f5	-0.05095287
11	0xbcea04e4	-0.028566785
12	0x3deaf496	0.11472432
13	0xbdb841e9	-0.08996946
14	0x3bd5bcbc	0.006522743
15	0x3e1ec6e8	0.15505564
16	0x3d355d10	0.044278204
17	0x3d757ae3	0.059931647
18	0x3c076dc4	0.008265916
19	0xbd8dee96	-0.06930272
20	0xbcf66eaa	-0.030082066
21	0x3dbdc6a3	0.092664026
22	0xbd9abc20	-0.07555413
23	0x3db7fdce	0.08983956
24	0x3dbc58e8	0.09196645
25	0xbd9e055d	-0.07715867
26	0x3c52e249	0.012871333
27	0xbdbd844e	-0.09253751
28	0xbe016dd3	-0.12639551
29	0x3e02546c	0.12727517
30	0xbdcfb7af	-0.10142457
31	0xbdec7595	-0.115458645

Const_6 f4 [32]
0	0x3f831a58	1.0242414
1	0x3f91137b	1.133407
2	0x3f9c1cdc	1.2196307
3	0x3f89e743	1.07737
4	0x3f9dfeca	1.234338
5	0x3fa3ff23	1.2812237
6	0x3f7d870e	0.990342
7	0x3f8d9c13	1.1063255
8	0x3fa7ac38	1.3099432
9	0x3fb18ae0	1.3870506
10	0x3f836970	1.0266552
11	0x3f80a37f	1.0049895
12	0x3f8a122d	1.0786797
13	0x3f80eb4e	1.0071809
14	0x3f8bc296	1.0918758
15	0x3f9fc04a	1.2480557
16	0x3f797e64	0.9745848
17	0x3f81fd72	1.015547
18	0x3f81f2ae	1.0152185
19	0x3fa317ba	1.2741616
20	0x3f82f471	1.0230848
21	0x3f7e9675	0.9944833
22	0x3f9cbc39	1.2244941
23	0x3f7eaa10	0.99478245
24	0x3f9f5372	1.244734
25	0x3f794cd0	0.9738283
26	0x3f8f18b5	1.1179415
27	0x3f67119c	0.90261245
28	0x3f925db2	1.1434844
29	0x3fac8eac	1.348104
30	0x3f8b16e2	1.0866358
31	0x3f84be78	1.0370626

Const_7 f4 [32]
0	0x3c5ea6a5	0.013589536
1	0x3dc1de46	0.094662234
2	0x3e6f4240	0.23365116
3	0x3cf74150	0.03018251
4	0x3e7250f0	0.23663688
5	0x3e80b604	0.25138867
6	0xbb7f8ad3	-0.0038992658
7	0x3d8069e1	0.06270195
8	0x3e7dd3a5	0.24787767
9	0x3e929c5c	0.28634918
10	0x3ca7851c	0.020449214
11	0xbc0d2c46	-0.008616513
12	0x3d3f9870	0.046776235
13	0xbc11c984	-0.008898143
14	0x3d8649af	0.06557023
15	0x3e7ceda6	0.2470003
16	0xbceb9fb0	-0.028762668
17	0x3b8f46b6	0.004372443
18	0x3ba6aef9	0.0050867763
19	0x3e7316c3	0.23739152
20	0x3cd37c48	0.025816098
21	0xbc7bc98d	-0.015367878
22	0x3e03c763	0.12869029
23	0x3c05388b	0.008131157
24	0x3e6b3add	0.22971673
25	0xbcb2ab27	-0.021810127
26	0x3d7c4fee	0.061599664
27	0xbdb6232d	-0.08893428
28	0x3dd2110b	0.10257157
29	0x3e894e9d	0.2681779
30	0x3d2f9ea8	0.042875916
31	0x3d9e4f4a	0.07729967

MatMul f4 [32, 1536]
0	0x3c1ea9cb	0.0096840365
1	0x38a64681	7.928629e-05
2	0xbb65d1ad	-0.0035067603
3	0x3b5c957b	0.0033658433
4	0x3bb40886	0.00549418
5	0x3a86b359	0.0010276838
6	0xbb5706ef	-0.003281053
7	0xbc6a9b15	-0.014319201
8	0xbc601e2b	-0.013679068
9	0x3b5ed255	0.003399988
10	0xbca9b411	-0.020715745
11	0xbca3550d	-0.019938016
12	0x3c381399	0.011235141
13	0x3ccb9906	0.02485324
14	0xbca30238	-0.019898519
15	0x3d01d717	0.031699266
16	0xbc98093c	-0.01855909
17	0x3b6ef6e7	0.0036463083
18	0x3d13b253	0.036058735
19	0x3c4e161a	0.012578512
20	0xbcf7dffd	-0.030258173
21	0xbc05dd65	-0.00817046
22	0xbcb2df4e	-0.021834996
23	0xbc28243c	-0.010262545
24	0x3ca80547	0.020510329
25	0x3b905eb7	0.004405822
26	0xbc76ba16	-0.015059015
27	0xbcd91685	-0.026499996
28	0xbc6dc6e6	-0.014512753
29	0xbca425c7	-0.020037545
30	0x3cfdd04f	0.030983118
31	0xbc976257	-0.01847951
32	0x3bb9324c	0.005651748
33	0xbb2b3b52	-0.0026127887
34	0x3cc6b072	0.024254058
35	0xbb2bb17e	-0.0026198323
36	0x3b826928	0.0039798208
37	0x3b1eef9d	0.0024251707
38	0xbd575de4	-0.052579775
39	0xbc01a395	-0.007912536
40	0x3c81d33c	0.015847795
41	0xbc6e5a02	-0.014547827
42	0x3c9d5983	0.019207722
43	0xbb8ab490	-0.0042329505
44	0xbb1b299c	-0.0023675924
45	0xbca9b8e4	-0.020718046
46	0x3c361cea	0.011115292
47	0x3c828b38	0.015935525
48	0xbc1fa084	-0.00974286
49	0xbc137b40	-0.009001553
50	0x3cb271bc	0.021782748
51	0x3cbd802a	0.023132402
52	0x3b869052	0.00410656
53	0x3bfd207f	0.007724821
54	0xbcbf392a	-0.023342688
55	0x3c42d202	0.01189089
56	0xbb4bfaca	-0.0031124824
57	0xbacbb4c6	-0.0015541546
58	0x3ac97059	0.0015368565
59	0x3c88baf6	0.016690712
60	0xbc827289	-0.015923755
61	0xbcbbd9dc	-0.022931032
62	0x3c31c5fc	0.010850426
63	0xbc035b4e	-0.008017374
64	0xbad2205f	-0.0016031376
65	0xbbe30148	-0.006927643
66	0x3ca6e6cf	0.02037373
67	0x3b9b303f	0.004735976
68	0x3c37e182	0.011223199
69	0xbc2143a8	-0.009842791
70	0xbbdb12e4	-0.0066856015
71	0xbc6566a4	-0.014001522
72	0xbb8f654d	-0.0043760897
73	0x3ba07da7	0.0048977914
74	0xba1a9e50	-0.0005898224
75	0xbc230f3f	-0.009952365
76	0x3c9b7adb	0.01897948
77	0xbd0ce806	-0.034400962
78	0xba4ba72e	-0.0007768747
79	0xbc421c03	-0.011847499
80	0xbc11bf9e	-0.008895783
81	0x3c224ec1	0.009906472
82	0x3c933ac5	0.01797236
83	0x3c9c6901	0.019093039
84	0xbc8d258f	-0.017229823
85	0x3cf86040	0.030319333
86	0xbd057ebb	-0.032591563
87	0x3c28770a	0.010282287
88	0xbc98739a	-0.01860981
89	0xbc013270	-0.00788556
90	0x3c8936a6	0.016749691
91	0xbc7559d3	-0.014975029
92	0x3bb50cf5	0.0055252262
93	0xbc23c668	-0.009996034
94	0xbcb2582a	-0.021770556
95	0x3c9adb7d	0.018903488
96	0xbc3c9e39	-0.011512333
97	0x3c998215	0.018738786
98	0xbc196ecd	-0.009364796
99	0xbc4c103d	-0.012455043
100	0xbcc1237c	-0.02357649
101	0xbcace96c	-0.021107398
102	0xbcd06d73	-0.025442814
103	0x3c01a944	0.007913891
104	0xbc4de9a0	-0.012567908
105	0xbcaaea6e	-0.020863738
106	0x3c8f46aa	0.01748975
107	0x3c919ee5	0.017775962
108	0x3c4179e5	0.011808847
109	0x3b1b1d56	0.0023668609
110	0x3c667a06	0.014067179
111	0x3c122d42	0.008921923
112	0xbacb23fc	-0.0015498395
113	0x3b80d41a	0.0039315345
114	0xbb7645a0	-0.003757812
115	0xbc5c0ea2	-0.013431223
116	0xbbac5fd9	-0.0052604494
117	0xbc16ab32	-0.00919609
118	0x3cbe5c3f	0.023237346
119	0xbc2d5b1a	-0.010580802
120	0x3c125562	0.00893149
121	0xbc96ea3d	-0.01842224
122	0x3bb38616	0.005478631
123	0x3b93ccf4	0.0045105163
124	0xbc3295bc	-0.010899957
125	0xbd411c36	-0.047146045
126	0xbc0fe67b	-0.008782978
127	0xbcd23aeb	-0.02566286
128	0x3b3005da	0.0026858957
129	0x3cd05339	0.025430309
130	0x3c66456b	0.0140546365
131	0x3b18d520	0.0023320392
132	0xbc0a8775	-0.008455147
133	0x3b948011	0.0045318683
134	0xbc99c4da	-0.018770624
135	0x3c9c1dcf	0.019057183
136	0x3bc9f26f	0.0061629335
137	0xbca378b5	-0.019955019
138	0x3c1345c4	0.008988801
139	0x3a2e6e6a	0.0006654026
140	0x3c7f33a2	0.015576275
141	0x3c8e9fdf	0.017410217
142	0x3c406388	0.01174248
143	0x3945544e	0.0001881879
144	0x3c1e4f8f	0.009662523
145	0x3a8b03f2	0.0010606034
146	0x3cc8fb69	0.024533944
147	0x3bb8cb24	0.0056394506
148	0x3cbbffe6	0.02294917
149	0xbbac980d	-0.0052671493
150	0xbc9287e0	-0.017887056
151	0xbbb3ab19	-0.005483043
152	0x3c8ca3d4	0.017167963
153	0xbc9fba27	-0.019497944
154	0xbcd84aed	-0.026402915
155	0xbac559d2	-0.0015056676
156	0x3c6a1359	0.014286839
157	0xbc96eda4	-0.018423863
158	0x3cb61d1f	0.022230683
159	0xbccb5443	-0.024820453
160	0xbb92c3f5	-0.0044789263
161	0x3c74f6a0	0.014951378
162	0x3d0dd95e	0.034631126
163	0x3ccaa992	0.02473906
164	0xbccba1bf	-0.0248574
165	0xbbfad252	-0.0076544667
166	0x3c30901f	0.010776549
167	0xbc1b9010	-0.009494796
168	0x3cc9c040	0.024627805
169	0xbcc049e3	-0.023472732
170	0x3b2b0c74	0.0026099952
171	0xbbcb3abb	-0.0062020696
172	0x3cf06f8b	0.029350063
173	0xbb42e966	-0.0029741167
174	0xbb12371c	-0.002231068
175	0x3c916a04	0.017750748
176	0x3cdd871b	0.027041962
177	0x3c04945f	0.008092015
178	0xbbd9092d	-0.0066234083
179	0x3c1f9e71	0.009742365
180	0x3c7a3cb1	0.015273259
181	0x3b52c10f	0.003215853
182	0x3c45c15f	0.012070029
183	0xbd0f4b23	-0.034983765
184	0x3c0c7f69	0.008575299
185	0x3bd68c36	0.006547476
186	0xbc93a395	-0.018022338
187	0xbc6566c4	-0.014001552
188	0xbc8d04bb	-0.01721417
189	0x3c89839f	0.016786395
190	0xbc0285c3	-0.007966462
191	0x3c0b4003	0.008499148
192	0xbc09b578	-0.008405082
193	0xb99b7724	-0.0002965267
194	0xbc99990b	-0.018749734
195	0x3b2ddc9a	0.0026529194
196	0xbc48f6ca	-0.01226587
197	0x3c816d41	0.015799167
198	0x3cec30de	0.028831895
199	0x3a8d1543	0.0010763783
200	0x3c325a01	0.010885716
201	0xbb877b49	-0.00413457
202	0xbc1d416b	-0.009598116
203	0xbd013776	-0.031547032
204	0xbc40022d	-0.011719269
205	0x3c9491b0	0.018135875
206	0x3b84e307	0.004055384
207	0xbcc70ad3	-0.024297154
208	0xbcb5510c	-0.022133373
209	0xbb613308	-0.0034362692
210	0x3cd9ff56	0.026611011
211	0xbcc17f8d	-0.023620391
212	0xbc9e4da1	-0.019324126
213	0x3ca3b9ab	0.019985994
214	0x3d084581	0.03326941
215	0xbc8af73a	-0.01696359
216	0xbcaeda87	-0.021344436
217	0x3c907c6f	0.01763746
218	0x3c73038f	0.014832391
219	0x3c28ed30	0.010310456
220	0x3c9f61fd	0.019455904
221	0xbb83564c	-0.00400809
222	0x3bec8488	0.0072179474
223	0xb8e9241e	-0.00011117033
224	0x3c342dc2	0.010997238
225	0x3cdb426e	0.026765075
226	0x3b861232	0.0040915245
227	0x3cbda534	0.023150064
228	0x3c281751	0.010259465
229	0x3c3ad56e	0.011403425
230	0xbb14f2d1	-0.0022727738
231	0xbc43cc61	-0.011950583
232	0x3d0eb2b0	0.03483838
233	0xbc0fcd46	-0.008776968
234	0x3cca63c1	0.02470577
235	0x3bb64678	0.0055625997
236	0xbb4ff723	-0.0031732998
237	0xbb36cfa9	-0.0027894771
238	0xbb8923fe	-0.004185199
239	0x3ca99b50	0.020703942
240	0xbc970645	-0.018435607
241	0xbce138de	-0.027492937
242	0x3c1be45e	0.009514896
243	0xbc9f50bd	-0.019447679
244	0xbce51d62	-0.027968112
245	0xbc76645e	-0.015038578
246	0x3cd7f6df	0.026362834
247	0x3c7b6802	0.015344622
248	0xbbc1216b	-0.0058938763
249	0x3bc3d389	0.0059761447
250	0x3c9c461f	0.019076405
251	0xbca97514	-0.02068571
252	0xbc858b00	-0.016301632
253	0x3c21d2bc	0.009876903
254	0x3caff691	0.021479877
255	0x3cd0b636	0.02547751

MatMul_1 f4 [32, 32]
0	0x3dad2140	0.084536076
1	0xbda34dc0	-0.07973814
2	0x3d5de213	0.05417068
3	0xbd84fec6	-0.06493907
4	0xbdbdd1ec	-0.09268555
5	0x3d37008c	0.044678256
6	0x3d91ddda	0.07122393
7	0x3c903ab1	0.017606111
8	0x3e0d3ad4	0.13791972
9	0xbc6e4109	-0.014541873
10	0xbdcfe11d	-0.10150359
11	0x3d70059a	0.058599092
12	0x3e3a5933	0.1819809
13	0x3d6556ac	0.05599086
14	0xbda0e514	-0.07856193
15	0xbdd43bbe	-0.103629574
16	0x3d86c924	0.06581333
17	0xbd665977	-0.056237664
18	0x3e05fc81	0.13084604
19	0x3e0189b2	0.12650183
20	0x3d3303d3	0.04370482
21	0xbde6a389	-0.112616606
22	0x3dc12262	0.09430386
23	0x3c86547e	0.01639771
24	0xbda1aaf5	-0.078939356
25	0x3e01f01f	0.12689255
26	0xbd941c27	-0.07231932
27	0x3e321fd9	0.17394961
28	0x3e0974fc	0.13423532
29	0xbe15d7cc	-0.14633101
30	0x3e6f35be	0.23360345
31	0xbdd62e5d	-0.10458062
32	0x3e1e3f50	0.1545384
33	0xbd723d4f	-0.0591405
34	0x3e23156d	0.15926142
35	0xbded601c	-0.11590597
36	0xbda276ec	-0.07932839
37	0x3d3a37c3	0.045463335
38	0x3e040374	0.12891942
39	0x3d29ecd5	0.041485626
40	0xbc14c143	-0.00907928
41	0x3e63d484	0.22249037
42	0xbda8242c	-0.08210024
43	0x3e218cf6	0.15776429
44	0xbdc95b01	-0.09831811
45	0x3e50125c	0.20319504
46	0xbe525d8e	-0.20543501
47	0x3cb8f6ae	0.022578564
48	0x3c4c8dad	0.01248495
49	0x3d981e33	0.07427635
50	0xbb304413	-0.0026896044
51	0xbd42ad75	-0.047528703
52	0xbcf1c496	-0.029512685
53	0x3d556dd7	0.052106705
54	0xbe1b358b	-0.15157144
55	0xbe0b5d92	-0.13609913
56	0x3d0b3834	0.033989146
57	0x3db07437	0.08615916
58	0xbe1dafde	-0.1539912
59	0x3e4d3ee8	0.20043528
60	0x3dd7001e	0.10498069
61	0xbcd07e92	-0.025450978
62	0x3e192685	0.149561
63	0x3bc1d892	0.00591571
64	0xbd8c80fc	-0.06860539
65	0xbddf8155	-0.1091334
66	0xbde1c20c	-0.1102334
67	0xbd0e9171	-0.034806672
68	0x3e0c06e1	0.13674499
69	0xbdf8d11b	-0.12149259
70	0xbe0341eb	-0.12818114
71	0xbe091d46	-0.13390073
72	0xbe382b64	-0.17985302
73	0xbc9accbd	-0.018896455
74	0x3db6b417	0.08921068
75	0x3d78db35	0.060755927
76	0xbd89a64b	-0.06721171
77	0x3da48fcf	0.08035242
78	0xbc32e69b	-0.010919238
79	0xbe3a945b	-0.18220656
80	0xbe150147	-0.14551269
81	0x3df28c9e	0.11843227
82	0x3e3190ee	0.17340443
83	0x3dfee7a9	0.124465294
84	0x3acd4fbd	0.0015664023
85	0x3e26a9e9	0.16275753
86	0xbdd099d6	-0.10185592
87	0xbde2d417	-0.11075609
88	0x3dbcf49d	0.09226344
89	0xbdf6e829	-0.12056
90	0x3d6684f3	0.056279134
91	0xbe044ce6	-0.1291996
92	0xbe09ecd4	-0.13469249
93	0x3debc523	0.1151221
94	0x3e16c4e3	0.14723544
95	0x3de583e6	0.11206798
96	0x3d90bdda	0.07067461
97	0x3be9305e	0.0071163615
98	0xbd133c55	-0.03594621
99	0xbe02e1cd	-0.12781449
100	0x3cc18d47	0.023626937
101	0x3dad9fbc	0.084777325
102	0xbde70a96	-0.11281316
103	0x3cb76241	0.022385718
104	0xbdd8d111	-0.10586751
105	0x3d04af01	0.03239346
106	0x3cedc75a	0.029025722
107	0xbb45aefa	-0.0030164109
108	0x3df70fb0	0.12063539
109	0x3c0d6d7e	0.008632062
110	0xbe407a6f	-0.18796705
111	0x3cefb6d3	0.029261982
112	0xbe0e50f3	-0.13898067
113	0x3d309968	0.04311505
114	0x3def8116	0.11694543
115	0xbdb28e2c	-0.087185234
116	0xbcb770c3	-0.022392636
117	0xbe180d31	-0.14848782
118	0xbe1f6222	-0.15564778
119	0xbdbd720d	-0.09250269
120	0x3dc50823	0.096206926
121	0x3d746291	0.059664313
122	0xbe050b0a	-0.12992492
123	0x3e618c89	0.22026266
124	0x3c896ad1	0.016774567
125	0xbd25175b	-0.040305477
126	0x3e194271	0.14966752
127	0xbdf48323	-0.11939075
128	0xbc561e86	-0.013068801
129	0x3d8eebe6	0.06978588
130	0x3d91d4e0	0.07120681
131	0x3cc1f8cd	0.023678208
132	0xbe1b8505	-0.15187462
133	0x3e27873a	0.16360179
134	0x3db92165	0.090395726
135	0xbe46a1f0	-0.19397712
136	0xbe138cd7	-0.14409195
137	0x3c5b68c4	0.013391677
138	0x3dc8677b	0.09785362
139	0x3db22678	0.086987436
140	0x3e23fa2d	0.16013403
141	0xbd651886	-0.05593159
142	0x3e52d12a	0.20587602
143	0xbe24f5bb	-0.16109364
144	0xbd6c4845	-0.05768611
145	0xbdbbfffa	-0.09179683
146	0xbd208aa2	-0.03919471
147	0x3e1239ab	0.14279811
148	0x3e2d7cc6	0.16942129
149	0x3d924cc5	0.07143549
150	0xbd7046ad	-0.05866115
151	0xbe08a1ea	-0.13343015
152	0xbe386be2	-0.18009904
153	0xbdd8abcb	-0.10579642
154	0x3dad3686	0.08457665
155	0xbe01603c	-0.12634367
156	0x3db7bd44	0.089716464
157	0x3e55fd3c	0.20897382
158	0x3d75a806	0.059974693
159	0xbd8cdf78	-0.06878561
160	0xbe227d92	-0.15868214
161	0xbd83b42b	-0.06430849
162	0xbd42bd07	-0.04754355
163	0x3e4be14f	0.19910167
164	0x3d1fc687	0.03900769
165	0x3d7eb767	0.062186625
166	0x3df13fce	0.11779748
167	0x3e06b09c	0.13153309
168	0xbdcf93d9	-0.101356216
169	0x3cf97090	0.030449182
170	0x3d715845	0.05892207
171	0xbc029831	-0.007970856
172	0x3deb0005	0.11474613
173	0xbe0149d3	-0.12625818
174	0x3e145d48	0.14488709
175	0xbdc76a58	-0.0973708
176	0xbdc839d4	-0.09776655
177	0x3e12730e	0.14301702
178	0xbcffff67	-0.031249715
179	0xbd3cdc40	-0.046108484
180	0xbdcf0da5	-0.10110024
181	0xbe057562	-0.13033059
182	0xbbc372e4	-0.0059646238
183	0x3d7195c2	0.05898071
184	0xbe44b50d	-0.1920969
185	0x3d677438	0.05650732
186	0x3dd1384a	0.102158144
187	0xbe3af628	-0.18257964
188	0x3d9d496b	0.07680019
189	0x3da91dce	0.08257638
190	0x3dc2f9cc	0.09520301
191	0x3dfb40d7	0.122682266
192	0x3e29bb78	0.1657542
193	0xbdb0e67e	-0.08637713
194	0xbdd3cc8c	-0.103417486
195	0xbd4580b2	-0.048218437
196	0x3d12a0c3	0.035797846
197	0xbe0fff77	-0.14062296
198	0x3ce9bf78	0.028533682
199	0xbdcc51d6	-0.099765465
200	0x3d0d0dae	0.034436874
201	0x3cf6cd03	0.030127054
202	0xbdb70eae	-0.08938347
203	0xbe0ce20d	-0.13758107
204	0xbdaddd6a	-0.08489497
205	0xbe28233c	-0.16419691
206	0x3dd51fd6	0.10406463
207	0xbdb0224d	-0.08600292
208	0xbdb30f06	-0.087431
209	0x3d378b2b	0.044810455
210	0x3d14fecd	0.03637581
211	0xbe2d12a5	-0.16901644
212	0x3da04251	0.07825149
213	0x3cdead27	0.027182175
214	0xbd10226c	-0.035189077
215	0x3d4fc50f	0.05072504
216	0x3dbb4fc3	0.09146073
217	0x3bbb238d	0.005711025
218	0x3d6c1f61	0.057647113
219	0xbd5e1d8c	-0.054227397
220	0x3e1cbd50	0.15306592
221	0x3dd5c4d5	0.10437933
222	0x3de64758	0.112440765
223	0xbd4b7d33	-0.049679946
224	0xbd381e05	-0.044950504
225	0x3d4b5eb0	0.049650848
226	0x3da57419	0.080787845
227	0xbe0485ba	-0.12941638
228	0xbd85417d	-0.065066315
229	0x3e0b2b01	0.13590623
230	0xbda81427	-0.08206969
231	0x3dabaf7f	0.083830826
232	0x3dd538d7	0.10411232
233	0x3dfb83e8	0.122810185
234	0xbe105052	-0.1409314
235	0x3d43a7fc	0.047767624
236	0x3d8fa79a	0.07014389
237	0x3df79a5b	0.12089988
238	0x3d891f6c	0.06695446
239	0xbc5e6dff	-0.01357603
240	0xbd812161	-0.06305195
241	0x3c4fa556	0.0126736965
242	0x3d09e722	0.03366769
243	0x3d99137d	0.0747442
244	0x3d95dd03	0.07317545
245	0xbd31759d	-0.043325055
246	0xbdeab3ad	-0.11460052
247	0xbce25028	-0.027626112
248	0x3cc063a9	0.023485022
249	0x3e1c9478	0.15291011
250	0xbdaf18df	-0.08549666
251	0xbd3b8da0	-0.04578936
252	0xbdd39b09	-0.10332305
253	0xbdddd56b	-0.10831722
254	0xbb9a4c0b	-0.004708772
255	0x3e03d6ad	0.12874861

MatMul_2 f4 [1, 32]
0	0x3d63dcaf	0.055630382
1	0x3e5358f0	0.20639396
2	0xbeb4704c	-0.35241926
3	0x3da1649c	0.07880518
4	0xbeb268da	-0.3484562
5	0xbea737a4	-0.32659638
6	0x3e10e84b	0.14151113
7	0x3e19b3b9	0.15009965
8	0xbeba6d02	-0.3641129
9	0xbec2e4d6	-0.38065213
10	0x3e3fcfc4	0.187316
11	0x3d82875e	0.063734755
12	0x3e2a04b8	0.16603363
13	0x3e32ff0c	0.17480105
14	0x3df20ef5	0.11819259
15	0xbea1a05f	-0.31567666
16	0xbd1d26da	-0.03836713
17	0x3ca6c87b	0.020359268
18	0x3cb2d716	0.021831077
19	0xbed49d3c	-0.4152621
20	0x3d3603b3	0.04443712
21	0xbd9ae756	-0.07563655
22	0x3e94d352	0.29067475
23	0x3bb19e67	0.0054204944
24	0xbec52b97	-0.3850982
25	0xbb203a05	-0.0024448645
26	0x3e6d1334	0.23151857
27	0x3d343874	0.04399915
28	0x3e5c56ad	0.21517439
29	0xbebfd419	-0.37466505
30	0x3e5deec1	0.21673109
31	0xbd82e77a	-0.06391807
