app/src/main/ml/hola_ari.tflite (tflite, 206748 bytes, 9 tensors)

Const_1 f4 [32]
0	0xbcbad108	-0.022804752
1	0xbb8989b5	-0.004197324
2	0xbc18e993	-0.009333032
3	0x3cd71d3d	0.02625906
4	0x3c91c258	0.017792866
5	0xbc93c4e4	-0.01803822
6	0xbbdad743	-0.006678493
7	0x3c0c49ef	0.008562549
8	0x3c8852ee	0.016641106
9	0x3c625fb3	0.013816762
10	0x3ccfdce1	0.025373878
11	0xbc44497d	-0.011980412
12	0xbb2d69eb	-0.0026460837
13	0x3cbcbdf0	0.023039788
14	0x3b10cec9	0.002209591
15	0x3cb72fac	0.022361599
16	0xbcb234b4	-0.021753646
17	0xbc7e252d	-0.015511793
18	0xba2f9e0b	-0.00066992705
19	0xbccef0bd	-0.025261277
20	0x3c62cbdc	0.013842549
21	0xbc460455	-0.012085994
22	0x3bd6bb2b	0.006553074
23	0x3bb1d035	0.0054264315
24	0x3c50024d	0.012695861
25	0x3bea5dcc	0.0071522947
26	0x3b359e9d	0.002771295
27	0x3bf73815	0.0075445273
28	0x3cd162a7	0.025559736
29	0x3b401407	0.0029308812
30	0x3ca88a09	0.020573633
31	0x3b9513fb	0.004549501

Const_2 f4 [32]
0	0x3f7f31ed	0.99685556
1	0x3f7f520b	0.9973456
2	0x3f7dc940	0.9913521
3	0x3f800d7b	1.0004114
4	0x3f82ca8a	1.021806
5	0x3f829437	1.0201482
6	0x3f810a8c	1.0081344
7	0x3f7f4d90	0.99727726
8	0x3f72c995	0.9483884
9	0x3f7e9244	0.99441934
10	0x3f823840	1.0173416
11	0x3f7d6ce0	0.98994255
12	0x3f87570e	1.0573442
13	0x3f7e9f98	0.9946227
14	0x3f7f7a8f	0.99796385
15	0x3f807b50	1.0037632
16	0x3f7f3a5d	0.9969843
17	0x3f7e421d	0.9931963
18	0x3f7748e8	0.9659562
19	0x3f7c66ef	0.98594564
20	0x3f813d99	1.0096923
21	0x3f7ef011	0.9958506
22	0x3f7b2a41	0.9811135
23	0x3f7f9191	0.9983149
24	0x3f8192d3	1.0122932
25	0x3f81993c	1.0124888
26	0x3f76fded	0.9648121
27	0x3f7f9593	0.9983761
28	0x3f82781f	1.0192908
29	0x3f7dcac9	0.9913755
30	0x3f7f0790	0.99620914
31	0x3f7f6008	0.9975591

Const_3 f4 [32]
0	0xbbf9570b	-0.0076092533
1	0xbc0aa5aa	-0.008462349
2	0xbcc8a13d	-0.024490947
3	0x3bfb71b3	0.007673466
4	0x3c116c84	0.00887597
5	0x3c041f9b	0.008064176
6	0x3c06c5a8	0.008225836
7	0xbbf1cb40	-0.0073789656
8	0xbd1c22ec	-0.03811924
9	0x3be70c8b	0.007051056
10	0x3d09af76	0.0336146
11	0xbca1b92b	-0.019741615
12	0x3c821e58	0.01588361
13	0xbc8d6055	-0.017257849
14	0xbbf00917	-0.0073253023
15	0xbb3f1441	-0.002915636
16	0xbc10c809	-0.008836755
17	0x3b182893	0.0023217543
18	0x3adc6855	0.0016815761
19	0xbc76f3bc	-0.015072759
20	0x3c8bd095	0.017067233
21	0xbc079e48	-0.008277483
22	0x3cac0b05	0.021001348
23	0xbba325d5	-0.004978875
24	0x3bca1c6b	0.0061679385
25	0xbbb2149d	-0.005434586
26	0x3bbcae15	0.005758057
27	0xbbb1475d	-0.0054101185
28	0x3c8e10fd	0.017342085
29	0xbb041ff9	-0.0020160659
30	0xbc148638	-0.009065203
31	0xbbcb2e68	-0.0062006004

Const_5 f4 [32]
0	0xbd0a0365	-0.033694644
1	0x3ce27eeb	0.02764841
2	0x3dcc8fb5	0.099883474
3	0xbde13c04	-0.10997775
4	0xbdbb5533	-0.0914711
5	0xbc13b6e8	-0.009015776
6	0xbe107ec0	-0.14110851
7	0x3e0c17c9	0.13680948
8	0xbd42ec7d	-0.047588814
9	0xbd7e1544	-0.062032
10	0xbd03768c	-0.032095477
11	0x3dd9b50c	0.10630235
12	0xbd54ff10	-0.05200106
13	0x3e3dbd37	0.18529211
14	0xbdf23fc8	-0.118285716
15	0xbdeb3895	-0.114854015
16	0xbd0bf1bf	-0.034166094
17	0x3de8be90	0.11364472
18	0xbd1a6ab3	-0.037699413
19	0xbb364c00	-0.0027816296
20	0xbc2b6419	-0.010460877
21	0xbd2527d9	-0.040321205
22	0x3d232982	0.039834507
23	0xbe1f3188	-0.15546238
24	0x3e264a84	0.16239363
25	0x3df23963	0.11827352
26	0x3cfbdcc5	0.03074492
27	0x3da06c6c	0.0783318
28	0xbcce011d	-0.025147015
29	0x3d7c1915	0.061547358
30	0x3b418d18	0.0029533561
31	0xbe25e19e	-0.16199347

Const_6 f4 [32]
0	0x3f9cea0a	1.2258923
1	0x3f82e7cd	1.022699
2	0x3f806e8d	1.0033737
3	0x3f8ea1b5	1.1143099
4	0x3f80e1f5	1.0068957
5	0x3fa43f13	1.2831749
6	0x3f8380b3	1.0273651
7	0x3f9fe849	1.2492763
8	0x3f86eee1	1.054165
9	0x3f859962	1.0437434
10	0x3f6eae58	0.9323478
11	0x3f82c487	1.0216225
12	0x3f867a8d	1.050615
13	0x3f86e1ad	1.0537621
14	0x3f9d951d	1.2311131
15	0x3f7cbe09	0.9872747
16	0x3fa25dbf	1.2684859
17	0x3f8454c9	1.0338374
18	0x3fafb698	1.3727598
19	0x3f9ee9b1	1.2415067
20	0x3f9c19c0	1.2195358
21	0x3f72d585	0.94857055
22	0x3f85f0fc	1.0464168
23	0x3f8c5f6d	1.0966622
24	0x3f9e8091	1.2382985
25	0x3f85b24f	1.044504
26	0x3f8da7dd	1.1066853
27	0x3f85c52e	1.04508
28	0x3f84bc20	1.0369911
29	0x3f8017c5	1.0007254
30	0x3fa08cb9	1.2542945
31	0x3f8a36cf	1.0797976

Const_7 f4 [32]
0	0x3e768010	0.2407229
1	0x3c7ec850	0.015550688
2	0xbb651590	-0.003495548
3	0x3d6a6771	0.057227556
4	0x3c1affab	0.00946037
5	0x3e84e7ab	0.25958
6	0x3cd50751	0.026004465
7	0x3e7538c5	0.23947437
8	0x3d00d69d	0.03145467
9	0x3d062960	0.032754302
10	0xbd85321d	-0.06503699
11	0x3cb3fad8	0.021970198
12	0x3d558b20	0.052134633
13	0x3cc16267	0.023606492
14	0x3e7a0351	0.24415328
15	0xbcc270a9	-0.023735361
16	0x3e80ad4b	0.25132212
17	0x3cd12a27	0.025532795
18	0x3e94d0a3	0.29065427
19	0x3e73a0b5	0.23791774
20	0x3e6c2b93	0.23063497
21	0xbd1f4382	-0.03888274
22	0x3d068483	0.032841217
23	0x3d5b1673	0.053488206
24	0x3e7910f9	0.24322881
25	0x3cbe5993	0.023236072
26	0x3d9b6853	0.07588258
27	0x3d2144b3	0.039372157
28	0x3ce10d6d	0.027472222
29	0x3c6602d8	0.014038764
30	0x3e7b1785	0.2452069
31	0x3d8876a4	0.06663254

MatMul f4 [32, 1536]
0	0xbb9632c8	-0.0045836903
1	0xbc9da155	-0.019241968
2	0x3b904c7c	0.004403649
3	0xbc044199	-0.00807228
4	0xbb9d4424	-0.0047993828
5	0xb990eb60	-0.00027641188
6	0x3c3b953c	0.0114491545
7	0xbc163bd5	-0.0091695385
8	0x3c83c944	0.016087182
9	0xbc8b8b09	-0.01703407
10	0xbaa74685	-0.0012762105
11	0xbca40d32	-0.020025823
12	0x3c42d0b3	0.011890578
13	0x3cf44c6d	0.029821599
14	0x3ba6049d	0.005066468
15	0xbc646bc7	-0.013941712
16	0x393faac8	0.000182788
17	0x3ca0b903	0.01961947
18	0x3c3320f7	0.010933152
19	0xbbbc35e4	-0.005743729
20	0xbccf95fc	-0.025340073
21	0xbcb63760	-0.022243202
22	0xba8e2985	-0.0010846114
23	0xbcbf780d	-0.023372674
24	0xbc922091	-0.017837794
25	0x3befc9d3	0.0073177605
26	0x3cbf9054	0.02338425
27	0xbb0f945a	-0.0021908493
28	0x3c4ac8c9	0.0123769725
29	0xbc81de4a	-0.015853066
30	0x3ba879b5	0.0051414617
31	0xbc812194	-0.015763082
32	0xbc6f7813	-0.01461603
33	0x3c55cdb0	0.013049528
34	0x3b4ef77f	0.0031580625
35	0x3c718b14	0.014742631
36	0xbcc37539	-0.023859607
37	0x3ca41a63	0.020032113
38	0x3c93b16d	0.01802894
39	0xbbcba5f4	-0.0062148515
40	0x3c6e5545	0.014546697
41	0x3cc6851d	0.024233395
42	0xbc38f1bd	-0.011288104
43	0x3c7751b5	0.015095164
44	0x3c2c6119	0.010521197
45	0x3c881e2f	0.016615955
46	0x3cba2028	0.022720411
47	0xbc895e18	-0.0167685
48	0x3c096e07	0.008388049
49	0xbc36103b	-0.011112268
50	0x3ccbc70f	0.024875192
51	0x3b83a08f	0.004016943
52	0x3c53dd08	0.012931116
53	0x3c665eed	0.014060718
54	0xbc4ebbc8	-0.012618013
55	0x3cc574d5	0.024103561
56	0xbca1efbe	-0.019767638
57	0xbc4c6835	-0.012476017
58	0x3c80fcfd	0.015745634
59	0x3ca81004	0.02051545
60	0x3c8ce92d	0.01720103
61	0xba8a3d67	-0.0010546864
62	0x3ba6dda3	0.005092339
63	0xbc4d8605	-0.01254416
64	0xbb7c811f	-0.003852911
65	0xbcc45acf	-0.023969082
66	0x3d056330	0.032565296
67	0xbbc27cb3	-0.0059352755
68	0xbc8ba643	-0.017047053
69	0x3c1ac9d1	0.009447531
70	0xbcea0a80	-0.02856946
71	0x3cae0193	0.021240985
72	0x3cb1d5f3	0.021708464
73	0xbcbb9b7f	-0.022901295
74	0xb91529be	-0.00014225297
75	0x3c9af25c	0.018914394
76	0x3ca5f779	0.020259606
77	0x3c1d9315	0.009617587
78	0x3c58f534	0.013242055
79	0x3cd35a3c	0.025799863
80	0xbae078d7	-0.0017125857
81	0xbb3f603c	-0.0029201647
82	0x3ca04ffe	0.019569393
83	0x3cc2bf1b	0.023772767
84	0x3c040207	0.008057124
85	0x3ca3a31f	0.019975243
86	0xbc8673ec	-0.016412698
87	0xbcac790d	-0.021053815
88	0x3ce1c2d8	0.027558729
89	0xbbadd6d8	-0.0053051524
90	0x3c95a623	0.018267697
91	0x3c5c6093	0.013450759
92	0x3c96a0e6	0.01838727
93	0x3ce00c9f	0.027349768
94	0x3cc59910	0.024120837
95	0x3c3c8200	0.011505604
96	0xbc43c40f	-0.0119485995
97	0x3c344c34	0.011004496
98	0xbbabe715	-0.005246053
99	0xbc23e041	-0.010002197
100	0x3bf54ebc	0.0074861925
101	0x3cac4150	0.021027237
102	0xbc73f71f	-0.014890461
103	0xbb2e4298	-0.0026589986
104	0xbc105013	-0.008808154
105	0xbcbf8650	-0.023379475
106	0xbc07c171	-0.008285866
107	0xbcc282c8	-0.023744002
108	0x3bd8855c	0.0066076946
109	0x3cb16c5f	0.02165812
110	0xbc221756	-0.009893259
111	0x3b126cc9	0.0022342673
112	0x3bbd3b41	0.005774886
113	0x3cc9715b	0.024590185
114	0xbc1fb138	-0.009746842
115	0x3cad38a8	0.02114518
116	0x3baf2ee5	0.0053461664
117	0x3c0ae355	0.008477052
118	0xb9c56dcd	-0.00037656576
119	0x3cb898c4	0.022533782
120	0x3c195c0e	0.009360326
121	0xba4c94f7	-0.000780418
122	0xbbabee49	-0.0052469117
123	0x3ca5bb08	0.020230785
124	0x3c727a55	0.014799674
125	0xbc85554f	-0.01627603
126	0x3be86845	0.007092508
127	0x3bd3bfe0	0.0064620823
128	0xbc72e858	-0.014825903
129	0xbccbe91b	-0.024891427
130	0x3cb7d468	0.02244015
131	0xbc271a88	-0.010199197
132	0x3cb2ccf9	0.021826254
133	0xbc704dc8	-0.014666982
134	0xbcc05598	-0.023478314
135	0xbc887c6b	-0.01666089
136	0x3c44dd95	0.01201572
137	0xbc697c2d	-0.014250797
138	0xba506984	-0.00079502934
139	0x3cca39c8	0.024685755
140	0xbc72dc1d	-0.014822987
141	0xbcdbbb6d	-0.02682277
142	0x3c17b564	0.0092595555
143	0x3cb9cac0	0.022679687
144	0xbc8eb0b3	-0.017418241
145	0x3cd79863	0.02631778
146	0xbc88225b	-0.016617944
147	0x3c1146f5	0.008867015
148	0xbbfb73f8	-0.0076737367
149	0x3bcca2b0	0.00624498
150	0x3bcd55cd	0.0062663318
151	0xbc9891c0	-0.018624187
152	0x3ca39601	0.019968988
153	0xba3d47f4	-0.00072204997
154	0x3cb2d2f9	0.021829115
155	0x3c0686a1	0.008210809
156	0xbba6bf73	-0.0050887405
157	0x3ba2b018	0.0049648397
158	0x3ca94ca5	0.02066643
159	0x3c0d53c8	0.008625932
160	0x3c9f0eeb	0.019416293
161	0x3c89833c	0.01678621
162	0xbc97ac84	-0.018514879
163	0x3c869aec	0.016431294
164	0xbc297c13	-0.010344523
165	0x3c6277f1	0.013822542
166	0xbc180e9f	-0.00928083
167	0x3ca294e8	0.019846395
168	0x3c403da7	0.011733449
169	0xbb3abfa4	-0.0028495574
170	0xbbba38b8	-0.005683031
171	0x3c9487b3	0.018131113
172	0x3b314d95	0.00270543
173	0x3c1af188	0.009457
174	0x3c24dfe3	0.010063144
175	0xbcbb8f1c	-0.022895388
176	0x39c68dbf	0.00037871112
177	0xbc03c146	-0.008041685
178	0xb9fc6c19	-0.00048145725
179	0x3b9dfa2a	0.0048210816
180	0xbc528f03	-0.012851479
181	0x3c77acdd	0.015116897
182	0x3cad1407	0.021127714
183	0xbb8c0b99	-0.0042738435
184	0x3ca0c811	0.01962665
185	0x3c86f79d	0.016475493
186	0x3cc4ccb4	0.024023391
187	0xbce1e514	-0.027575053
188	0xbb25d4a8	-0.0025303755
189	0xbac43d0f	-0.001497181
190	0x3bf8802b	0.007583638
191	0x3ca53d59	0.020170854
192	0x3cd2e4eb	0.025743922
193	0x3cd051d4	0.025429644
194	0x3c528f03	0.012851479
195	0x3c949bc6	0.018140685
196	0xbc73b271	-0.014874087
197	0xbca4f459	-0.020136045
198	0x3c848df0	0.016180962
199	0x3ab47aef	0.0013769547
200	0xbb2baee8	-0.0026196782
201	0xbb42b4d0	-0.0029709823
202	0x3cae509d	0.021278674
203	0x3c8d88f9	0.017277228
204	0xbb8e6def	-0.004346601
205	0xba589055	-0.0008261253
206	0x3c99c820	0.018772185
207	0x3c515f49	0.012779065
208	0xbc6c69b9	-0.014429503
209	0x3d01ced4	0.031691387
210	0x3ba41a5d	0.0050080256
211	0x3c44c170	0.01200901
212	0x3b71f69f	0.003692068
213	0xbb87a6b4	-0.0041397456
214	0x3cc18dac	0.023627125
215	0x3c4bd05d	0.012439814
216	0x3c193e0f	0.009353175
217	0x3a634424	0.00086695165
218	0x3a947931	0.0011327622
219	0xbcf52f63	-0.029929822
220	0xb9ad43c3	-0.00033047618
221	0xbb283c37	-0.0025670656
222	0x3c5177a5	0.012784873
223	0x3c711cc3	0.01471633
224	0xbcbfbf18	-0.02340655
225	0x3bb5c36d	0.005546978
226	0xbccf4267	-0.025300218
227	0xbca6e44f	-0.020372538
228	0x3c611ce3	0.013739797
229	0x3c4fd0a5	0.012684022
230	0xbc322065	-0.010871981
231	0x3cb0cc2b	0.02158173
232	0x3c4b9228	0.012424983
233	0xbc907641	-0.017634513
234	0x3ca867d1	0.020557316
235	0x3ba39707	0.004992369
236	0x3c8e00f1	0.017334433
237	0xbc852540	-0.016253114
238	0x3c7f52c9	0.015583702
239	0x3a4f0f6d	0.0007898722
240	0x3c963697	0.018336577
241	0xbb25ced4	-0.002530028
242	0x3c72df0b	0.014823685
243	0x3c6bbc8c	0.014388215
244	0x3cb256ff	0.021769999
245	0x3c7765af	0.015099927
246	0x3c71d183	0.014759424
247	0xbc9e9e81	-0.01936269
248	0xbc6d6e94	-0.014491696
249	0x3b505415	0.0031788398
250	0xbca475a8	-0.020075634
251	0xbbdf307b	-0.0068111992
252	0x3bf182b0	0.0073703155
253	0x3c02d847	0.007986135
254	0xbcadf544	-0.021235116
255	0xbc9c4314	-0.019074954

MatMul_1 f4 [32, 32]
0	0xbcb6c553	-0.022310888
1	0xbd4cfb8d	-0.050044585
2	0xbd8c3260	-0.06845546
3	0x3e0ebb6b	0.13938682
4	0x3d5dfe5b	0.05419765
5	0xbe3e8d5b	-0.1860861
6	0x3cdc88ac	0.026920639
7	0x3c4ae484	0.012383584
8	0xbd75aaed	-0.05997746
9	0x3c4c6693	0.0124756275
10	0x3df6fbc4	0.12059739
11	0xbd1f1189	-0.038835082
12	0x3de19ea7	0.11016589
13	0xbe0b4e47	-0.13604079
14	0xbe23dce2	-0.16002229
15	0xbc69cec4	-0.014270488
16	0xbde83a17	-0.11339205
17	0x3d8f6149	0.070009775
18	0xbe0ff983	-0.14060025
19	0xbd546ccb	-0.051861566
20	0x3d15a4b3	0.036534023
21	0xbc95989b	-0.018261245
22	0xbe3ed208	-0.18634808
23	0xbdae9de4	-0.08526209
24	0xbdefd203	-0.117099784
25	0xbdbbf857	-0.091782264
26	0x3d64491c	0.055733785
27	0xbda8b3b3	-0.082374
28	0x3e0b4ff1	0.13604714
29	0x3ddab055	0.10678164
30	0x3d9e9494	0.07743183
31	0xbd0fc9c5	-0.03510453
32	0xbdb9dcd0	-0.0907532
33	0xbe017a1c	-0.12644237
34	0x3e187ed3	0.1489213
35	0x3d32c0a4	0.043640748
36	0xbd10ac74	-0.035320714
37	0x3c37bbef	0.01121424
38	0x3ddc549f	0.10758328
39	0x3d5d84f0	0.054081857
40	0xbdda8350	-0.10669577
41	0xbd7abf9b	-0.061217885
42	0xbd51e66d	-0.05124514
43	0xbe01a82b	-0.12661807
44	0xbe1dc6af	-0.15407823
45	0xbcc802e0	-0.024415433
46	0x3e257e3e	0.16161439
47	0xbe061e2c	-0.13097447
48	0xbc3acbf0	-0.011401162
49	0xbdfe2a95	-0.12410466
50	0xbdb05850	-0.08610594
51	0xbdd51f81	-0.104063995
52	0x3e343e1b	0.17601816
53	0x3de92da0	0.113856554
54	0x3de2b1af	0.11069047
55	0x3d966c11	0.07344831
56	0xbcf7f6a0	-0.030268967
57	0x3df16df8	0.11788553
58	0xbe04e323	-0.12977271
59	0x3e075157	0.13214622
60	0xbd2d142c	-0.042255566
61	0xbd91bd85	-0.07116226
62	0xbe2805b1	-0.16408421
63	0xbdcd83b9	-0.1003489
64	0xbd0465e9	-0.03232375
65	0x3df4b32f	0.11948239
66	0xbe14ab55	-0.14518483
67	0xbc41f28f	-0.011837616
68	0xbe036109	-0.12829985
69	0x3c56d743	0.013112846
70	0x3ce87b33	0.028379058
71	0xbe38c3d8	-0.18043458
72	0xbdce1fd4	-0.100646645
73	0x3d8b078c	0.06788549
74	0x3e0ad3b6	0.13557324
75	0x3d6a2ef1	0.057173673
76	0xbe1d4133	-0.15356903
77	0x3d635853	0.055504154
78	0xbcdf75d5	-0.027277866
79	0x3b9f4064	0.004859971
80	0xbde15b74	-0.110037714
81	0x3c97c04a	0.018524308
82	0xbcefa698	-0.029254243
83	0xbd1c88bf	-0.03821635
84	0xbdc1dd7c	-0.09466073
85	0xbc70f970	-0.014707908
86	0x3d704617	0.058660593
87	0xbd948ea6	-0.072537705
88	0xbd44b3e8	-0.048023134
89	0xbcee1f28	-0.02906759
90	0x3cb7b433	0.022424793
91	0x3e2fb4e4	0.17158848
92	0xbb92f063	-0.0044842227
93	0x3d7d52a4	0.06184639
94	0x3e10d86e	0.14145061
95	0x3e392f68	0.1808449
96	0xbe02a5b0	-0.12758517
97	0xbe21a303	-0.1578484
98	0xbdf1dd58	-0.11809796
99	0x3d53518b	0.051591437
100	0x3df82770	0.12116897
101	0x3dd1f38d	0.10251532
102	0x3e3d3a44	0.18479258
103	0xbd1d5f2c	-0.03842084
104	0xbd91e98b	-0.07124623
105	0xbe1241f9	-0.14282979
106	0x3be42b54	0.006963173
107	0xbd03bfa7	-0.032165196
108	0xbd8f6639	-0.07001919
109	0xbe266ce1	-0.16252472
110	0xbcd89f80	-0.026443243
111	0xbe2249ef	-0.15848516
112	0x3db2ca43	0.087299846
113	0x3e250a90	0.1611731
114	0xbd2babbb	-0.04191182
115	0xbd2c834c	-0.042117402
116	0xbde0a12f	-0.10968243
117	0x3d4dbecd	0.05023079
118	0x3d947fbf	0.07250928
119	0xbd2b848b	-0.04187445
120	0xbe0909c9	-0.13382639
121	0xbdca184b	-0.09867915
122	0xbc341543	-0.010991397
123	0xbcb55b33	-0.022138214
124	0xbbdb4841	-0.006691963
125	0xbde7382f	-0.11290013
126	0x3d496907	0.049172428
127	0x3df611b1	0.12015093
128	0x3d398bad	0.04529922
129	0xbe00668c	-0.12539119
130	0x3e17dd88	0.14830601
131	0xbd9c17c2	-0.07621719
132	0x3df53a4d	0.119740106
133	0x3cb16f0d	0.021659398
134	0x3db63900	0.08897591
135	0xba953eb9	-0.0011386491
136	0x3db460e0	0.0880754
137	0x3d91c3e9	0.07117445
138	0xbce9296b	-0.028462132
139	0xbd1ad1ec	-0.037797853
140	0xbe2cc5a1	-0.16872264
141	0xbcd27e7d	-0.02569508
142	0x3e107d3b	0.14110272
143	0x3d8251b1	0.06363238
144	0x3e2b8fd7	0.1675409
145	0x3e0d328f	0.13788818
146	0xbe2dcd60	-0.16972876
147	0xbd0edcd3	-0.034878563
148	0x3e199fc0	0.15002346
149	0x3e2898b8	0.16464508
150	0x3dad11cb	0.08450659
151	0xbe049661	-0.1294799
152	0xbe03c51f	-0.12868164
153	0xbd71f3d1	-0.059070412
154	0x3d81915b	0.063265525
155	0x3e282d19	0.16423453
156	0x3d24c168	0.04022351
157	0xbdfb6990	-0.12275994
158	0x3d5a8101	0.053345684
159	0xbe009e5f	-0.12560414
160	0xbcaf83f7	-0.02142523
161	0x3d0c5c33	0.034267616
162	0x3e035d07	0.12828456
163	0x3e070b18	0.13187826
164	0xbdcd2a13	-0.10017791
165	0x3d6d7e59	0.057981823
166	0xbde7fc1d	-0.11327384
167	0x3ae58a05	0.0017512447
168	0x3da29881	0.07939244
169	0xbd7c56d4	-0.061606243
170	0x3d244533	0.040105056
171	0x3ddf5cc3	0.10906365
172	0x3dd62d44	0.104578525
173	0x3d801657	0.06254261
174	0x3d6d2778	0.05789897
175	0x3dab126f	0.08353125
176	0xbc829f3f	-0.015945075
177	0xbe1a69bb	-0.15079395
178	0xbd29dd96	-0.041471086
179	0xbd60aec0	-0.054854155
180	0x3e12e0be	0.14343545
181	0x3cdd62b8	0.027024612
182	0x3c3ddcf8	0.011588328
183	0x3e1acdc1	0.15117551
184	0x3d89c04f	0.06726133
185	0xbb71abd0	-0.003687609
186	0xbd5d71ec	-0.054063722
187	0x3e01826c	0.12647408
188	0x3deb7cbb	0.114984
189	0xbe232c0a	-0.15934768
190	0x3df81dfb	0.12115093
191	0x3d2ab8fc	0.04168032
192	0x3e292a55	0.16520055
193	0x3d43bcfc	0.04778765
194	0xbd7aa1c9	-0.061189447
195	0xbdacfc00	-0.08446503
196	0x3d968edc	0.07351467
197	0x3e308f98	0.17242277
198	0xbde46089	-0.11151225
199	0x3cdf94b3	0.027292585
200	0xbd10d7c7	-0.03536203
201	0x3debc4d7	0.115121536
202	0xbd8770fa	-0.066133454
203	0x3ded3b78	0.115836084
204	0xbd094e39	-0.033521865
205	0xbe12db50	-0.14341474
206	0xbdd3ba67	-0.10338288
207	0x3ccfce7f	0.02536702
208	0x3e170e27	0.14751492
209	0x3e1b748d	0.1518118
210	0xbdd7291c	-0.10505888
211	0x3e0d13cf	0.13777088
212	0x3d5e032d	0.054202247
213	0x3e32430f	0.17408393
214	0x3e01abeb	0.12663238
215	0x3e2aefff	0.16693114
216	0x3dcc249b	0.099679194
217	0x3c89cf77	0.01682256
218	0x3cbb9a6b	0.02290078
219	0xbe2986c9	-0.16555323
220	0x3e177e81	0.14794351
221	0x3e195fc5	0.1497794
222	0xbd51dac5	-0.051234026
223	0xbe13e0e1	-0.14441253
224	0xbe123c49	-0.1428081
225	0x3d827119	0.06369228
226	0xbde9b885	-0.114121474
227	0x3d53a9c3	0.05167557
228	0xbde47f4c	-0.111570925
229	0xbe0a593c	-0.13510603
230	0x3e1137ef	0.14181493
231	0xbe2737c1	-0.16329862
232	0x3e0edd2d	0.1395156
233	0xbd941dbc	-0.07232234
234	0xbcb3ab4f	-0.021932272
235	0xbd878980	-0.06618023
236	0x3b8086a3	0.0039223
237	0x3d8be016	0.068298504
238	0x3e2c4ccc	0.1682617
239	0xbe2a7b69	-0.1664864
240	0xbdf123d8	-0.11774415
241	0x3cc5ee8f	0.024161605
242	0xbcd1b34f	-0.025598196
243	0xbe01c73f	-0.12673663
244	0x3d93003d	0.0717778
245	0x3b3b12bb	0.00285451
246	0x3e32f2a8	0.17475379
247	0x3d011b16	0.03151997
248	0xbd9fd946	-0.078051135
249	0xbe101e3d	-0.14074035
250	0x3e261a4b	0.16220967
251	0x3e26f8b2	0.16305807
252	0x3d8e10e1	0.06936813
253	0xbd73d1af	-0.05952614
254	0xbe278b48	-0.16361725
255	0x3b67caeb	0.0035368751

MatMul_2 f4 [1, 32]
0	0xbea5110c	-0.32239568
1	0x3daed9b7	0.085376196
2	0x3d51c311	0.05121142
3	0x3ddb6af3	0.10713758
4	0x3dba809f	0.09106564
5	0xbe9d9833	-0.3078018
6	0x3e422880	0.18960762
7	0xbec9b855	-0.39398447
8	0x3e59bc54	0.21263248
9	0x3e182900	0.1485939
10	0x3b1730ca	0.0023069852
11	0x3c5ab00f	0.01334764
12	0x3df6b0b5	0.12045423
13	0x3e5ca43d	0.21547027
14	0xbe98e9e2	-0.29865938
15	0x3dae1ffb	0.085021935
16	0xbeb0c773	-0.34527168
17	0x3e2b4323	0.1672483
18	0xbeb5016f	-0.35352656
19	0xbeb033c4	-0.34414494
20	0xbeb7f920	-0.35932255
21	0xbddd9130	-0.10818708
22	0x3dfdc597	0.12391203
23	0x3e47add7	0.19499908
24	0xbea0225d	-0.31276217
25	0x3e196a0b	0.14981858
26	0x3dad8cc0	0.084741116
27	0x3d44f477	0.048084702
28	0x3dc3118b	0.095248304
29	0x3b3139e8	0.0027042571
30	0xbea81b53	-0.32833347
31	0x3d56b1e1	0.052415732
