app/src/main/ml/model_v9.tflite (tflite, 695032 bytes, 14 tensors)

model/dense_1/MatMul f4 [3, 128]
000000 d4 dc 80 be 1b 26 a1 3d d4 ff ab 3d 9a 67 c4 3d
       -0.25168478 0.07868596 0.08398405 0.09590073
000010 4b 50 bc bd 14 3f 1a 3e 6a cd 17 3e 87 58 34 be
       -0.09195002 0.15063125 0.14824453 -0.17611896
000020 17 43 7a 3d c2 ae f8 3d 08 20 3b be 7a da 5a 3e
       0.061099138 0.121427074 -0.18273938 0.21372405
000030 1a d9 8e 3c b5 30 c3 bc 43 53 fd 3d b1 b7 e3 3d
       0.017437506 -0.023826936 0.123693965 0.11119021
000040 c9 1a 81 be 40 dc 2a be 8c 35 85 3e 6d 6c 4a be
       -0.25215748 -0.16685581 0.26017416 -0.19767924
000050 92 65 66 bd ed 0d 9b 3d 55 d4 5d 3d 1a df 31 be
       -0.05624921 0.075710155 0.054157574 -0.17370263
000060 1b 6b 58 be 17 63 3b 3e ba e5 7e bc 70 14 b7 bd
       -0.21134607 0.18299519 -0.015557701 -0.08939445
000070 2a ce b2 bd ec 83 9a bd 4d e9 58 be 09 ec af bd
       -0.08730729 -0.07544693 -0.21182747 -0.08589942
000080 bc b9 0f 3e 50 aa 4f 3d bc 06 1b be 3a 1e 83 3d
       0.14035696 0.050699532 -0.15139288 0.0640225
000090 fc d3 94 bd c4 28 1a be 33 9a 0a be e6 62 9e 3b
       -0.07266995 -0.15054613 -0.13535385 0.004833567
0000a0 e8 6f 58 3d 67 03 2d 3e 34 ed 21 3e 38 99 d2 3c
       0.052841097 0.16895829 0.15813142 0.025707826
0000b0 a0 0d 87 3d 41 f5 68 be fc b5 b4 bc 3e a1 48 be
       0.06594396 -0.22749807 -0.022059433 -0.19592759
0000c0 be a4 a0 bd 37 47 4c 3e c9 43 e9 bd 12 4e 36 be
       -0.07843922 0.19949041 -0.11389882 -0.17803219
0000d0 00 3e 49 bd 26 ba d9 3d d9 e5 8a 3d bf 0f 9b be
       -0.049131393 0.10631208 0.06782121 -0.3028545
0000e0 96 cc 78 3c f0 ab bb bd 78 c0 e4 3c 3f 9b 15 be
       0.015185496 -0.09163654 0.027923808 -0.14610003
0000f0 95 d1 18 be 10 1b 4a 3e ae 9d 81 be cb 31 29 be
       -0.14923699 0.19736886 -0.25315613 -0.16522901
000100 9e 0d 87 bd 3b ce 2a be 11 66 d3 bd 7e ac 52 be
       -0.06594394 -0.16680233 -0.10322202 -0.20573613
000110 68 c2 65 3d 18 89 89 3d d8 46 c7 3c 2d 00 6b be
       0.056093603 0.06715602 0.024325773 -0.22949286
000120 9c b0 94 3d eb 47 1d 3d 7a 2c 69 bc 79 94 cb 3c
       0.07260248 0.038398664 -0.014231795 0.02485107
000130 9b 44 62 3e ac 4d d2 3d 92 f7 ca bd 7b 96 06 3e
       0.22096483 0.10268721 -0.099105015 0.13143341
000140 90 02 f9 bd 24 e4 fd 3d 95 29 7a 3d 87 ff 75 bd
       -0.12158692 0.1239703 0.061074812 -0.060058143
000150 74 41 44 3e ed f1 35 3d 96 71 ad bb 15 74 8a bd
       0.19165593 0.04442017 -0.0052930815 -0.06760422
000160 e4 8b 1f be f3 a1 21 be f6 1a 68 bd 92 b4 cd bd
       -0.15580708 -0.15784435 -0.056666337 -0.10044207
000170 f8 41 40 bd bc 8d 02 3e be eb 22 bd 60 24 5a bd
       -0.046937913 0.1274938 -0.039775603 -0.053257346
000180 88 4d 52 3d bd 25 5a 3d bc 5f ce 3d df c8 83 bd
       0.05134347 0.053258646 0.10076854 -0.064347975
000190 b0 a0 7c be f5 fc 0f be 8d ef a9 bd 53 08 95 bd
       -0.24670672 -0.14061339 -0.08297644 -0.07276978
0001a0 9d 92 02 3d 66 0f 31 bd 0a 08 f6 bb 3b a3 1d be
       0.031878103 -0.043227576 -0.0075082825 -0.15394299
0001b0 c9 d9 a5 3e b1 50 a2 3d d6 58 b1 3d 18 6b e6 3d
       0.3239272 0.07925547 0.08659522 0.11250895
0001c0 fd ae e1 bd 9e 1f 40 be 1e b5 81 bd 6b 22 f0 bd
       -0.110197045 -0.18762061 -0.063333735 -0.11725315
0001d0 43 e7 07 ba f8 ec cf bd 31 65 f5 3c 56 0d 10 be
       -0.0005184302 -0.1015262 0.029955478 -0.14067587
0001e0 0e 8e e1 bc e0 c6 7e 3d 0e 1a 52 bd 67 51 6a 3e
       -0.027533557 0.06220138 -0.05129438 0.22882615
0001f0 e4 9a b8 3b 91 60 23 be 76 14 46 bd c7 30 1b be
       0.005633699 -0.15954806 -0.048359357 -0.15155326
000200 94 f5 10 3d 96 b2 fc 3d af a6 d1 bd f4 63 22 3d
       0.03539045 0.1233875 -0.102368705 0.039646104
000210 3e b0 14 3d 7c 24 38 bd 79 47 6b 3d 70 9c 65 bd
       0.03630089 -0.04495667 0.05744121 -0.056057394
000220 0a c2 10 3e fd 55 dd 3d ea 43 91 3d 7f 4d be 3c
       0.1413652 0.108074166 0.07093032 0.023230312
000230 a5 b2 56 be 2e 81 28 bd e3 02 9e bd a5 63 d8 3d
       -0.20966585 -0.04113882 -0.07715394 0.10565881
000240 2e cd 29 3c d2 a7 37 3e 8d c4 24 3d 9e d1 aa 3d
       0.01036386 0.17935112 0.040226508 0.083407626
000250 cf c5 fc bc 73 ff 40 3d 05 dd 1d 3d 54 55 83 bd
       -0.030856041 0.047118615 0.03854086 -0.064127594
000260 ab 66 db 3d 2e 1e be 3d 17 54 fb bd 8e f7 28 bd
       0.10712942 0.092831 -0.12271898 -0.04125171
000270 1b 5c 72 bd 04 54 c8 3d 81 2f 9f 39 e8 fa 9d 3d
       -0.05916987 0.0978165 0.00030362236 0.07713872
000280 b0 5e 26 be 5f 42 4c 3d bd da ee bd 90 e8 14 3c
       -0.16247058 0.049867984 -0.11662815 0.00908865
000290 b3 2d 42 be dd 10 5a bc 2a 11 e4 3d 69 48 8a bd
       -0.18962745 -0.013309685 0.11136086 -0.067520924
0002a0 37 9e bf 3b 49 c3 0f bd ce a9 00 3d f2 45 3b bd
       0.005847718 -0.035098348 0.03141194 -0.045721002
0002b0 5e 35 86 3d c9 6a e4 3c c8 6d c9 bc d0 82 c4 bd
       0.06553148 0.02788295 -0.02458848 -0.09595263
0002c0 41 3d 4f 3e cc 0e 4a 3e 48 a5 0f 3e 1b b2 2c be
       0.2023821 0.19732207 0.14027894 -0.16864817
0002d0 3d d2 9e bd ef 3d 1e bd 88 b5 fb 3b c0 db d8 bd
       -0.077549435 -0.038633283 0.0076815523 -0.10588789
0002e0 5b 56 de 3c 54 6a 32 3c ba 75 ae bd 69 9f 88 3a
       0.027140787 0.010889608 -0.08518548 0.0010423484
0002f0 f9 55 86 bd 4b f4 91 3d 91 2e 54 bd fd 55 76 bc
       -0.06559367 0.07126673 -0.05180222 -0.01503515
000300 cf 1f 3d 3d 58 66 03 3d f5 c0 50 3e 08 d8 3d 3d
       0.046172913 0.032080024 0.20386107 0.0463486
000310 d8 9e 8f 3d 85 15 2d be a3 81 7e bc 42 f1 08 3c
       0.07012719 -0.1690274 -0.0155338375 0.008358302
000320 11 80 47 3d c0 6a 25 3e c2 f5 16 3c ee 4d e8 bb
       0.048706118 0.16154003 0.009213867 -0.007089368
000330 bf 96 b8 bd b9 50 9e bd 93 8c 32 3d 59 6b b3 3c
       -0.090131275 -0.077302404 0.043591093 0.021901773
000340 3d 39 96 bc 97 54 10 3d c0 33 f7 3d 88 a2 8f bc
       -0.01833784 0.03523692 0.120704174 -0.017533556
000350 fd 63 65 3c 60 5f ae 3d 1e 7e 87 bd fa a9 c7 3b
       0.01400089 0.08514285 -0.06615852 0.006093261
000360 18 c5 20 be af 06 08 be b2 4d e7 3d fe 7f 3c bd
       -0.15700185 -0.132838 0.11294116 -0.0460205
000370 0e 7a f5 3c ea cf d3 bd 74 40 b3 3b 03 b2 23 3c
       0.029965427 -0.10342391 0.00547033 0.009991172
000380 4c 74 86 3d 21 85 c4 3d 6f 8c f4 bb 77 21 a2 3d
       0.065651506 0.09595705 -0.00746303 0.07916539
000390 6d 90 22 3e 9f 2a ad bd 8b 4f 52 3b 91 23 4e bd
       0.15875407 -0.08455395 0.0032090868 -0.050326888
0003a0 79 03 de bd ec 39 4e be 36 53 2d 3e ca 0b c1 bd
       -0.10840506 -0.20139283 0.16926274 -0.09426077
0003b0 f2 55 27 3e ee 0b e5 3c b2 89 64 3e 12 a0 18 3e
       0.1634138 0.02795979 0.22318152 0.14904812
0003c0 d8 48 b1 3d 42 b1 e0 3d d2 e9 e4 3d 56 8a 5c bd
       0.08656472 0.10971309 0.1117741 -0.053842865
0003d0 1f 99 00 3d 3d 9e 95 bb 69 8e e2 3c 10 6a 2e 3d
       0.031396028 -0.0045659826 0.027655797 0.042581618
0003e0 2c bd 71 3d 03 c0 db 3b c0 b5 ac bd 71 5e 73 3c
       0.0590183 0.006706239 -0.084331036 0.01485406
0003f0 d6 cb 75 bd 35 77 bc 3b e4 94 4f bd 11 0e c1 3d
       -0.060008846 0.0057515153 -0.050679103 0.09426511

model/batch_normalization_1/FusedBatchNormV3 f4 [64]
000000 06 7e 77 3e 71 b0 13 3e 31 f6 1f 3e 87 43 fd 3d
       0.24169168 0.14422776 0.15621258 0.123663954
000010 1b 4c 85 3d ec e9 98 3d 3d 1c 85 3e 62 66 db 3d
       0.065086566 0.07466492 0.25998107 0.10712887
000020 6e 0a 12 3e a7 b2 c2 3d 89 9e 73 3e 8e 85 91 3e
       0.14261791 0.095067315 0.23790945 0.28422207
000030 37 3b 39 3e b5 26 0e 3f 29 b6 82 3d 1b 83 36 3f
       0.18088995 0.5552781 0.063824005 0.712938
000040 4b 29 49 3d db 2e 4e 3d eb 00 fb 3d ee 9f 77 3d
       0.049111646 0.050337654 0.122560345 0.060455255
000050 79 38 01 3e 9b 16 41 3f ac f0 21 3e 92 9b 0a 3f
       0.12619199 0.7542512 0.15814465 0.5414363
000060 54 78 9b 3e a5 57 f0 3e 19 fd 53 3d 8d a5 01 3d
       0.3036524 0.46941867 0.051755045 0.031652022
000070 79 b6 39 3e af 88 0d 41 8c 03 e6 3d 77 56 f9 3e
       0.18136014 8.84587 0.11231145 0.4869878
000080 ea 98 21 3e f1 4d 8d 3d 22 6c de 3e 99 ca 58 3f
       0.15780988 0.06899632 0.43441874 0.8468414
000090 6c 16 c7 3e 0f 57 f9 3d cb 94 31 3d 68 4c a9 3d
       0.38884294 0.12174808 0.04335479 0.082665265
0000a0 7e f8 d7 3d 64 15 08 3f 49 45 05 3e 63 af 9a 3d
       0.10545443 0.5315764 0.13014711 0.075529836
0000b0 c6 46 74 3e 3a 53 00 3e 99 32 82 3e 14 e9 e9 3e
       0.23855123 0.12531748 0.25429228 0.45685637
0000c0 cc 0b b8 3d 31 7f 62 3e 1d 06 b6 3e 82 e7 05 3e
       0.08986625 0.22118832 0.3555154 0.13076594
0000d0 eb 84 4e 3e 75 e8 ef 3c 58 67 42 3e 2b ec 02 3f
       0.20167892 0.029285649 0.18984735 0.51141614
0000e0 96 e4 4e 3d 3b 71 bd 3e 12 17 60 3e c3 1a 96 3d
       0.050510965 0.3700045 0.218838 0.07329323
0000f0 b9 c0 5f 3d 05 8f 14 3e 2a 2d 4b 3d d6 f6 ba 3d
       0.054627154 0.14507683 0.04960362 0.091291115

model/batch_normalization_1/FusedBatchNormV31 f4 [64]
000000 a4 82 06 bf a8 15 05 bf 68 1e 39 bf 1e 26 1b bf
       -0.5254309 -0.5198617 -0.7231202 -0.6060504
000010 75 04 b9 bd cd 18 74 be a7 5e 3e bf 2c 5c e4 bd
       -0.09034053 -0.23837586 -0.7436318 -0.11150393
000020 fd 3e fe be 7e 7d b8 be 09 11 07 bf ba 87 ed be
       -0.4965743 -0.36033243 -0.5276037 -0.46392614
000030 a9 91 e3 be 68 1b 67 3b ca ae 61 bd 08 6a e8 be
       -0.44447067 0.0035264138 -0.055098332 -0.45393395
000040 41 7c d1 bd 5b a0 4c bd 38 c5 dc be ce 67 77 be
       -0.10228778 -0.049957614 -0.43119216 -0.24160692
000050 d2 fb 85 be 1d 9a 20 bd 1c df 05 bf 2d e3 d4 bd
       -0.26168686 -0.039209474 -0.5229356 -0.10394893
000060 3a 6d dd bd b5 ee 03 be ac 12 39 be 50 8a b6 bc
       -0.10811849 -0.12884028 -0.18073529 -0.02228275
000070 2b be 30 be 74 d7 02 bd ee 81 9d be 1e 2d d2 bd
       -0.17260043 -0.031943753 -0.3076319 -0.10262512
000080 15 aa 9e be d9 88 e7 be 66 3d a0 bd b1 09 07 be
       -0.30989137 -0.45221594 -0.07824211 -0.1318729
000090 8d e7 49 bf 2d 50 db be 80 a3 67 bd 18 15 9d bd
       -0.78868943 -0.42834607 -0.05655241 -0.07670039
0000a0 d9 26 17 bd e0 e9 49 3c 4e 22 c7 be 48 55 7c be
       -0.036902282 0.012323827 -0.3889336 -0.24641907
0000b0 f7 cb 28 bf 86 94 60 be 28 4e f3 bb 33 46 80 bd
       -0.65936226 -0.21931657 -0.0074250884 -0.062633894
0000c0 28 76 58 bd ee 5d 20 bf ee f0 a0 be 37 0d dd be
       -0.052847058 -0.62643325 -0.31433815 -0.43174145
0000d0 65 86 34 bf b8 43 8a bd db 81 a2 be 18 11 d2 3c
       -0.7051757 -0.067511976 -0.31739697 0.025642917
0000e0 74 6e ec be 94 47 12 bf a9 0c 62 bf 20 23 83 3b
       -0.4617802 -0.5714047 -0.8830057 0.00400199
0000f0 ef 19 ad bd f3 54 d7 be 15 8b 8e bd c2 75 92 be
       -0.08452212 -0.42057 -0.069601215 -0.28605467

model/batch_normalization/FusedBatchNormV3 f4 [32]
000000 4d 51 15 40 41 06 b3 3f e9 df 9c 3f f5 29 e6 3f
       2.3330872 1.3986284 1.2255832 1.7981554
000010 d8 b1 85 3e 28 91 eb 41 66 e7 c6 3f 21 d0 4c 40
       0.26112247 29.445877 1.5539367 3.2002032
000020 81 87 00 42 7c 10 f6 41 5c bf 04 3f 7f 76 25 40
       32.132328 30.758049 0.5185449 2.5853574
000030 39 2b c7 3e bd bd 14 3f 76 28 0a 3f 5d b3 d9 40
       0.38900164 0.5810202 0.5396799 6.803145
000040 23 c5 5b 3e bf 81 57 3e 68 e8 91 3e 93 30 30 3e
       0.2146192 0.21045588 0.28497624 0.1720603
000050 aa b3 b5 3e 32 5f 01 3e a6 ca 45 3e aa 92 b2 41
       0.35488635 0.1263397 0.19315585 22.321613
000060 42 87 e6 41 fa 1b f6 3e d2 69 eb 41 9b bc 06 42
       28.816044 0.4806822 29.42667 33.684185
000070 89 5d e6 41 46 ac 89 41 72 0f 53 40 23 6f a7 3f
       28.795671 17.209118 3.2978177 1.3080791

model/batch_normalization/FusedBatchNormV31 f4 [32]
000000 5c ca 8c be ad d9 e8 be ea 8d 30 bf 8c 4e 16 bf
       -0.27498138 -0.45478573 -0.68966544 -0.58713603
000010 3c 29 c6 be 6b 2e f7 3d 0c 3f 34 be 46 d3 30 be
       -0.38703334 0.120694004 -0.17602175 -0.17268094
000020 53 95 23 be a3 22 b8 bd ea 12 c7 be 42 cc ce be
       -0.15974931 -0.089909814 -0.38881618 -0.4039021
000030 18 8f c1 be 7e 9a db be 2a 65 9f be 4c 4c cd bd
       -0.37804484 -0.42891306 -0.3113187 -0.10024318
000040 0a d3 e8 be 73 f9 b3 be f6 3f a0 be 80 a0 e2 be
       -0.4547351 -0.35151252 -0.31298798 -0.44263077
000050 3e 79 ab be 41 ee b4 be e4 ca cb be 15 b8 0a be
       -0.33490938 -0.35338023 -0.3980323 -0.13546784
000060 8e 3a 69 be c0 b9 d1 be c3 3a c3 bd 24 76 35 bf
       -0.22776243 -0.40962029 -0.09532692 -0.70883393
000070 fb 41 f4 be 1c 8d 97 bd 16 61 08 bf 0e 29 a7 be
       -0.4770659 -0.07399961 -0.5327314 -0.3264851

model/dense/BiasAdd/ReadVariableOp/resource f4 [128]
000000 57 8b 63 be 5c 60 17 be aa 36 9c ba 9c a2 69 be
       -0.22221123 -0.14782852 -0.0011918147 -0.22815937
000010 7d dc 7e bd c0 92 fd bd a1 a1 f1 bd 0e 88 57 be
       -0.062221993 -0.12381506 -0.117984064 -0.21047994
000020 bd f5 73 bd 3b 0b 3b be 85 11 df bd aa 2a fd bd
       -0.059560526 -0.18266003 -0.108920135 -0.12361653
000030 19 73 f8 bd 33 29 d7 bc 01 3e 6f 3c da 25 17 be
       -0.12131328 -0.026264763 0.014602185 -0.14760533
000040 f7 2c 1c be 53 a0 18 be ca fd 31 be 84 f1 63 be
       -0.15251528 -0.14904909 -0.17381969 -0.222601
000050 12 d6 8d bd 8a 22 68 be ac 7d d0 bd 3f fb 96 be
       -0.06925596 -0.22669426 -0.1018022 -0.2948856
000060 95 ee 2b be 1a 6d d4 bd d7 94 da bd 9d c4 eb bc
       -0.1679023 -0.10372372 -0.1067292 -0.028780276
000070 12 b9 30 be ed e6 30 be 4b ab 6f be df fb cd bd
       -0.17258099 -0.17275591 -0.23405187 -0.10057806
000080 34 a5 31 bd a3 71 44 be 08 a8 0e bd c5 b3 23 be
       -0.04337044 -0.19183974 -0.034828216 -0.15986545
000090 69 46 20 be a1 80 51 be 37 e6 66 be 9a 7f 2b be
       -0.1565186 -0.20459224 -0.22548757 -0.16747895
0000a0 75 e9 ad bd 04 b0 0d 3d 67 07 05 be a9 c7 ef bd
       -0.08491794 0.03459169 -0.12991105 -0.11708004
0000b0 6f 49 b1 bd 1a fc df bd 74 56 c2 bd ce fe e9 bd
       -0.086565845 -0.109367564 -0.09489146 -0.11425553
0000c0 06 40 bc be ce 43 b2 bd d6 05 cb bd 10 ab 43 be
       -0.36767596 -0.08704339 -0.099132225 -0.19108224
0000d0 8f 7c 4a be 7b 6b ef bd a8 fa f9 bd 52 98 6e bd
       -0.19774078 -0.11690422 -0.12206012 -0.058250733
0000e0 65 85 58 be 4c 09 17 be d7 e5 10 be d5 e2 02 be
       -0.21144636 -0.1474964 -0.14150177 -0.12781842
0000f0 c8 c8 06 be 17 ec cc bd b2 98 00 be e5 f0 2a be
       -0.1316253 -0.10005968 -0.12558249 -0.16693456
000100 e5 8c 99 be 7f b6 4c be 97 d9 1d be ce 27 b4 bd
       -0.29990306 -0.19991492 -0.15415035 -0.08796655
000110 25 4a 32 be 08 aa 5b be c5 f9 6d bc ac 00 40 be
       -0.17411096 -0.2145158 -0.014524882 -0.18750256
000120 9a f1 dd bd 3c 14 68 be ad b4 bd bd 02 52 d9 bd
       -0.108370975 -0.22663969 -0.09262977 -0.10611345
000130 8e a6 a4 bd e7 ed a4 bd df dc 80 be 59 30 9f bd
       -0.0803958 -0.08053189 -0.2516851 -0.077728935
000140 b4 79 0c be 60 1c 78 be f6 e6 98 be 04 7d 44 be
       -0.13718301 -0.24229574 -0.2986371 -0.19188315
000150 42 c5 93 bd 94 c4 5a bd 72 36 cb bd 5b 58 0f be
       -0.07215358 -0.053410128 -0.09922494 -0.13998549
000160 0a 75 4c be 28 1c 42 be a4 9e 3d be 67 1e 77 bc
       -0.19966522 -0.18956053 -0.18517548 -0.015082932
000170 d2 e3 f6 bd d9 f2 27 bc 2d 0f 4c 3c b5 dc 6a be
       -0.12055172 -0.0102507705 0.01245479 -0.22935756
000180 fa 43 f5 bd d9 4d ae be a0 7c 15 be 30 ef fa bd
       -0.11975856 -0.34043768 -0.14598322 -0.12252653
000190 71 9d b6 be 8b 29 57 be b7 a2 c0 bd 40 ec f3 bd
       -0.35666993 -0.21011941 -0.094060354 -0.119102955
0001a0 2b b1 ea bd 93 35 31 be 2b 2f 4b be 2d fd 05 be
       -0.11459573 -0.17305593 -0.19842212 -0.1308486
0001b0 bd c3 dd bd c4 38 45 be 1a c3 9b be 81 e7 80 be
       -0.1082835 -0.19259936 -0.30422288 -0.25176623
0001c0 e8 61 1e be a0 7e 70 be c9 c4 28 be fd 6a e3 bd
       -0.15467036 -0.23485804 -0.16481318 -0.11104391
0001d0 d0 d6 55 be a4 cd 6c be 14 dd f4 bd d4 3e 70 be
       -0.20882726 -0.2312532 -0.1195623 -0.23461467
0001e0 8f b9 ee bd fd 79 f6 bd 16 4e ec bd 6f 11 d0 bc
       -0.11656486 -0.12034986 -0.11538331 -0.025398938
0001f0 48 85 c1 bd 6c 94 43 be 17 10 1a be 05 68 18 be
       -0.094492495 -0.19099587 -0.150452 -0.1488343

model/dense_1/BiasAdd/ReadVariableOp/resource f4 [3]
000000 d1 5e 27 c0 2c 52 99 3e eb 06 a5 3e
       -2.6151621 0.29945505 0.3223184

model/preprocessing_pcen/stft/hann_window/sub_2 f4 [2048]
000000 00 00 00 00 00 00 1e 36 00 00 1e 37 00 c0 b1 37
       0.0 2.3543835e-06 9.417534e-06 2.1189451e-05
000010 00 e0 1d 38 00 c0 76 38 00 a0 b1 38 00 d0 f1 38
       3.7640333e-05 5.8829784e-05 8.46982e-05 0.000115305185
000020 00 e8 1d 39 00 d8 47 39 00 b8 76 39 00 44 95 39
       0.00015059114 0.00019058585 0.00023528934 0.0002847016
000030 00 a0 b1 39 00 78 d0 39 00 c4 f1 39 00 c4 0a 3a
       0.0003387928 0.00039762259 0.00046113133 0.00052934885
000040 00 e2 1d 3a 00 3a 32 3a 00 d0 47 3a 00 9e 5e 3a
       0.00060227513 0.0006798804 0.0007622242 0.0008492172
000050 00 aa 76 3a 00 f8 87 3a 00 39 95 3a 00 17 a3 3a
       0.0009409487 0.0010373592 0.0011384785 0.0012442768
000060 00 93 b1 3a 00 ac c0 3a 00 63 d0 3a 00 b7 e0 3a
       0.0013547838 0.0014699697 0.0015898645 0.0017144382
000070 00 a8 f1 3a 80 9b 01 3b 80 b1 0a 3b 00 16 14 3b
       0.0018436909 0.0019776523 0.0021162927 0.002259612
000080 80 c9 1d 3b 80 cb 27 3b 80 1b 32 3b 80 ba 3c 3b
       0.0024076402 0.0025603473 0.0027177036 0.0028797686
000090 00 a8 47 3b 00 e4 52 3b 80 6e 5e 3b 00 47 6a 3b
       0.0030465126 0.0032179356 0.0033940375 0.0035747886
0000a0 00 6e 76 3b 00 72 81 3b c0 d3 87 3b 00 5d 8e 3b
       0.0037602186 0.0039503574 0.0041451156 0.0043445826
0000b0 00 0d 95 3b 80 e4 9b 3b 00 e3 a2 3b 80 08 aa 3b
       0.004548669 0.004757464 0.004970908 0.0051890016
0000c0 00 55 b1 3b c0 c8 b8 3b 40 63 c0 3b 00 25 c8 3b
       0.005411744 0.0056391656 0.0058712065 0.0061079264
0000d0 c0 0d d0 3b 80 1d d8 3b 00 54 e0 3b 80 b1 e8 3b
       0.0063492954 0.0065953135 0.006845951 0.007101238
0000e0 00 36 f1 3b 80 e1 f9 3b e0 59 01 3c 60 d6 05 3c
       0.0073611736 0.0076257586 0.007894963 0.008168787
0000f0 60 66 0a 3c c0 09 0f 3c 80 c0 13 3c a0 8a 18 3c
       0.00844726 0.008730352 0.009018064 0.0093103945
000100 40 68 1d 3c 20 59 22 3c 40 5d 27 3c e0 74 2c 3c
       0.009607375 0.009908944 0.010215104 0.010525912
000110 c0 9f 31 3c 00 de 36 3c 80 2f 3c 3c 40 94 41 3c
       0.01084131 0.011161327 0.011485934 0.011815131
000120 60 0c 47 3c a0 97 4c 3c 40 36 52 3c 00 e8 57 3c
       0.0121489465 0.012487322 0.012830317 0.013177872
000130 00 ad 5d 3c 40 85 63 3c a0 70 69 3c 40 6f 6f 3c
       0.013530016 0.01388675 0.014248043 0.014613926
000140 00 81 75 3c e0 a5 7b 3c 00 ef 80 3c 90 14 84 3c
       0.014984369 0.015359372 0.015738964 0.016123086
000150 b0 43 87 3c 60 7c 8a 3c 90 be 8d 3c 50 0a 91 3c
       0.016511768 0.01690501 0.017302781 0.017705113
000160 90 5f 94 3c 50 be 97 3c 90 26 9b 3c 60 98 9e 3c
       0.018111974 0.018523365 0.018939286 0.019359767
000170 a0 13 a2 3c 60 98 a5 3c 90 26 a9 3c 40 be ac 3c
       0.019784749 0.02021426 0.02064827 0.021086812
000180 50 5f b0 3c e0 09 b4 3c e0 bd b7 3c 50 7b bb 3c
       0.021529824 0.021977365 0.022429407 0.022885948
000190 30 42 bf 3c 70 12 c3 3c 10 ec c6 3c 20 cf ca 3c
       0.02334699 0.023812503 0.024282485 0.024756968
0001a0 90 bb ce 3c 50 b1 d2 3c 80 b0 d6 3c 00 b9 da 3c
       0.025235921 0.025719315 0.026207209 0.026699543
0001b0 e0 ca de 3c 10 e6 e2 3c 90 0a e7 3c 60 38 eb 3c
       0.027196348 0.027697593 0.028203279 0.028713405
0001c0 80 6f ef 3c e0 af f3 3c a0 f9 f7 3c 90 4c fc 3c
       0.029227972 0.02974695 0.030270398 0.030798227
0001d0 68 54 00 3d 28 87 02 3d 80 be 04 3d 80 fa 06 3d
       0.031330496 0.031867176 0.032408237 0.03295374
0001e0 10 3b 09 3d 40 80 0b 3d 10 ca 0d 3d 70 18 10 3d
       0.033503592 0.034057856 0.03461653 0.035179555
0001f0 68 6b 12 3d f8 c2 14 3d 18 1f 17 3d c8 7f 19 3d
       0.03574696 0.03631875 0.036894888 0.037475377
000200 10 e5 1b 3d e0 4e 1e 3d 40 bd 20 3d 30 30 23 3d
       0.038060248 0.03864944 0.039242983 0.039840877
000210 a0 a7 25 3d a8 23 28 3d 30 a4 2a 3d 38 29 2d 3d
       0.040443063 0.04104963 0.041660488 0.042275637
000220 d0 b2 2f 3d e0 40 32 3d 78 d3 34 3d 90 6a 37 3d
       0.04289514 0.0435189 0.044146985 0.04477936
000230 20 06 3a 3d 30 a6 3c 3d c0 4a 3f 3d c8 f3 41 3d
       0.045415998 0.046056926 0.046702147 0.04735163
000240 40 a1 44 3d 38 53 47 3d a0 09 4a 3d 78 c4 4c 3d
       0.048005342 0.048663348 0.049325585 0.049992055
000250 c0 83 4f 3d 80 47 52 3d a8 0f 55 3d 38 dc 57 3d
       0.050662756 0.05133772 0.052016884 0.05270025
000260 38 ad 5a 3d a0 82 5d 3d 68 5c 60 3d a0 3a 63 3d
       0.05338785 0.05407965 0.054775625 0.05547583
000270 30 1d 66 3d 28 04 69 3d 80 ef 6b 3d 38 df 6e 3d
       0.05618018 0.05688873 0.057601452 0.058318347
000280 48 d3 71 3d b0 cb 74 3d 70 c8 77 3d 88 c9 7a 3d
       0.059039384 0.059764564 0.060493886 0.06122735
000290 f8 ce 7d 3d 5c 6c 80 3d 64 f3 81 3d 94 7c 83 3d
       0.06196496 0.06270668 0.06345251 0.06420246
0002a0 ec 07 85 3d 68 95 86 3d 08 25 88 3d cc b6 89 3d
       0.064956516 0.06571466 0.06647688 0.06724319
0002b0 b4 4a 8b 3d bc e0 8c 3d e8 78 8e 3d 30 13 90 3d
       0.06801358 0.06878802 0.06956655 0.0703491
0002c0 98 af 91 3d 1c 4e 93 3d c0 ee 94 3d 80 91 96 3d
       0.0711357 0.071926326 0.072721004 0.07351971
0002d0 58 36 98 3d 4c dd 99 3d 58 86 9b 3d 7c 31 9d 3d
       0.0743224 0.07512912 0.075939834 0.07675454
0002e0 b4 de 9e 3d 04 8e a0 3d 68 3f a2 3d e4 f2 a3 3d
       0.07757321 0.07839587 0.0792225 0.08005312
0002f0 70 a8 a5 3d 08 60 a7 3d b8 19 a9 3d 70 d5 aa 3d
       0.080887675 0.081726134 0.082568586 0.08341491
000300 3c 93 ac 3d 14 53 ae 3d f8 14 b0 3d e8 d8 b1 3d
       0.0842652 0.0851194 0.085977495 0.0868395
000310 e0 9e b3 3d e0 66 b5 3d e8 30 b7 3d f8 fc b8 3d
       0.087705374 0.088575125 0.08944875 0.09032625
000320 0c cb ba 3d 28 9b bc 3d 44 6d be 3d 64 41 c0 3d
       0.09120759 0.09209281 0.092981845 0.09387472
000330 84 17 c2 3d a4 ef c3 3d c0 c9 c5 3d e0 a5 c7 3d
       0.094771415 0.09567192 0.096576214 0.09748435
000340 f8 83 c9 3d 0c 64 cb 3d 1c 46 cd 3d 24 2a cf 3d
       0.09839624 0.09931192 0.10023138 0.101154596
000350 20 10 d1 3d 18 f8 d2 3d 04 e2 d4 3d e4 cd d6 3d
       0.10208154 0.103012264 0.103946716 0.10488489
000360 b8 bb d8 3d 7c ab da 3d 30 9d dc 3d d8 90 de 3d
       0.105826795 0.10677239 0.10772169 0.108674705
000370 6c 86 e0 3d f0 7d e2 3d 5c 77 e4 3d b4 72 e6 3d
       0.10963139 0.11059177 0.111555785 0.11252347
000380 f4 6f e8 3d 1c 6f ea 3d 2c 70 ec 3d 24 73 ee 3d
       0.11349478 0.11446974 0.115448326 0.11643055
000390 00 78 f0 3d c0 7e f2 3d 60 87 f4 3d e0 91 f6 3d
       0.11741638 0.11840582 0.11939883 0.12039542
0003a0 40 9e f8 3d 7c ac fa 3d 98 bc fc 3d 94 ce fe 3d
       0.12139559 0.1223993 0.12340659 0.124417454
0003b0 32 71 00 3e 08 7c 01 3e ca 87 02 3e 76 94 03 3e
       0.1254318 0.1264497 0.12747112 0.12849602
0003c0 0e a2 04 3e 90 b0 05 3e fc bf 06 3e 50 d0 07 3e
       0.12952444 0.13055634 0.13159174 0.13263059
0003d0 8a e1 08 3e ae f3 09 3e b8 06 0b 3e a8 1a 0c 3e
       0.13367286 0.13471863 0.13576782 0.13682044
0003e0 7c 2f 0d 3e 38 45 0e 3e d4 5b 0f 3e 58 73 10 3e
       0.13787645 0.13893592 0.13999873 0.141065
0003f0 bc 8b 11 3e 00 a5 12 3e 28 bf 13 3e 32 da 14 3e
       0.1421346 0.14320755 0.14428389 0.1453636

model/conv2d/BiasAdd/ReadVariableOp/resource f4 [32]
000000 c8 03 c2 be cf d8 d3 be 77 e3 9a 3d 52 03 b7 bc
       -0.3789351 -0.4137635 0.07562917 -0.02234045
000010 4d 5b 70 be eb cd 48 bd 35 9c 62 be 98 02 c4 bd
       -0.23472328 -0.049024504 -0.22129901 -0.09570807
000020 e4 76 3a be f6 ee 8b bd e4 60 a0 be 14 2d 33 be
       -0.18209416 -0.068326876 -0.31323922 -0.17497665
000030 c1 39 80 be 88 f4 7b be 07 77 be be 06 2e a7 be
       -0.25044063 -0.24605 -0.37200186 -0.326523
000040 74 c8 5d 3d 36 23 d4 be 06 f1 d4 3c 51 04 9f ba
       0.054146245 -0.41433114 0.025993835 -0.0012132024
000050 9e 55 da be 9b 23 cc 3a 39 1a e1 3b a2 bc b8 bd
       -0.42643446 0.0015574576 0.006869581 -0.09020354
000060 c6 d6 15 be b8 69 85 3d c6 b0 37 bd d5 ff 74 bd
       -0.14632711 0.06514305 -0.04484632 -0.059814293
000070 f4 35 be bd 88 5e 88 3e 7f e3 38 3c 3a 76 c7 be
       -0.092876345 0.26634622 0.011284708 -0.38957387

model/conv2d_1/BiasAdd/ReadVariableOp/resource f4 [64]
000000 93 c4 f0 3d 85 f0 e8 3d 5e f5 11 3e 1b 95 55 3e
       0.117562436 0.113740005 0.14253756 0.2085766
000010 0f 15 01 be 7d 2a 05 3d 32 0f c9 3d 67 42 81 be
       -0.1260569 0.032511223 0.098173514 -0.25245973
000020 84 ce 1e 3c c2 53 1d 3d 5d 67 23 bd 0f 40 a1 3d
       0.009692792 0.038409956 -0.039893497 0.07873546
000030 02 d7 21 3e 7e 84 6f be 2a a3 46 bc 61 26 f1 bd
       0.15804675 -0.23390386 -0.012123862 -0.11774898
000040 d5 c4 5f bd 1d 88 3d be 8f 75 06 3e fc a1 92 3d
       -0.054631073 -0.18508954 0.13130783 0.07159802
000050 b4 4b 67 3d 23 31 76 bf 5f 46 87 3e f3 ba 36 bd
       0.05646868 -0.96168727 0.26420876 -0.044611882
000060 84 e0 17 be f2 54 5f be ad 40 1a 3d ae 96 a9 3d
       -0.1483174 -0.21809748 0.037659336 0.08280693
000070 e1 0a 95 bd d5 9d ac be b7 34 42 3e 8f bd 8d be
       -0.072774656 -0.33714166 0.18965422 -0.27683684
000080 82 0a 41 3d 5e ae 89 3e 31 be 3a be ad 09 4d be
       0.04712916 0.26890844 -0.18236615 -0.20023222
000090 37 5a 00 3c ec 85 21 3e 7c cc 7c bd 2f 47 82 bd
       0.007834009 0.15773743 -0.06171845 -0.063612334
0000a0 f7 68 fa bd 8c 4a 6f be 6d 59 73 3e a4 9e 32 3e
       -0.12227052 -0.23368281 0.23764582 0.17443329
0000b0 03 c1 71 3d ae ef 14 3e 98 c5 7c be 28 bd 1a be
       0.05902196 0.14544556 -0.24684751 -0.1511122
0000c0 6b f5 89 bd e8 61 43 3e 24 7b 31 3d b7 de f6 3d
       -0.06736263 0.19080317 0.043330327 0.12054198
0000d0 9f df 85 bd 83 a3 cd bb 8f cd 01 3e 7a 91 a7 be
       -0.06536793 -0.0062755956 0.1267607 -0.32728177
0000e0 27 3f 92 3d d5 72 11 be a0 56 17 3e 1c b6 a6 be
       0.071409516 -0.14203961 0.14779139 -0.32560813
0000f0 a8 0d b3 bd c6 ef b4 3d 05 1f 79 bd 24 ae 5f 3e
       -0.08742839 0.08834796 -0.0608206 0.21843773

model/conv2d/Conv2D f4 [32, 3, 3, 1]
000000 dd d5 80 be 64 fc 10 bf 82 a2 aa be 37 be 0d 3f
       -0.25163165 -0.5663512 -0.3332711 0.5536837
000010 a1 ba de 3e 78 bd 26 bc 1f b5 06 be 3b 82 0b 3c
       0.43501762 -0.010177009 -0.1315503 0.008514936
000020 1d 85 2d be d4 9d 8e 3c 4e 9b 9b 3e ca 92 3e 3e
       -0.1694531 0.017409243 0.30391926 0.18610683
000030 37 e9 5d be 40 72 b0 bd 10 f2 0f 3e 80 0e f9 be
       -0.21670996 -0.086155415 0.14057183 -0.48643875
000040 d8 3b c2 3c 04 c3 8d 3d e1 0c 63 3e e6 14 44 3d
       0.023710176 0.06921962 0.22172882 0.047871493
000050 d1 a4 c6 be 93 23 79 3e a3 73 5b 3d d2 fa 86 be
       -0.3879762 0.24329977 0.053577077 -0.26363236
000060 ea d3 43 3d c4 fd 84 3e 76 8d bb bd 02 ce 49 be
       0.04780952 0.25974858 -0.09157841 -0.19707492
000070 6a 11 6f 3e dc f5 9c 3e a0 1e 4d 3d 7f b1 18 3e
       0.23346487 0.30656326 0.050078034 0.1491146
000080 2f 70 04 be 58 1e 91 3e 5a 1e 90 be 19 98 d4 be
       -0.1293342 0.28343463 -0.28148156 -0.4152229
000090 3e 2e 0c 3d 42 2d 81 3e 06 b8 23 3d 8d 2a 43 bd
       0.034223787 0.2522984 0.03997042 -0.047648
0000a0 c3 bb a1 3e b6 0b 46 3d 5a f5 1d be 61 a3 d7 3d
       0.31588563 0.048351012 -0.15425625 0.10529209
0000b0 9d 14 1e 3d 1e c4 89 bd 85 4f ed bd 7d 76 be bc
       0.038593877 -0.067268595 -0.11587433 -0.023249859
0000c0 cc 08 e5 bd fa 59 b3 3a 41 47 11 be fb be 2e be
       -0.111833185 0.0013683431 -0.14187337 -0.17065041
0000d0 91 2b 96 3d 33 99 f3 bd 0e a4 2f be 21 d5 5d be
       0.073325284 -0.11894455 -0.17152426 -0.21663333
0000e0 6c 1a fb 3d ad e3 41 be fb 15 f6 3c 40 e3 af 3e
       0.12260899 -0.18934508 0.030039778 0.34353065
0000f0 ea e3 88 bd e9 32 16 be 1a f6 92 3e e2 0f 8c be
       -0.06684096 -0.14667858 0.28703386 -0.27355868
000100 13 f5 48 be a7 e8 58 be e0 58 f9 3c a2 ab e4 3d
       -0.19624738 -0.211825 0.030437887 0.11165549
000110 10 df 0f bf e2 29 cd 3e 25 6d 52 3e c5 6c cf be
       -0.5619974 0.40071017 0.20549448 -0.40512672
000120 a0 02 3a be 66 b5 3a be d6 23 0f be c6 fb 93 bb
       -0.18165064 -0.1823326 -0.13978514 -0.0045160977
000130 5c aa 4f 3c 86 ef 04 be 8b b0 11 be 3b e1 a8 bd
       0.012674894 -0.12981996 -0.14227502 -0.08246084
000140 d8 c5 cc 3c 14 d1 03 be a8 c4 c2 bd 08 7e 4b be
       0.024996683 -0.12872726 -0.095101655 -0.19872296
000150 af e8 35 be 35 ab 98 be 0a 95 05 bd 5a d6 6e bd
       -0.17764543 -0.2981812 -0.032612838 -0.05830989
000160 b0 08 9e 3c 3f 4d 17 bd 8e 6f 8c 3c 0e 60 4a 3e
       0.019291252 -0.036938902 0.017143037 0.19763204
000170 db 8e 9e bd 44 dd 96 bb 4b 74 76 3e c4 b4 8a be
       -0.07742091 -0.0046040136 0.240678 -0.27091038
000180 63 d7 1e bb e7 bd 36 3e d1 15 02 bc e8 ba 13 3e
       -0.0024237267 0.1784588 -0.007939772 0.14426768
000190 0a 24 d0 3e 00 ea 64 be c3 85 09 3f c9 6a 1a bd
       0.40652496 -0.22354889 0.5371973 -0.037699495
0001a0 dd 4d 65 be 18 ac f3 3c 74 99 f6 be 70 a9 92 be
       -0.22392984 0.029745147 -0.4816395 -0.28644896
0001b0 d5 c4 17 3d ee 84 50 3d be fe e6 3d c8 dc 91 bd
       0.037052948 0.05090802 0.11279057 -0.07122189
0001c0 e5 9e 9f 3d 9c 1b 08 3d ec 9c 6a bd a6 c5 28 3e
       0.077939786 0.033229455 -0.05727856 0.16481647
0001d0 df c0 07 3e 0f f1 8f 3d 14 e5 a5 bd fb 0b d0 be
       0.13257168 0.070284 -0.08100334 -0.4063414
0001e0 81 f5 f8 3e f6 fc 00 3e 62 aa ac be aa 4a 31 3e
       0.48624805 0.12596497 -0.33723742 0.17313638
0001f0 32 60 5d 3e 98 21 8d bd 07 20 93 bd 2a 22 c9 bd
       0.21618727 -0.06891173 -0.07183843 -0.098209694
000200 e9 db 0a 3e 56 09 33 be 86 ea ad 3d 5e bf f4 3e
       0.13560452 -0.1748403 0.084919974 0.47802252
000210 38 f7 81 be e7 6d e2 bd 98 c1 03 3e b8 20 a7 be
       -0.25383925 -0.110561185 0.12866819 -0.3264215
000220 3e 73 76 3e 36 88 a0 3d 11 59 fb be c3 4d 16 3e
       0.24067399 0.0783848 -0.4909139 0.14678101
000230 a1 8c b0 bd 93 b7 e8 be 1f 6b 5c 3e c5 ac e7 3c
       -0.08620573 -0.45452556 0.21525238 0.028280625
000240 5d 11 d7 3b 47 99 77 3d 13 60 d5 3d 61 e2 38 3e
       0.006563349 0.06044891 0.10418715 0.18055107
000250 82 a6 30 3e bc 48 81 3d f7 c2 97 bd 1f 3a b2 bd
       0.17251018 0.06312701 -0.074102335 -0.08702492
000260 53 8d 4f 3e 8e 01 0c 3e a9 55 27 3e 0f fc 1d 3e
       0.20268755 0.13672468 0.1634127 0.15428184
000270 2a 72 3a 3e 79 f8 c2 3c 72 e3 d6 3d f5 b8 38 3e
       0.18207613 0.023800122 0.104926005 0.18039306
000280 62 3d ab bd 46 7c 95 3c 31 cd a2 bd 93 09 a0 bc
       -0.08361317 0.018247735 -0.079492934 -0.019535815
000290 e3 84 7f bd 8c 4a 94 3e 23 59 e8 3e 89 51 56 be
       -0.06238259 0.28963125 0.45380506 -0.2092954
0002a0 cd 4d 1e 3d 94 11 75 3e 0b 5f 82 be d1 84 63 bd
       0.038648415 0.23932487 -0.25463137 -0.055546585
0002b0 a0 4b c3 bd 9a 82 ca bd 77 65 b3 3e 78 18 a8 3e
       -0.09535909 -0.098881915 0.3503835 0.32831168
0002c0 f6 a8 8e 3e 7f 6f e2 bc 4a 67 c8 3a 52 d8 16 3e
       0.27863282 -0.027641056 0.0015289572 0.14730957
0002d0 81 c9 77 3c 32 1b 1d 3e 4e 52 2a be 69 ea 8c 3e
       0.015123726 0.15342405 -0.16632959 0.2752259
0002e0 ae e4 5a 3e 8c 36 9e be 10 d4 2b 3d 54 c8 84 bc
       0.21376297 -0.3090099 0.041950285 -0.016208805
0002f0 9e d5 96 bc cd b3 7f 3c 52 c9 87 3e df fc 4f bc
       -0.018412407 0.015606833 0.26520783 -0.0126945665
000300 15 cc f1 3d 57 b7 73 3c 12 c5 6b 3d 0e b5 3c 3d
       0.11806504 0.014875255 0.057560988 0.046071105
000310 79 ad 4f 3e b2 83 43 3e 79 a2 44 be 56 64 a6 be
       0.20281018 0.19093207 -0.19202603 -0.32498425
000320 ed e5 2f be 4e b6 c9 3e 41 62 93 3e 3e 36 72 bd
       -0.17177553 0.393969 0.287859 -0.05913376
000330 39 ba 60 3e b0 01 e6 3e 67 7a 0b bd 9c 0f bc bd
       0.21946038 0.44923162 -0.03405228 -0.09182665
000340 f2 1d 2f bc 5b f1 ad be ef d6 b3 bd ba 4e 94 bd
       -0.010688292 -0.33973202 -0.0878123 -0.072415784
000350 07 5e 80 be ce 90 05 be 16 cc 77 bd 16 ba 4b be
       -0.25071737 -0.1304352 -0.060497366 -0.19895205
000360 63 2f fd bd 53 1e 89 bc 1d bf 2f be df a0 1b be
       -0.12362554 -0.016738093 -0.17162748 -0.15198086
000370 b1 06 71 3c d0 82 81 be 1e 81 8b 3d a9 be 2d be
       0.014711068 -0.25295115 0.068117365 -0.16967262
000380 88 26 3b bd b0 9d d9 bd 85 0f c4 bc fa b9 3a 3e
       -0.045691043 -0.1062578 -0.023933182 0.18235007
000390 10 e6 3c 3c e3 17 53 3e fe 7c 4f bd 07 88 d6 bc
       0.011529461 0.20614581 -0.05065631 -0.02618791
0003a0 89 ee 50 3e f4 7a 12 3d 80 b2 4f 3d 58 1d 2d be
       0.20403494 0.03576179 0.05070734 -0.16905725
0003b0 70 bf 46 be e5 c1 e7 bd ae e0 12 3c fb f8 d0 bd
       -0.19408965 -0.11316279 0.008964701 -0.10203739
0003c0 c6 d6 e9 bd ae b6 2d bd 30 4e 49 be ce f9 76 bd
       -0.11417918 -0.042410545 -0.19658732 -0.060296826
0003d0 13 06 1f be 2b 5f 16 be 37 a3 3a 3b 94 39 b7 3b
       -0.15529661 -0.14684741 0.0028478631 0.0055915806
0003e0 d3 20 9f bd 43 ad 1c bd f1 b2 e2 bd 8a 73 c1 bd
       -0.077699326 -0.038251173 -0.110692866 -0.094458655
0003f0 39 bb be 3c d7 d4 60 be 33 36 96 bd 4a 91 0a be
       0.023282634 -0.21956192 -0.073345564 -0.13531986

model/conv2d_1/Conv2D i1 [64, 3, 3, 32]
000000 cc d6 2e 28 0b e9 15 15 e6 08 15 46 20 04 fa e8
       -52 -42 46 40 11 -23 21 21 -26 8 21 70 32 4 -6 -24
000010 3b 08 3e 1e 2e 03 0c 19 08 1c 05 56 46 81 df 0b
       59 8 62 30 46 3 12 25 8 28 5 86 70 -127 -33 11
000020 b3 e2 0d cf f7 bd fe 05 e5 eb 01 32 f1 fa dd c7
       -77 -30 13 -49 -9 -67 -2 5 -27 -21 1 50 -15 -6 -35 -57
000030 00 f3 1d 0c 03 1a d3 12 fb fb 11 6d 34 c4 93 d9
       0 -13 29 12 3 26 -45 18 -5 -5 17 109 52 -60 -109 -39
000040 ed d9 03 ce f9 bf 2c 28 e9 ed f7 ae fe 1f f6 00
       -19 -39 3 -50 -7 -65 44 40 -23 -19 -9 -82 -2 31 -10 0
000050 03 0b 09 06 15 06 f4 0b eb 07 fa 47 1c ed c3 1c
       3 11 9 6 21 6 -12 11 -21 7 -6 71 28 -19 -61 28
000060 9c d1 06 d1 fb 1a a4 09 e7 d9 f9 48 ce d7 cd a7
       -100 -47 6 -47 -5 26 -92 9 -25 -39 -7 72 -50 -41 -51 -89
000070 de f3 f4 d6 07 e4 c7 05 f0 e7 15 08 d7 d6 d0 b6
       -34 -13 -12 -42 7 -28 -57 5 -16 -25 21 8 -41 -42 -48 -74
000080 b5 b9 f2 b7 e9 06 bf c6 ea ef df b6 d2 c5 ee d2
       -75 -71 -14 -73 -23 6 -65 -58 -22 -17 -33 -74 -46 -59 -18 -46
000090 f3 d6 e6 de e0 ee ba d8 e2 b9 08 fd 14 04 a3 d7
       -13 -42 -26 -34 -32 -18 -70 -40 -30 -71 8 -3 20 4 -93 -41
0000a0 c4 e3 e1 00 e2 09 fb cc d2 e8 ed c8 0b ff ed a5
       -60 -29 -31 0 -30 9 -5 -52 -46 -24 -19 -56 11 -1 -19 -91
0000b0 f4 fb f2 d1 ee fc eb e6 f7 fa ef d8 eb 19 d6 e5
       -12 -5 -14 -47 -18 -4 -21 -26 -9 -6 -17 -40 -21 25 -42 -27
0000c0 c3 b8 01 ef f3 28 e6 d7 d7 da ec 02 ed f0 dd b2
       -61 -72 1 -17 -13 40 -26 -41 -41 -38 -20 2 -19 -16 -35 -78
0000d0 e9 e0 ed e9 e6 fc e8 cf 06 f4 f7 26 08 18 de e1
       -23 -32 -19 -23 -26 -4 -24 -49 6 -12 -9 38 8 24 -34 -31
0000e0 de ed 0c ed e3 05 13 d4 d6 f0 12 bf f5 fa f9 f1
       -34 -19 12 -19 -29 5 19 -44 -42 -16 18 -65 -11 -6 -7 -15
0000f0 f8 e0 f4 dc d0 ec f5 eb f7 ec 05 33 e0 1c e9 e4
       -8 -32 -12 -36 -48 -20 -11 -21 -9 -20 5 51 -32 28 -23 -28

model/dense/MatMul i1 [128, 4480] scale=0.011670495 zero_point=0
000000 09 0b f3 ff 00 08 f0 fe 04 00 04 ff fc f7 fb f5
       0.105034456 0.12837546 -0.15171644 -0.011670495 0.0 0.09336396 -0.18672793 -0.02334099 0.04668198 0.0 0.04668198 -0.011670495 -0.04668198 -0.105034456 -0.058352478 -0.12837546
000010 ff f7 03 02 1a fb 03 02 fa fa 02 04 fb ff 04 f4
       -0.011670495 -0.105034456 0.035011485 0.02334099 0.30343288 -0.058352478 0.035011485 0.02334099 -0.07002297 -0.07002297 0.02334099 0.04668198 -0.058352478 -0.011670495 0.04668198 -0.14004594
000020 01 0c 04 fd f6 0d fd ff fa f6 04 0c fd 04 ff fd
       0.011670495 0.14004594 0.04668198 -0.035011485 -0.116704956 0.15171644 -0.035011485 -0.011670495 -0.07002297 -0.116704956 0.04668198 0.14004594 -0.035011485 0.04668198 -0.011670495 -0.035011485
000030 fe 04 08 0c 05 ff fe f8 fd 01 fd fd f8 fd f9 fd
       -0.02334099 0.04668198 0.09336396 0.14004594 0.058352478 -0.011670495 -0.02334099 -0.09336396 -0.035011485 0.011670495 -0.035011485 -0.035011485 -0.09336396 -0.035011485 -0.08169347 -0.035011485
000040 02 0a f6 00 fe 0c f6 fb 06 f6 f6 02 f4 fb fc fe
       0.02334099 0.116704956 -0.116704956 0.0 -0.02334099 0.14004594 -0.116704956 -0.058352478 0.07002297 -0.116704956 -0.116704956 0.02334099 -0.14004594 -0.058352478 -0.04668198 -0.02334099
000050 fa fb 04 02 08 05 0a f7 fb ff 03 ff f5 03 02 f7
       -0.07002297 -0.058352478 0.04668198 0.02334099 0.09336396 0.058352478 0.116704956 -0.105034456 -0.058352478 -0.011670495 0.035011485 -0.011670495 -0.12837546 0.035011485 0.02334099 -0.105034456
000060 02 03 12 01 00 09 f4 ff fa 03 ff 01 07 fe fb fe
       0.02334099 0.035011485 0.21006891 0.011670495 0.0 0.105034456 -0.14004594 -0.011670495 -0.07002297 0.035011485 -0.011670495 0.011670495 0.08169347 -0.02334099 -0.058352478 -0.02334099
000070 fd 03 10 ff f7 ff 0b fb ff fe fd fb f7 f6 fb f8
       -0.035011485 0.035011485 0.18672793 -0.011670495 -0.105034456 -0.011670495 0.12837546 -0.058352478 -0.011670495 -0.02334099 -0.035011485 -0.058352478 -0.105034456 -0.116704956 -0.058352478 -0.09336396
000080 fd 07 f5 fb f9 08 0d fe 02 fd 01 f0 fe f5 fc ff
       -0.035011485 0.08169347 -0.12837546 -0.058352478 -0.08169347 0.09336396 0.15171644 -0.02334099 0.02334099 -0.035011485 0.011670495 -0.18672793 -0.02334099 -0.12837546 -0.04668198 -0.011670495
000090 03 fc 06 06 18 01 ee ff fc f5 fb fb f3 ff fa f2
       0.035011485 -0.04668198 0.07002297 0.07002297 0.28009188 0.011670495 -0.21006891 -0.011670495 -0.04668198 -0.12837546 -0.058352478 -0.058352478 -0.15171644 -0.011670495 -0.07002297 -0.16338694
0000a0 f7 f7 01 fb fc 03 ff fa fd ee ff 02 05 05 f2 fb
       -0.105034456 -0.105034456 0.011670495 -0.058352478 -0.04668198 0.035011485 -0.011670495 -0.07002297 -0.035011485 -0.21006891 -0.011670495 0.02334099 0.058352478 0.058352478 -0.16338694 -0.058352478
0000b0 fc 09 ed f4 05 00 0a fb fa 09 f9 f7 f7 00 fc fe
       -0.04668198 0.105034456 -0.22173941 -0.14004594 0.058352478 0.0 0.116704956 -0.058352478 -0.07002297 0.105034456 -0.08169347 -0.105034456 -0.105034456 0.0 -0.04668198 -0.02334099
0000c0 fc 02 09 fa fd fc 21 04 05 0c fb fe 06 04 02 03
       -0.04668198 0.02334099 0.105034456 -0.07002297 -0.035011485 -0.04668198 0.38512635 0.04668198 0.058352478 0.14004594 -0.058352478 -0.02334099 0.07002297 0.04668198 0.02334099 0.035011485
0000d0 07 07 00 ff 08 06 01 f4 fa 0b 01 fc ff fa fc 07
       0.08169347 0.08169347 0.0 -0.011670495 0.09336396 0.07002297 0.011670495 -0.14004594 -0.07002297 0.12837546 0.011670495 -0.04668198 -0.011670495 -0.07002297 -0.04668198 0.08169347
0000e0 fa fd 07 fa 14 fb fa ff 04 22 fb 02 00 fa f3 fb
       -0.07002297 -0.035011485 0.08169347 -0.07002297 0.23340991 -0.058352478 -0.07002297 -0.011670495 0.04668198 0.39679685 -0.058352478 0.02334099 0.0 -0.07002297 -0.15171644 -0.058352478
0000f0 fb ff 05 01 0a f6 fd 00 06 09 08 f8 f9 f7 03 01
       -0.058352478 -0.011670495 0.058352478 0.011670495 0.116704956 -0.116704956 -0.035011485 0.0 0.07002297 0.105034456 0.09336396 -0.09336396 -0.08169347 -0.105034456 0.035011485 0.011670495

model/preprocessing_pcen/Tensordot/MatMul1 i1 [40, 1025] scale=0.00787113 zero_point=0
000000 00 17 2e 44 5a 70 78 63 4d 38 23 0f 00 00 00 00
       0.0 0.18103598 0.36207196 0.53523684 0.7084017 0.8815665 0.94453555 0.7792418 0.60607696 0.44078326 0.27548954 0.118066944 0.0 0.0 0.0 0.0
000010 00 00 00 00 00 00 00 00 00 00 00 00 00 00 00 00
       0.0 0.0 0.0 0.0 0.0 0.0 0.0 0.0 0.0 0.0 0.0 0.0 0.0 0.0 0.0 0.0
000020 00 00 00 00 00 00 00 00 00 00 00 00 00 00 00 00
       0.0 0.0 0.0 0.0 0.0 0.0 0.0 0.0 0.0 0.0 0.0 0.0 0.0 0.0 0.0 0.0
000030 00 00 00 00 00 00 00 00 00 00 00 00 00 00 00 00
       0.0 0.0 0.0 0.0 0.0 0.0 0.0 0.0 0.0 0.0 0.0 0.0 0.0 0.0 0.0 0.0
000040 00 00 00 00 00 00 00 00 00 00 00 00 00 00 00 00
       0.0 0.0 0.0 0.0 0.0 0.0 0.0 0.0 0.0 0.0 0.0 0.0 0.0 0.0 0.0 0.0
000050 00 00 00 00 00 00 00 00 00 00 00 00 00 00 00 00
       0.0 0.0 0.0 0.0 0.0 0.0 0.0 0.0 0.0 0.0 0.0 0.0 0.0 0.0 0.0 0.0
000060 00 00 00 00 00 00 00 00 00 00 00 00 00 00 00 00
       0.0 0.0 0.0 0.0 0.0 0.0 0.0 0.0 0.0 0.0 0.0 0.0 0.0 0.0 0.0 0.0
000070 00 00 00 00 00 00 00 00 00 00 00 00 00 00 00 00
       0.0 0.0 0.0 0.0 0.0 0.0 0.0 0.0 0.0 0.0 0.0 0.0 0.0 0.0 0.0 0.0
000080 00 00 00 00 00 00 00 00 00 00 00 00 00 00 00 00
       0.0 0.0 0.0 0.0 0.0 0.0 0.0 0.0 0.0 0.0 0.0 0.0 0.0 0.0 0.0 0.0
000090 00 00 00 00 00 00 00 00 00 00 00 00 00 00 00 00
       0.0 0.0 0.0 0.0 0.0 0.0 0.0 0.0 0.0 0.0 0.0 0.0 0.0 0.0 0.0 0.0
0000a0 00 00 00 00 00 00 00 00 00 00 00 00 00 00 00 00
       0.0 0.0 0.0 0.0 0.0 0.0 0.0 0.0 0.0 0.0 0.0 0.0 0.0 0.0 0.0 0.0
0000b0 00 00 00 00 00 00 00 00 00 00 00 00 00 00 00 00
       0.0 0.0 0.0 0.0 0.0 0.0 0.0 0.0 0.0 0.0 0.0 0.0 0.0 0.0 0.0 0.0
0000c0 00 00 00 00 00 00 00 00 00 00 00 00 00 00 00 00
       0.0 0.0 0.0 0.0 0.0 0.0 0.0 0.0 0.0 0.0 0.0 0.0 0.0 0.0 0.0 0.0
0000d0 00 00 00 00 00 00 00 00 00 00 00 00 00 00 00 00
       0.0 0.0 0.0 0.0 0.0 0.0 0.0 0.0 0.0 0.0 0.0 0.0 0.0 0.0 0.0 0.0
0000e0 00 00 00 00 00 00 00 00 00 00 00 00 00 00 00 00
       0.0 0.0 0.0 0.0 0.0 0.0 0.0 0.0 0.0 0.0 0.0 0.0 0.0 0.0 0.0 0.0
0000f0 00 00 00 00 00 00 00 00 00 00 00 00 00 00 00 00
       0.0 0.0 0.0 0.0 0.0 0.0 0.0 0.0 0.0 0.0 0.0 0.0 0.0 0.0 0.0 0.0
