app/src/main/ml/model_v11.tflite (tflite, 578208 bytes, 18 tensors)

model/dense_1/MatMul f4 [2, 256]
0.14872043 0.06387783 0.013209203 -0.056101736 -0.101150915 -0.0034824738 -0.0878887 0.0674013
-0.1755132 -0.02249844 0.1702097 -0.10055556 0.075193815 -0.026357044 -0.071453355 0.01346387
0.09556858 0.11806871 -0.017698381 0.039366294 -0.04654291 -0.020406615 -0.16546069 0.07882808
-0.11498097 -0.12543218 -0.15515633 -0.036074933 -0.012770525 0.06347476 -0.010069038 -0.08402767
0.026825374 0.0354012 -0.039253652 -0.03319946 -0.05369959 -0.07445307 -0.019240938 -0.009262665
0.1320594 0.035163656 -0.020222142 -0.0801331 -0.15637527 -0.022011064 -0.012176567 0.09771047
-0.023422565 0.042597435 -0.0018593791 -0.09385377 0.06432726 0.10566196 -0.008856139 -0.001481843
0.03290698 0.065615326 -0.052806865 0.13553677 -0.062638246 0.0500693 0.060638707 -0.048085764
-0.015504625 0.111196384 -0.10760482 -0.08896643 0.09054107 -0.068694174 -0.10190936 0.06948808
0.08534935 0.09255953 0.074422926 -0.020941105 -0.088362865 -0.0013829741 0.024641495 0.071000814
-0.1106811 -0.037803244 -0.05935558 -0.093576245 0.07345832 0.031943478 0.11351368 -0.039592158
0.009134836 0.08978695 0.019620743 -0.18557522 0.14534707 0.0248118 0.050881244 -0.17643465
0.058961276 0.07194215 0.10217958 -0.018142106 -0.0737015 0.09981283 0.002590604 -0.047540367
0.04579352 -0.098867975 -0.08347486 -0.07970943 -0.006524963 -0.007282796 0.010415228 -0.05317219
0.024466433 -0.0054009156 -0.17115723 0.074724525 0.053963218 0.028670143 -0.08243046 0.027816657
-0.005355266 0.1135419 -0.04895607 0.0120210005 -0.034174036 0.06339031 -0.04052055 -0.07840133
-0.11700225 0.08462112 0.00033583053 -0.034656204 0.011270386 -0.01508126 -0.16220495 -0.007852319
-0.07122624 -0.1382267 -0.050203484 -0.009292201 -0.13055661 0.08320975 0.070277266 0.10265084
0.0154276 -0.10561176 -0.11277404 0.08147266 -0.055105228 0.054955274 0.031244423 -0.08768446
-0.031992093 0.07038557 -0.07415172 -0.11802973 0.08661985 -0.01609689 -0.02777618 -0.004340234
0.02500647 0.04519184 -0.03962898 0.10283448 0.020483697 -0.0106314095 -0.022722227 0.08483742
0.077662595 0.070488885 0.07638652 0.019264398 -0.0215603 0.0899117 0.06844357 -0.0073708715
0.028993895 -0.07424912 -0.057348583 -0.09252307 -0.010729057 0.016151208 0.07628941 0.11731518
7.442669e-05 0.11678375 0.054515626 -0.056074645 -0.07953552 -0.030118823 -0.04753215 0.024607604
-0.11858086 -0.10792792 -0.15543087 -0.0044339774 0.00093742326 0.008551522 0.07301006 0.107709
0.122638226 -0.108570054 -0.07048335 -0.096799575 -0.04432072 0.0867118 -0.117476285 0.021302937
-0.07032618 0.08076291 -0.025254704 -0.10600274 0.07799178 0.036556073 -0.10181755 -0.059527125
-0.023986617 0.040808886 -0.033794943 -0.083320335 0.060185168 -0.11975686 -0.039779577 -0.017221665
0.043703455 0.15233237 0.12903348 0.07701357 0.043016568 0.08371864 -0.02687247 -0.031129984
-0.14253612 0.13732211 0.11393114 -0.043239586 0.015298287 -0.066192254 0.11176787 0.06372018
0.08032069 -0.059467983 0.0034485823 0.10768463 0.036399145 0.06596935 -0.13665617 -0.01628951
-0.039612137 0.1185625 -0.04382502 0.049736567 0.04931414 0.06681495 0.06680588 0.0927179
00000000: 2b4a 183e 61d2 823d 6a6b 583c efca 65bd
00000010: 3628 cfbd 373a 64bb fefe b3bd b109 8a3d
00000020: bbb9 33be a64e b8bc 744b 2e3e 13f0 cdbd
00000030: 37ff 993d baea d7bc 2356 92bd 9097 5c3c
00000040: 76b9 c33d 02ce f13d 32fc 90bc 8d3e 213d
00000050: c7a3 3ebd c62b a7bc 876e 29be 9e70 a13d
00000060: 257b ebbd 4b71 00be 4de1 1ebe 4fc3 13bd
00000070: 773b 51bc 0eff 813d 9bf8 24bc b316 acbd
00000080: e3c0 db3c d900 113d 70c8 20bd 28fc 07bd
00000090: 1af4 5bbd da7a 98bd 2c9f 9dbc 6fc2 17bc
000000a0: 943a 073e c407 103d e8a8 a5bc d31c a4bd
000000b0: d720 20be 8c50 b4bc 3980 47bc 6d1c c83d
000000c0: aee0 bfbc a67a 2e3d 69b6 f3ba 6836 c0bd
000000d0: 03be 833d 4c65 d83d 5719 11bc 663a c2ba
000000e0: 78c9 063d 5461 863d 034c 58bd 27ca 0a3e
000000f0: 7b48 80bd 7715 4d3d 4b60 783d 94f5 44bd
00000100: 1c07 7ebc eeba e33d ea5f dcbd 0834 b6bd
00000110: 996d b93d 88af 8cbd dbb5 d0bd c44f 8e3d
00000120: a4cb ae3d da8f bd3d 0c6b 983d ae8c abbc
00000130: 97f7 b4bd e944 b5ba f6dc c93c e068 913d
00000140: c6ac e2bd 93d7 1abd d61e 73bd e7a4 bfbd
00000150: 5171 963d 2ad7 023d dc79 e83d 632b 22bd
00000160: 47aa 153c 38e2 b73d aebb a03c 6e07 3ebe
00000170: ddd5 143e 1e42 cb3c da68 503d 49ab 34be
00000180: 6181 713d 6856 933d 8743 d13d c19e 94bc
00000190: d0f0 96bd ab6a cc3d 1fc7 293b b0b9 42bd
000001a0: fc91 3b3d 4b7b cabd def4 aabd b33e a3bd
000001b0: 5bcf d5bb 85a4 eebb a2a4 2a3c 15cb 59bd
000001c0: d46d c83c 2afa b0bb d743 2fbe 2c09 993d
000001d0: 8908 5d3d a6dd ea3c 4dd1 a8bd c2df e33c
000001e0: 3a7b afbb a888 e83d 2986 48bd bbf3 443c
000001f0: 13fa 0bbd c7d2 813d e0f8 25bd e090 a0bd
00000200: e09e efbd d64d ad3d 6912 b039 aaf3 0dbd
00000210: 6da7 383c 6417 77bc 0e19 26be 03a7 00bc
00000220: 10df 91bd 4d8b 0dbe 2ba2 4dbd 513e 18bc
00000230: a2b0 05be e069 aa3d 87ed 8f3d 9b3a d23d
00000240: 0bc4 7c3c fa4a d8bd 13f6 e6bd 23db a63d
00000250: 05b6 61bd c818 613d 4ef4 ff3c e993 b3bd
00000260: 240a 03bd 4f26 903d dbdc 97bd 92b9 f1bd
00000270: bf65 b13d a0dd 83bc df8a e3bc 8638 8ebb
00000280: 5eda cc3c 141b 393d ff51 22bd e29a d23d
00000290: 6dcd a73c 5d2f 2ebc f723 babc 3ebf ad3d
000002a0: 910d 9f3d 7a5c 903d 8970 9c3d 5fd0 9d3c
000002b0: 3a9f b0bc a023 b83d 242c 8c3d 5a87 f1bb
000002c0: 9b84 ed3c ec0f 98bd 59e6 6abd bc7c bdbd
000002d0: edc8 2fbc 8a4f 843c 9f3d 9c3d f142 f03d
000002e0: 8615 9c38 522c ef3d c74b 5f3d 87ae 65bd
000002f0: 85e3 a2bd c0bb f6bc 12b1 42bd e395 c93c
00000300: 86da f2bd 5009 ddbd 4529 1fbe e64a 91bb
00000310: 69bd 753a af1b 0c3c 4c86 953d 8996 dc3d
00000320: c029 fb3d fa59 debd 9359 90bd db3e c6bd
00000330: a589 35bd f595 b13d 6897 f0bd 7f83 ae3c
00000340: 2c07 90bd 0667 a53d f4e2 cebc f717 d9bd
00000350: 28ba 9f3d d2bb 153d b885 d0bd b7d2 73bd
00000360: 957f c4bc 3827 273d 916c 0abd daa3 aabd
00000370: b984 763d 1643 f5bd e9ef 22bd 7314 8dbc
00000380: 6502 333d 04fd 1b3e 5a21 043e 4ab9 9d3d
00000390: 2432 303d ae74 ab3d a723 dcbc 4f04 ffbc
000003a0: fdf4 11be 2b9e 0c3e bb54 e93d fe1b 31bd
000003b0: aba5 7a3c ce8f 87bd 8ee6 e43d ba7f 823d
000003c0: 2d7f a43d b394 73bd 9c01 623b c289 dc3d
000003d0: 4517 153d f01a 873d 98ef 0bbe 9471 85bc
000003e0: 5640 22bd e5d0 f23d dd81 33bd 92b8 4b3d
000003f0: a0fd 493d 47d6 883d 85d1 883d e2e2 bd3d

model/batch_normalization_2/FusedBatchNormV3 f4 [64]
0.049262013 0.08995429 0.11926616 0.074598186 0.13479614 0.26627967 0.04906229 0.058755264
0.19834885 0.0409051 0.26538566 0.034955125 0.03657096 0.088463604 0.13455023 0.047810115
0.024897689 0.073690824 0.17592016 0.037961803 0.020149354 0.21437886 0.068186 0.07260248
0.032171372 0.13407347 0.090292655 0.033501126 0.037518293 0.3943407 0.11383513 0.034662906
0.3389468 0.102858804 0.053144917 0.25498062 0.14344683 0.19411442 0.037266813 0.054438535
0.061099615 0.06769876 0.034363233 0.032624792 0.058546722 0.048149146 0.06866995 0.20477846
0.11097918 0.05818699 0.20746166 0.037817698 0.17027226 0.09916339 0.0934685 0.15654828
0.1636526 0.04542357 0.13430767 0.14166407 0.037924442 0.24759471 0.10143913 0.06844094
00000000: f7c6 493d f439 b83d d141 f43d efc6 983d
00000010: 0008 0a3e cf55 883e 8af5 483d 5ca9 703d
00000020: f61b 4b3e 1b8c 273d a1e0 873e 1b2d 0f3d
00000030: 6ecb 153d 682c b53d 89c7 093e 8ad4 433d
00000040: 3df6 cb3c 37eb 963d 6a24 343e d67d 1b3d
00000050: 4210 a53c 2286 5b3e 1aa5 8b3d 9cb0 943d
00000060: 21c6 033d 8e4a 093e 5beb b83d 7a38 093d
00000070: c8ac 193d 06e7 c93e 6522 e93d b1fa 0d3d
00000080: 6f8a ad3e a3a7 d23d 7cae 593d d28c 823e
00000090: bae3 123e eec5 463e 16a5 183d f1fa 5e3d
000000a0: 9743 7a3d a6a5 8a3d 76c0 0c3d 93a1 053d
000000b0: b0ce 6f3d 0a38 453d d5a2 8c3d 72b1 513e
000000c0: 0d49 e33d 7b55 6e3d d470 543e bbe6 1a3d
000000d0: da5b 2e3e 2d16 cb3d 6a6c bf3d 314e 203e
000000e0: 8c94 273e 110e 3a3d f387 093e 6310 113e
000000f0: a956 1b3d 7889 7d3e 52bf cf3d c32a 8c3d

model/batch_normalization_2/FusedBatchNormV31 f4 [64]
-0.35186303 -0.4027036 -0.35025266 -0.49011382 -0.42963615 -0.394894 -0.41886795 -0.48613903
-0.6513901 -0.31246227 -0.311868 -0.36219475 -0.5493334 -0.545552 -0.64088684 -0.49580273
-0.37413687 -0.43668944 -0.6182352 -0.5150068 -0.12984128 -0.27561116 -0.39011046 -0.3140266
-0.37433562 -0.35454193 -0.25693107 -0.60618824 -0.3598899 -0.49352533 -0.51226854 -0.42173278
-0.3034712 -0.45994538 -0.37625632 -0.61665356 -0.3641573 -0.130752 -0.4073412 -0.32787538
-0.21422768 -0.25009492 -0.3885339 -0.44181862 -0.41942376 -0.5256531 -0.45177132 -0.48423398
-0.28754982 -0.2168516 -0.22997554 -0.50321853 -0.47947475 -0.42462867 -0.26442766 -0.32304162
-0.6026764 -0.5153448 -0.47976705 -0.3457107 -0.33336914 -0.20374727 -0.3899277 -0.4323937
00000000: 6427 b4be 2b2f cebe 5154 b3be 33f0 fabe
00000010: 45f9 dbbe 8c2f cabe dc75 d6be 37e7 f8be
00000020: 80c1 26bf 0efb 9fbe 2aad 9fbe 9771 b9be
00000030: 1da1 0cbf 4ca9 0bbf 2911 24bf dbd9 fdbe
00000040: de8e bfbe c295 dfbe a944 1ebf 7cd7 03bf
00000050: 1df5 04be e81c 8dbe 8fbc c7be 18c8 a0be
00000060: eba8 bfbe 8586 b5be 788c 83be 272f 1bbf
00000070: 7d43 b8be 5aaf fcbe 0824 03bf 5ced d7be
00000080: 9460 9bbe f67d ebbe aba4 c0be 02dd 1dbf
00000090: d372 babe dae3 05be 078f d0be 48df a7be
000000a0: 805e 5bbe 710c 80be eaed c6be 0d36 e2be
000000b0: b6be d6be 3491 06bf 924e e7be 84ed f7be
000000c0: bb39 93be 590e 5ebe b57e 6bbe eed2 00bf
000000d0: b77d f5be ee68 d9be 1063 87be b665 a5be
000000e0: 0049 1abf a3ed 03bf 07a4 f5be fe00 b1be
000000f0: 5caf aabe 20a3 50be 9aa4 c7be b562 ddbe

model/batch_normalization_1/FusedBatchNormV3 f4 [128]
0.076882176 0.22821686 0.039386235 0.17282446 0.18812688 0.12205507 0.14596674 0.15959546
0.16431704 0.053557727 0.07670187 0.083836704 0.27122578 0.25805962 0.16419764 0.16810314
0.1600994 0.072166085 0.36245954 0.26751277 0.0742797 0.03771149 0.3509927 0.19556116
0.22064647 0.06492304 0.19732954 0.2175049 0.12698337 0.12863007 0.055911392 0.06657376
0.18002895 0.11087872 0.12320954 0.04502929 0.26676038 0.18266937 0.016797837 0.14120859
0.086880155 0.19077459 0.25555167 0.21182416 0.15228254 0.1939295 0.123176455 0.06704953
0.16475657 0.03180165 0.1612293 0.04771649 0.21589096 0.14402221 0.1936671 0.100498326
0.2260235 0.06122157 0.06445179 0.16606662 0.14651856 0.26022986 0.085590504 0.13264053
0.03916066 0.1603581 0.2302542 0.11495178 0.18399166 0.036339317 0.16834608 0.032368086
0.1760126 0.18378268 0.24202369 0.14116973 0.11917793 0.1774371 0.30597612 0.14800808
0.07352486 0.08833495 0.12571482 0.15021247 0.041084472 0.07307166 0.0815831 0.11406337
0.3101166 0.043222867 0.18417715 0.10857534 0.22298424 0.1548878 0.24598949 0.08164705
0.0382801 0.1743214 0.107255094 0.18152107 0.023709523 0.15441933 0.06311424 0.09966323
0.18167827 0.053499494 0.42799163 0.09052716 0.069604665 0.09331783 0.05401222 0.09730503
0.30611518 0.06582546 0.13840465 0.047724113 0.08813751 0.07557345 0.13690533 0.06420558
0.037403755 0.099202596 0.18098377 0.10713405 0.06434786 0.2328987 0.1733683 0.18161601
00000000: 6774 9d3d aeb1 693e 7653 213d e5f8 303e
00000010: 55a4 403e 02f8 f93d 4e78 153e fe6c 233e
00000020: ba42 283e 595f 5b3d df15 9d3d 94b2 ab3d
00000030: 1bde 8a3e 6420 843e 6d23 283e 3b23 2c3e
00000040: 19f1 233e d0cb 933d 4c94 b93e 6ff7 883e
00000050: f51f 983d 5d77 1a3d 51b5 b33e 2f41 483e
00000060: 26f1 613e 5ff6 843d c110 4a3e 9bb9 5e3e
00000070: ee07 023e 9ab7 033e 5803 653d d357 883d
00000080: 8259 383e 6214 e33d 4955 fc3d a270 383d
00000090: d194 883e ae0d 3b3e 9e9b 893c fc98 103e
000000a0: 39ee b13d 6a5a 433e abd7 823e 6fe8 583e
000000b0: f4ef 1b3e 7495 463e f043 fc3d 4451 893d
000000c0: f2b5 283e 7242 023d 4b19 253e 5e72 433d
000000d0: 8512 5d3e 8f7a 133e ab50 463e 11d2 cd3d
000000e0: b472 673e 78c3 7a3d 4dff 833d 5e0d 2a3e
000000f0: f608 163e d93c 853e 134a af3d ebd2 073e
00000100: ee66 203d ea34 243e c2c7 6b3e d76b eb3d
00000110: 4f68 3c3e 89d8 143d ea62 2c3e 6694 043d
00000120: a63c 343e 8731 3c3e 0fd5 773e cc8e 103e
00000130: 8f13 f43d 12b2 353e e7a8 9c3e 6e8f 173e
00000140: 3494 963d f4e8 b43d 63bb 003e 4cd1 193e
00000150: 3148 283d 98a6 953d 0a15 a73d 0e9a e93d
00000160: 9ac7 9e3e 760a 313d ef98 3c3e bf5c de3d
00000170: fb55 643e e89a 1e3e abe4 7b3e 9236 a73d
00000180: 98cb 1c3d 4f81 323e 8fa8 db3d a9e0 393e
00000190: 793a c23c 1a20 1e3e 0a42 813d 3c1c cc3d
000001a0: de09 3a3e 4922 5b3d b821 db3e 4e66 b93d
000001b0: e48c 8e3d 6b1d bf3d eb3b 5d3d dc47 c73d
000001c0: 21bb 9c3e 80cf 863d f3b9 0d3e 5c7a 433d
000001d0: 7081 b43d 41c6 9a3d e930 0c3e 377e 833d
000001e0: ae34 193d bb2a cb3d cf53 393e 1969 db3d
000001f0: d0c8 833d ff7c 6e3e 7687 313e 8cf9 393e

model/batch_normalization_1/FusedBatchNormV31 f4 [128]
-0.5152812 -0.8368946 -0.45836666 -0.9662667 -0.37153563 -0.3971972 -0.42254505 -0.22142068
-0.46236926 -0.59173596 -0.75066614 -0.63131964 -0.3188683 -0.32735515 -0.39068854 -0.9208426
-0.44210815 -0.58458835 -0.52048427 -0.31295907 -0.48582646 -0.48279646 -0.5664503 -0.43712798
-0.30878028 -0.7317266 -0.9105441 -0.42412114 -0.52437603 -0.4642841 -0.5944448 -0.5274158
-0.31001633 -0.40917036 -0.83230865 -0.6279731 -0.6738575 -0.64096344 -0.21449345 -0.4534996
-0.41068894 -0.7121849 -0.31264728 -0.4263644 -0.38669252 -0.40862563 -0.41928336 -0.69604
-0.3278842 -0.4410804 -0.2719838 -0.6771503 -0.67326605 -0.1892557 -0.4098351 -0.5740847
-0.38409597 -0.3852489 -0.6814804 -0.5412486 -0.26256832 -0.42115608 -0.74348485 -0.45502993
-0.5106439 -0.35924202 -0.68485326 -0.4607355 -0.60832065 -0.5405738 -0.34683007 -0.408146
-0.41930142 -0.6032952 -0.54287314 -0.48419765 -0.3377884 -0.5433126 -0.31883603 -0.35128573
-0.75239354 -0.8751364 -0.359277 -0.844829 -0.5175913 -0.6218476 -0.6910165 -0.58240056
-0.28782642 -0.6308088 -0.47065893 -0.3975967 -0.54832166 -0.40119725 -0.41845924 -0.42056704
-0.5072749 -0.73378927 -0.87942165 -0.31497097 -0.39643055 -0.63884443 -0.73495847 -0.9051721
-0.5251125 -0.62109727 -0.15970735 -0.35817432 -0.5322486 -0.66706306 -0.5287244 -0.93468344
-0.63797116 -0.7548121 -0.48241276 -0.4725389 -0.3141387 -0.61472833 -1.1415721 -0.72270525
-0.533924 -0.3677323 -0.4385536 -0.64824265 -0.7960976 -0.6451751 -0.37725887 -0.47939476
00000000: 78e9 03bf b93e 56bf 09af eabe 415d 77bf
00000010: eb39 bebe 6e5d cbbe d357 d8be 1abc 62be
00000020: aabb ecbe 027c 17bf a82b 40bf 2a9e 21bf
00000030: b542 a3be 189b a7be 5408 c8be 57bc 6bbf
00000040: 005c e2be 95a7 15bf 753e 05bf 2c3c a0be
00000050: 3fbe f8be 1931 f7be e302 11bf 3dcf dfbe
00000060: 7318 9ebe 6f52 3bbf 6b19 69bf 6826 d9be
00000070: 823d 06bf a5b6 edbe 892d 18bf b904 07bf
00000080: 76ba 9ebe c77e d1be 2e12 55bf d8c2 20bf
00000090: ed81 2cbf 2e16 24bf 2ca4 5bbe 1931 e8be
000000a0: d245 d2be c051 36bf 4e13 a0be 6f4c dabe
000000b0: 90fc c5be 6137 d1be 4fac d6be ad2f 32bf
000000c0: 70e0 a7be 4ad5 e1be 7641 8bbe b959 2dbf
000000d0: 2a5b 2cbf 3fcc 41be e8d5 d1be 37f7 12bf
000000e0: 3aa8 c4be 583f c5be 8075 2ebf 458f 0abf
000000f0: 5b6f 86be c5a1 d7be 0655 3ebf aff9 e8be
00000100: 8fb9 02bf 92ee b7be 8b52 2fbf 86e5 ebbe
00000110: e7ba 1bbf 0b63 0abf b693 b1be 83f8 d0be
00000120: adae d6be 8e71 1abf bcf9 0abf c1e8 f7be
00000130: 9af2 acbe 8916 0bbf 7a3e a3be b9db b3be
00000140: dd9c 40bf f008 60bf 28f3 b7be b746 58bf
00000150: dd80 04bf 6831 1fbf 75e6 30bf 3418 15bf
00000160: fc5d 93be af7c 21bf 35fa f0be cb91 cbbe
00000170: cf5e 0cbf ba69 cdbe 4a40 d6be 9054 d7be
00000180: c5dc 01bf 9dd9 3bbf c721 61bf e043 a1be
00000190: f2f8 cabe 4f8b 23bf 3d26 3cbf 5cb9 67bf
000001a0: c66d 06bf 3b00 1fbf 538a 23be a062 b7be
000001b0: 7241 08bf a5c4 2abf 7b5a 07bf 6a47 6fbf
000001c0: 1452 23bf 5e3b 41bf cefe f6be 9ef0 f1be
000001d0: cad6 a0be d65e 1dbf 091f 92bf 3603 39bf
000001e0: 3eaf 08bf 6847 bcbe 198a e0be 3bf3 25bf
000001f0: 0dcd 4bbf 322a 25bf 1328 c1be 3b73 f5be

model/batch_normalization/FusedBatchNormV3 f4 [128]
1.6423843 13.2287 2.327542 2.7822542 3.8944016 11.616109 2.1818292 12.264862
12.264535 12.071574 7.001746 1.3380811 11.936926 2.5974774 2.2822244 10.318193
2.0333698 11.789074 12.095026 11.737542 11.84805 2.3628945 2.5461278 2.0466702
12.976744 11.774057 1.9687126 1.6775522 11.438228 13.570046 8.738518 13.01512
11.699989 2.2966647 13.117189 12.95496 11.762234 1.5870062 1.315902 1.6053519
12.773344 2.1047077 3.8609438 12.0777025 11.880668 1.3115094 11.77457 1.6817741
2.8922367 5.3990903 12.263998 16.256445 1.8186737 2.7408016 12.063275 5.746677
12.850501 1.3783044 1.7130417 2.0542595 3.0975728 11.721078 11.523337 11.543484
1.5402184 3.9858756 1.3586067 11.776283 2.3608537 1.6522341 2.1475554 2.4064133
12.970779 11.7015295 1.8880633 1.366761 7.9034324 1.7618263 2.0165987 2.8128338
11.705355 3.5217805 2.5675447 2.0765169 2.106841 2.7311757 2.0565534 2.8360322
1.9177294 11.757599 2.183432 1.6848974 11.844916 1.466391 11.723601 1.7508359
1.61899 12.329616 12.934109 13.793905 12.351858 12.325955 2.9481091 2.7284021
6.5498815 5.3418574 2.5093887 1.9248996 13.53189 12.005463 1.7660699 11.672524
15.401801 2.1258266 1.909834 7.5816607 3.406434 1.9604809 7.5165944 3.602971
11.77405 1.5998493 1.67266 1.5199056 11.994671 11.472934 1.6612102 6.7161965
00000000: a639 d23f c1a8 5341 73f6 1440 7410 3240
00000010: e03d 7940 95db 3941 17a3 0b40 e03c 4441
00000020: 893b 4441 2b25 4141 4e0e e040 3e46 ab3f
00000030: a6fd 3e41 123d 2640 f70f 1240 5217 2541
00000040: bb22 0240 0ca0 3c41 3a85 4141 f9cc 3b41
00000050: 9d91 3d41 aa39 1740 c2f3 2240 a5fc 0240
00000060: bea0 4f41 8a62 3c41 c6fe fb3f 08ba d63f
00000070: fb02 3741 e91e 5941 f8d0 0b41 ee3d 5041
00000080: 2833 3b41 8efc 1240 02e0 5141 8447 4f41
00000090: 1c32 3c41 0523 cb3f 7a6f a83f 2c7c cd3f
000000a0: 9e5f 4c41 88b3 0640 b419 7740 453e 4141
000000b0: 3717 3e41 8adf a73f a464 3c41 6044 d73f
000000c0: 681a 3940 59c5 ac40 5639 4441 330d 8241
000000d0: 4dca e83f 4b69 2f40 2d03 4141 c7e4 b740
000000e0: a79b 4d41 476c b03f f344 db3f fd78 0340
000000f0: a23e 4640 8989 3b41 975f 3841 1cb2 3841
00000100: e025 c53f 9618 7f40 d3e6 ad3f a86b 3c41
00000110: 3a18 1740 687c d33f 8c71 0940 ad02 1a40
00000120: 5088 4f41 7739 3b41 0fac f13f 06f2 ae3f
00000130: ebe8 fc40 8683 e13f f40f 0140 7805 3440
00000140: 2249 3b41 da64 6140 a752 2440 a7e5 0440
00000150: 7cd6 0640 95cb 2e40 929e 0340 8d81 3540
00000160: 2878 f53f 201f 3c41 5abd 0b40 b8aa d73f
00000170: c784 3d41 b3b2 bb3f df93 3b41 641b e03f
00000180: 103b cf3f 1b46 4541 1cf2 4e41 d6b3 5c41
00000190: 36a1 4541 1d37 4541 d2ad 3c40 249e 2e40
000001a0: a198 d140 7ff0 aa40 d399 2040 1c63 f63f
000001b0: 9f82 5841 6016 4041 940e e23f a9c2 3a41
000001c0: c76d 7641 8b0d 0840 7175 f43f f79c f240
000001d0: 0403 5a40 0af1 fa3f f187 f040 1497 6640
000001e0: 8262 3c41 ddc7 cc3f b919 d63f 448c c23f
000001f0: 2cea 3f41 2391 3741 89a2 d43f 15eb d640

model/batch_normalization/FusedBatchNormV31 f4 [128]
-1.073994 -0.14668548 -0.8512298 -0.73431534 -0.720493 -0.3090098 -0.44690278 -0.1788818
-0.07625945 -0.028936548 -0.8515617 -0.8654952 -0.25546086 -0.90527934 -0.7523 -0.51787686
-0.48167467 0.0029438322 0.15576175 -0.0005186844 -0.14913325 -0.94434696 -1.0671432 -0.456282
-0.064605445 -0.06640945 -0.5398887 -1.0206153 -0.042377204 -0.3012206 -0.63642526 -0.13380462
-0.23591633 -0.8314091 -0.35605937 0.007129452 -0.17383493 -0.863756 -0.8794566 -0.7930091
0.07527116 -0.6016843 -0.8843906 0.13699803 0.51154965 -0.7282231 -0.37085238 -0.81910557
-1.8424481 -0.9302833 0.43510702 0.02458485 -0.94235814 -1.2482167 -0.42476478 -0.5855618
-0.18182458 -0.744511 -1.0612372 -0.78058225 -0.81016684 -0.11095766 -0.3789961 0.01597516
-0.96661925 -1.4926515 -1.0120751 -0.0329042 -0.9329076 -0.7962326 -0.80947423 -0.9267709
0.11254364 -0.10926364 -1.128786 -0.8665457 -1.0611291 -0.96981466 -0.77913874 -0.85980463
-0.15771118 -0.42668742 -0.51503515 -1.0697066 -0.91381925 -0.8943975 -0.8760165 -1.2752714
-0.8573459 0.3164522 -0.65989316 -0.8386144 -0.021528058 -0.88134384 0.0032224106 -1.2041562
-0.8339628 -0.17617969 0.34735098 -0.45241457 0.45052108 -0.044889715 -0.82555187 -0.6811406
-0.8112311 -0.5334921 -0.9736618 -1.1582518 0.13364251 0.10309678 -0.9489007 -0.11050012
-0.30717546 -0.84874946 -0.94618535 -0.7405243 -0.74316686 -0.7066829 -1.1467143 -0.35975695
-0.17114069 -0.37769377 -1.0883794 -0.8222244 0.117332965 -0.035203125 -1.0010407 -0.3593002
00000000: a378 89bf b834 16be 32ea 59bf 17fc 3bbf
00000010: 3b72 38bf 8836 9ebe 71d0 e4be ca2c 37be
00000020: ea2d 9cbd 570c edbc f3ff 59bf 1891 5dbf
00000030: c4cb 82be 63c0 67bf bc96 40bf 9493 04bf
00000040: 109e f6be 4fed 403b 0280 1f3e 52f8 07ba
00000050: 63b6 18be b9c0 71bf 2698 88bf cb9d e9be
00000060: dc4f 84bd ad01 88bd 2536 0abf 86a3 82bf
00000070: b893 2dbd 9639 9abe c4ec 22bf 1404 09be
00000080: 0d94 71be 3ad7 54bf 6a4d b6be 2e9e e93b
00000090: c901 32be 1d1f 5dbf 1124 61bf a502 4bbf
000000a0: c427 9a3d fb07 1abf 6c67 62bf 3649 0c3e
000000b0: ebf4 023f d46c 3abf 5de0 bdbe e7b0 51bf
000000c0: 57d5 ebbf 0c27 6ebf 59c6 de3e 2b66 c93c
000000d0: 623e 71bf 91c5 9fbf c57a d9be 61e7 15bf
000000e0: 3930 3abe 4698 3ebf 9fd6 87bf 3dd4 47bf
000000f0: 1867 4fbf c53d e3bd c70b c2be 57de 823c
00000100: 5c74 77bf 340f bfbf ad8b 81bf 8ec6 06bd
00000110: 08d3 6ebf e6d5 4bbf b439 4fbf dc40 6dbf
00000120: 487d e63d 9ec5 dfbd 0f7c 90bf f0d5 5dbf
00000130: 14d3 87bf c645 78bf a375 47bf 281c 5cbf
00000140: 0a7f 21be c676 dabe 58d9 03bf 25ec 88bf
00000150: 0ff0 69bf 3cf7 64bf 9e42 60bf 183c a3bf
00000160: 057b 5bbf 0606 a23e c2ee 28bf 6faf 56bf
00000170: 9c5b b0bc c09f 61bf 142f 533b ca21 9abf
00000180: 967e 55bf 7368 34be fdd7 b13e e2a2 e7be
00000190: b3aa e63e 47de 37bd 5e57 53bf 3b5f 2ebf
000001a0: d7ac 4fbf f092 08bf e641 79bf 9841 94bf
000001b0: 95d9 083e 6824 d33d 28eb 72bf e34d e2bd
000001c0: 1a46 9dbe a547 59bf 3439 72bf 0093 3dbf
000001d0: 2f40 3ebf 2ce9 34bf 89c7 92bf 1032 b8be
000001e0: 813f 2fbe 1461 c1be 0450 8bbf 4c7d 52bf
000001f0: 444c f03d 2731 10bd 1a22 80bf 32f6 b7be

model/dense/BiasAdd/ReadVariableOp/resource f4 [256]
-0.10994144 -0.03934067 0.014263976 -0.123653285 -0.107946545 -0.1831646 -0.036013164 -0.0131271705
-0.12804551 -0.13102935 -0.1737801 -0.06877186 -0.033846706 -0.20910811 -0.102911256 -0.0058193402
-0.004684037 -0.20443776 -0.07174765 -0.091671474 -0.07833486 -0.02571911 -0.056636598 -0.034252334
-0.04611228 -0.099992685 -0.09553235 -0.07566358 -0.10152245 -0.07882461 -0.067632526 -0.20926201
-0.052328773 -0.08270173 -0.17348441 -0.08320616 -0.08547751 -0.13297912 -0.05632842 -0.074030526
-0.1437608 -0.10756925 -0.021008767 -0.07054732 -0.23034129 -0.10608437 -0.10112689 -0.04633027
-0.07260425 -0.16813214 -0.08132065 -0.13368513 -0.09166154 -0.15439574 -0.32681406 0.0065323287
-0.012690532 -0.045157716 -0.081445344 -0.03923387 -0.118251435 -0.11835279 -0.0021480387 -0.01704201
-0.12381896 -0.0455416 -0.15985262 -0.15821238 -0.038434874 -0.025810461 -0.13327253 -0.036508903
-0.048545085 -0.08447324 -0.076419264 -0.09547128 -0.19673935 -0.11548596 -0.07541893 -0.032344647
-0.03656166 -0.1764054 -0.13927972 -0.0881557 -0.032413863 -0.03709276 -0.028807804 -0.17382361
-0.05061683 -0.18775256 -0.040576283 -0.0812324 -0.031231347 -0.008983368 -0.102591984 -0.17985672
-0.06669039 -0.09599741 -0.19594772 -0.11316512 -0.13282415 -0.013014088 -0.056284238 -0.07580198
-0.02096917 -0.08422674 -0.12666959 -0.13696173 -0.08192026 -0.11414094 -0.0069080354 -0.2019517
-0.037051164 -0.08617882 -0.16892081 -0.06108685 -0.031270783 -0.11805376 -0.07284131 0.003632234
-0.085895464 -0.1738922 -0.067459375 -0.030129386 -0.06236108 -0.06693744 -0.09401656 -0.08435128
-0.06996645 -0.03982499 -0.08117298 -0.06263309 -0.050733466 -0.10346904 -0.34478512 -0.1874813
-0.07586596 -0.12125851 -0.051225636 -0.15718447 -0.1673027 -0.107817575 -0.01647832 -0.15781246
-0.039093602 -0.123637125 -0.18596195 -0.06070389 -0.07862762 -0.09598028 -0.029771203 -0.086716905
-0.08384261 -0.030928418 -0.16192383 -0.050749186 -0.10399679 -0.06895802 -0.0806738 -0.07299662
-0.04722994 -0.015737578 -0.16111052 -0.06055186 -0.06554865 -0.03671289 -0.06762132 -0.024484321
-0.09014792 -0.03945951 -0.04510414 -0.044284083 -0.06705404 -0.15498424 -0.11628918 -0.033031844
-0.036127698 -0.12024081 -0.06448964 -0.06902475 -0.17861442 -0.06756478 -0.13557498 -0.111834444
-0.03819625 -0.09154416 -0.05983123 -0.056792367 -0.03991901 -0.027876206 -0.04221983 -0.13785104
-0.25350022 -0.045582756 -0.07105862 -0.090604044 -0.091552146 -0.088337585 0.033961926 -0.046010796
-0.09230616 -0.037170045 -0.0449265 -0.15266143 -0.083828755 -0.076572984 -0.041535214 -0.083179936
-0.038000096 -0.03305689 -0.07806306 -0.13731626 -0.0389431 -0.07412282 -0.11279663 -0.18176055
-0.04339577 -0.058666244 -0.08107484 -0.09315471 -0.062204793 -0.14044951 -0.17868972 -0.083136104
-0.061392304 -0.12062463 0.00795924 -0.138163 -0.036543816 -0.00929824 -0.09360319 -0.040073346
-0.06308222 -0.035947062 -0.05132317 -0.095320955 -0.09852814 -0.0834757 0.020784033 -0.043325264
-0.10022816 0.014181397 -0.09332802 -0.080498174 -0.034416776 -0.0676154 -0.07873837 -0.06577219
-0.036318753 -0.11973516 0.010502591 -0.07293752 -0.03282111 -0.12787944 -0.0069489344 -0.0025958025
00000000: fa28 e1bd af23 21bd 74b3 693c ef3d fdbd
00000010: 1413 ddbd 808f 3bbe 8a82 13bd 5813 57bc
00000020: 5d1e 03be 8f2c 06be 69f3 31be 43d8 8cbd
00000030: d8a2 0abd 7020 56be 23c3 d2bd 2ab0 bebb
00000040: 8d7c 99bb 2258 51be 6ff0 92bd 41be bbbd
00000050: 076e a0bd e2b0 d2bc c7fb 67bd 2d4c 0cbd
00000060: 3be0 3cbd f7c8 ccbd 77a6 c3bd 82f5 9abd
00000070: 01eb cfbd cc6e a1bd ec82 8abd c848 56be
00000080: b256 56bd 865f a9bd e6a5 31be fe67 aabd
00000090: d50e afbd ae2b 08be a1b8 66bd 519d 97bd
000000a0: 0836 13be 444d dcbd 941a acbc 1d7b 90bd
000000b0: 96de 6bbe c342 d9bd 9d1b cfbd cfc4 3dbd
000000c0: 89b1 94bd d52a 2cbe 718b a6bd c1e4 08be
000000d0: 0cb9 bbbd eb19 1ebe 2c54 a7be 250d d63b
000000e0: f3eb 4fbc 4cf7 38bd d1cc a6bd b2b3 20bd
000000f0: cf2d f2bd f362 f2bd 1cc6 0cbb af9b 8bbc
00000100: cb94 fdbd d489 3abd 68b0 23be 6d02 22be
00000110: e36d 1dbd 7670 d3bc 9878 08be 5c8a 15bd
00000120: 36d7 46bd 4e00 adbd b481 9cbd 7286 c3bd
00000130: 0a76 49be e783 ecbd 3d75 9abd d27b 04bd
00000140: aec1 15bd 9ea3 34be 589f 0ebe fa8a b4bd
00000150: 66c4 04bd 94ee 17bd 58fe ebbc d1fe 31be
00000160: 9853 4fbd 3542 40be 5133 26bd 2c5d a6bd
00000170: e2d8 ffbc fa2e 13bc bf1b d2bd 5c2c 38be
00000180: f994 88bd 4a9a c4bd 85a6 48be 1dc3 e7bd
00000190: 0e03 08be 0b39 55bc 4d8a 66bd 123e 9bbd
000001a0: 89c7 abbc 127f acbd acb5 01be b23f 0cbe
000001b0: cfc5 a7bd bac2 e9bd cd5c e2bb 6dcc 4ebe
000001c0: f6c2 17bd 857e b0bd 94f9 2cbe 3436 7abd
000001d0: cb15 00bd 2bc6 f1bd d32d 95bd c60a 6e3b
000001e0: f6e9 afbd cc10 32be 2428 8abd e7d1 f6bc
000001f0: 556e 7fbd 7f16 89bd c18b c0bd 5dc0 acbd
00000200: 924a 8fbd 871f 23bd 053e a6bd c745 80bd
00000210: e5cd 4fbd 93e7 d3bd ad87 b0be 19fb 3fbe
00000220: 9d5f 9bbd 6256 f8bd f9d1 51bd f7f4 20be
00000230: 6651 2bbe 76cf dcbd 8bfd 86bc 9799 21be
00000240: 9d20 20bd 7635 fdbd cf6c 3ebe a4a4 78bd
00000250: 8507 a1bd 4f91 c4bd bde2 f3bc a298 b1bd
00000260: adb5 abbd 985d fdbc 5ccf 25be 61de 4fbd
00000270: 45fc d4bd dd39 8dbd 4e38 a5bd 407f 95bd
00000280: 2e74 41bd 18ec 80bc 28fa 24be 3a05 78bd
00000290: 5f3e 86bd 4160 16bd 0c7d 8abd 5893 c8bc
000002a0: 799f b8bd 4ca0 21bd 1ebf 38bd 3a63 35bd
000002b0: a153 89bd 30b4 1ebe 0629 eebd 664c 07bd
000002c0: a3fa 13bd d040 f6bd 2513 84bd d95c 8dbd
000002d0: b3e6 36be 675f 8abd 2bd4 0abe 7509 e5bd
000002e0: ac73 1cbd 817b bbbd 9811 75bd 1d9f 68bd
000002f0: 1e82 23bd a45c e4bc b3ee 2cbd d328 0dbe
00000300: c8ca 81be fcb4 3abd 2f87 91bd 9d8e b9bd
00000310: b17f bbbd 56ea b4bd a91b 0b3d d175 3cbd
00000320: 030b bdbd 9e3f 18bd da04 38bd 4753 1cbe
00000330: 69ae abbd 4cd2 9cbd d420 2abd 3e5a aabd
00000340: fda5 1bbd a966 07bd 87df 9fbd a29c 0cbe
00000350: cd82 1fbd b4cd 97bd eb01 e7bd 701f 3abe
00000360: c3bf 31bd 044c 70bd 910a a6bd e6c7 bebd
00000370: 74ca 7ebd ffd1 0fbe 70fa 36be 4343 aabd
00000380: 7f76 7bbd 0c0a f7bd 7967 023c 9a7a 0dbe
00000390: f8ae 15bd a557 18bc 07b3 bfbd f323 24bd
000003a0: 4031 81bd 3a3d 13bd 3f38 52bd a237 c3bd
000003b0: 1fc9 c9bd 4ff5 aabd 4743 aa3c d575 31bd
000003c0: 6c44 cdbd 1759 683c c322 bfbd 3adc a4bd
000003d0: 9bf8 0cbd f179 8abd 9541 a1bd 92b3 86bd
000003e0: f9c2 14bd b537 f5bd 0f13 2c3c 4460 95bd
000003f0: 6e6f 06bd d4f2 02be e3b3 e3bb 571e 2abb

model/dense_1/BiasAdd/ReadVariableOp/resource f4 [2]
-0.0005467201 0.0005466931
00000000: c451 0fba f44f 0f3a

model/preprocessing_pcen/stft/hann_window/sub_2 f4 [2048]
0.0 2.3543835e-06 9.417534e-06 2.1189451e-05 3.7640333e-05 5.8829784e-05 8.46982e-05 0.000115305185
0.00015059114 0.00019058585 0.00023528934 0.0002847016 0.0003387928 0.00039762259 0.00046113133 0.00052934885
0.00060227513 0.0006798804 0.0007622242 0.0008492172 0.0009409487 0.0010373592 0.0011384785 0.0012442768
0.0013547838 0.0014699697 0.0015898645 0.0017144382 0.0018436909 0.0019776523 0.0021162927 0.002259612
0.0024076402 0.0025603473 0.0027177036 0.0028797686 0.0030465126 0.0032179356 0.0033940375 0.0035747886
0.0037602186 0.0039503574 0.0041451156 0.0043445826 0.004548669 0.004757464 0.004970908 0.0051890016
0.005411744 0.0056391656 0.0058712065 0.0061079264 0.0063492954 0.0065953135 0.006845951 0.007101238
0.0073611736 0.0076257586 0.007894963 0.008168787 0.00844726 0.008730352 0.009018064 0.0093103945
0.009607375 0.009908944 0.010215104 0.010525912 0.01084131 0.011161327 0.011485934 0.011815131
0.0121489465 0.012487322 0.012830317 0.013177872 0.013530016 0.01388675 0.014248043 0.014613926
0.014984369 0.015359372 0.015738964 0.016123086 0.016511768 0.01690501 0.017302781 0.017705113
0.018111974 0.018523365 0.018939286 0.019359767 0.019784749 0.02021426 0.02064827 0.021086812
0.021529824 0.021977365 0.022429407 0.022885948 0.02334699 0.023812503 0.024282485 0.024756968
0.025235921 0.025719315 0.026207209 0.026699543 0.027196348 0.027697593 0.028203279 0.028713405
0.029227972 0.02974695 0.030270398 0.030798227 0.031330496 0.031867176 0.032408237 0.03295374
0.033503592 0.034057856 0.03461653 0.035179555 0.03574696 0.03631875 0.036894888 0.037475377
0.038060248 0.03864944 0.039242983 0.039840877 0.040443063 0.04104963 0.041660488 0.042275637
0.04289514 0.0435189 0.044146985 0.04477936 0.045415998 0.046056926 0.046702147 0.04735163
0.048005342 0.048663348 0.049325585 0.049992055 0.050662756 0.05133772 0.052016884 0.05270025
0.05338785 0.05407965 0.054775625 0.05547583 0.05618018 0.05688873 0.057601452 0.058318347
0.059039384 0.059764564 0.060493886 0.06122735 0.06196496 0.06270668 0.06345251 0.06420246
0.064956516 0.06571466 0.06647688 0.06724319 0.06801358 0.06878802 0.06956655 0.0703491
0.0711357 0.071926326 0.072721004 0.07351971 0.0743224 0.07512912 0.075939834 0.07675454
0.07757321 0.07839587 0.0792225 0.08005312 0.080887675 0.081726134 0.082568586 0.08341491
0.0842652 0.0851194 0.085977495 0.0868395 0.087705374 0.088575125 0.08944875 0.09032625
0.09120759 0.09209281 0.092981845 0.09387472 0.094771415 0.09567192 0.096576214 0.09748435
0.09839624 0.09931192 0.10023138 0.101154596 0.10208154 0.103012264 0.103946716 0.10488489
0.105826795 0.10677239 0.10772169 0.108674705 0.10963139 0.11059177 0.111555785 0.11252347
0.11349478 0.11446974 0.115448326 0.11643055 0.11741638 0.11840582 0.11939883 0.12039542
0.12139559 0.1223993 0.12340659 0.124417454 0.1254318 0.1264497 0.12747112 0.12849602
0.12952444 0.13055634 0.13159174 0.13263059 0.13367286 0.13471863 0.13576782 0.13682044
0.13787645 0.13893592 0.13999873 0.141065 0.1421346 0.14320755 0.14428389 0.1453636
00000000: 0000 0000 0000 1e36 0000 1e37 00c0 b137
00000010: 00e0 1d38 00c0 7638 00a0 b138 00d0 f138
00000020: 00e8 1d39 00d8 4739 00b8 7639 0044 9539
00000030: 00a0 b139 0078 d039 00c4 f139 00c4 0a3a
00000040: 00e2 1d3a 003a 323a 00d0 473a 009e 5e3a
00000050: 00aa 763a 00f8 873a 0039 953a 0017 a33a
00000060: 0093 b13a 00ac c03a 0063 d03a 00b7 e03a
00000070: 00a8 f13a 809b 013b 80b1 0a3b 0016 143b
00000080: 80c9 1d3b 80cb 273b 801b 323b 80ba 3c3b
00000090: 00a8 473b 00e4 523b 806e 5e3b 0047 6a3b
000000a0: 006e 763b 0072 813b c0d3 873b 005d 8e3b
000000b0: 000d 953b 80e4 9b3b 00e3 a23b 8008 aa3b
000000c0: 0055 b13b c0c8 b83b 4063 c03b 0025 c83b
000000d0: c00d d03b 801d d83b 0054 e03b 80b1 e83b
000000e0: 0036 f13b 80e1 f93b e059 013c 60d6 053c
000000f0: 6066 0a3c c009 0f3c 80c0 133c a08a 183c
00000100: 4068 1d3c 2059 223c 405d 273c e074 2c3c
00000110: c09f 313c 00de 363c 802f 3c3c 4094 413c
00000120: 600c 473c a097 4c3c 4036 523c 00e8 573c
00000130: 00ad 5d3c 4085 633c a070 693c 406f 6f3c
00000140: 0081 753c e0a5 7b3c 00ef 803c 9014 843c
00000150: b043 873c 607c 8a3c 90be 8d3c 500a 913c
00000160: 905f 943c 50be 973c 9026 9b3c 6098 9e3c
00000170: a013 a23c 6098 a53c 9026 a93c 40be ac3c
00000180: 505f b03c e009 b43c e0bd b73c 507b bb3c
00000190: 3042 bf3c 7012 c33c 10ec c63c 20cf ca3c
000001a0: 90bb ce3c 50b1 d23c 80b0 d63c 00b9 da3c
000001b0: e0ca de3c 10e6 e23c 900a e73c 6038 eb3c
000001c0: 806f ef3c e0af f33c a0f9 f73c 904c fc3c
000001d0: 6854 003d 2887 023d 80be 043d 80fa 063d
000001e0: 103b 093d 4080 0b3d 10ca 0d3d 7018 103d
000001f0: 686b 123d f8c2 143d 181f 173d c87f 193d
00000200: 10e5 1b3d e04e 1e3d 40bd 203d 3030 233d
00000210: a0a7 253d a823 283d 30a4 2a3d 3829 2d3d
00000220: d0b2 2f3d e040 323d 78d3 343d 906a 373d
00000230: 2006 3a3d 30a6 3c3d c04a 3f3d c8f3 413d
00000240: 40a1 443d 3853 473d a009 4a3d 78c4 4c3d
00000250: c083 4f3d 8047 523d a80f 553d 38dc 573d
00000260: 38ad 5a3d a082 5d3d 685c 603d a03a 633d
00000270: 301d 663d 2804 693d 80ef 6b3d 38df 6e3d
00000280: 48d3 713d b0cb 743d 70c8 773d 88c9 7a3d
00000290: f8ce 7d3d 5c6c 803d 64f3 813d 947c 833d
000002a0: ec07 853d 6895 863d 0825 883d ccb6 893d
000002b0: b44a 8b3d bce0 8c3d e878 8e3d 3013 903d
000002c0: 98af 913d 1c4e 933d c0ee 943d 8091 963d
000002d0: 5836 983d 4cdd 993d 5886 9b3d 7c31 9d3d
000002e0: b4de 9e3d 048e a03d 683f a23d e4f2 a33d
000002f0: 70a8 a53d 0860 a73d b819 a93d 70d5 aa3d
00000300: 3c93 ac3d 1453 ae3d f814 b03d e8d8 b13d
00000310: e09e b33d e066 b53d e830 b73d f8fc b83d
00000320: 0ccb ba3d 289b bc3d 446d be3d 6441 c03d
00000330: 8417 c23d a4ef c33d c0c9 c53d e0a5 c73d
00000340: f883 c93d 0c64 cb3d 1c46 cd3d 242a cf3d
00000350: 2010 d13d 18f8 d23d 04e2 d43d e4cd d63d
00000360: b8bb d83d 7cab da3d 309d dc3d d890 de3d
00000370: 6c86 e03d f07d e23d 5c77 e43d b472 e63d
00000380: f46f e83d 1c6f ea3d 2c70 ec3d 2473 ee3d
00000390: 0078 f03d c07e f23d 6087 f43d e091 f63d
000003a0: 409e f83d 7cac fa3d 98bc fc3d 94ce fe3d
000003b0: 3271 003e 087c 013e ca87 023e 7694 033e
000003c0: 0ea2 043e 90b0 053e fcbf 063e 50d0 073e
000003d0: 8ae1 083e aef3 093e b806 0b3e a81a 0c3e
000003e0: 7c2f 0d3e 3845 0e3e d45b 0f3e 5873 103e
000003f0: bc8b 113e 00a5 123e 28bf 133e 32da 143e

model/conv2d/BiasAdd/ReadVariableOp/resource f4 [128]
0.040172443 -0.072655395 0.05970369 -0.1497797 0.062495276 -0.04590676 0.01624327 -0.010585927
-0.056816358 -0.08491944 0.00751456 0.06104831 -0.000108185704 0.038475238 0.06454007 0.35318986
-0.20585108 -0.059083924 -0.016265174 -0.07792696 -0.072669014 0.032066472 0.1723097 0.0019728732
-0.029967489 -0.041043274 -0.022087265 0.06269988 -0.015456756 -0.05600533 0.159024 -0.0777515
-0.06562129 0.041661233 -0.009989198 -0.006700448 -0.063458115 0.05426945 0.06321182 0.060013637
-0.079553925 -0.0032207177 0.06584578 -0.07228742 -0.083828986 -0.05264625 -0.060052447 0.03649049
0.7952138 -0.109206095 -0.06146938 -0.0465594 0.034972247 0.06485396 -0.05998744 0.13446349
-0.07556598 0.03933511 0.024357649 0.020285128 -0.008306778 -0.0634324 -0.089208 -0.0861502
0.06414792 0.04547381 0.07879267 -0.05870525 0.11448809 0.03868731 0.00083576445 0.03584852
-0.07469862 0.0017859004 -0.025751851 0.07561573 0.09393599 0.07847742 0.06587564 0.028500998
-0.07029446 0.17820686 -0.20740783 0.03579867 -0.03126567 0.08474912 -0.030189836 0.030129798
0.052669853 -0.0645005 -0.005345569 0.03862356 -0.048400138 -0.029316157 -0.06885213 0.07305108
0.00081799633 -0.04186182 -0.067666925 0.19761994 -0.059803285 -0.08435467 0.41795325 0.011070071
0.06171314 0.068597354 0.08914464 0.038530514 -0.08073542 -0.076994434 0.029959552 -0.08202454
0.23373482 0.028310744 -0.0029630684 -0.0981241 0.023629516 0.09230257 0.053170554 0.034688674
-0.061201923 0.040009722 0.02274435 0.06476489 -0.053656027 -0.08519313 0.13304569 0.052725587
00000000: dc8b 243d 5acc 94bd db8b 743d da5f 19be
00000010: 0cfb 7f3d ba08 3cbd 9b10 853c 9970 2dbc
00000020: 45b8 68bd 3eea adbd b33c f63b cb0d 7a3d
00000030: c2e1 e2b8 3698 1d3d 962d 843d 4dd5 b43e
00000040: a0ca 52be fc01 72bd 8b3e 85bc 2c98 9fbd
00000050: 7ed3 94bd 2258 033d f471 303e 524b 013b
00000060: 617e f5bc fe1c 28bd 5af0 b4bc cb68 803d
00000070: 553e 7dbc d865 65bd 30d7 223e 2e3c 9fbd
00000080: 7464 86bd f8a4 2a3d bca9 23bc 6f8f dbbb
00000090: 54f6 81bd a549 5e3d 3375 813d dcd0 753d
000000a0: 2bed a2bd ad12 53bb 27da 863d 6d0b 94bd
000000b0: 88ae abbd 98a3 57bd 8ef9 75bd 0d77 153d
000000c0: 2293 4b3f 72a7 dfbd 51c7 7bbd 12b5 3ebd
000000d0: 0f3f 0f3d 27d2 843d 64b5 75bd ccb0 093e
000000e0: 56c2 9abd da1d 213d b189 c73c ff2c a63c
000000f0: 2719 08bc d9e8 81bd afb2 b6bd 846f b0bd
00000100: fc5f 833d bf42 3a3d 0d5e a13d eb74 70bd
00000110: bb78 ea3d 9676 1e3d 3417 5b3a e6d5 123d
00000120: 97fb 98bd e014 ea3a 8cf5 d2bc 6bdc 9a3d
00000130: 8361 c03d c5b8 a03d cfe9 863d ed7a e93c
00000140: 8bf6 8fbd dc7b 363e b862 54be a0a1 123d
00000150: 6e10 00bd f290 ad3d ad50 f7bc c4d2 f63c
00000160: 58bc 573d d718 84bd e229 afbb bd33 1e3d
00000170: 393f 46bd 7028 f0bc 5802 8dbd ce9b 953d
00000180: ce6e 563a 4d77 2bbd f594 8abd e25c 4a3e
00000190: 4af4 74bd 24c2 acbd f8fd d53e 3e5f 353c
000001a0: ebc6 7c3d c57c 8c3d 7791 b63d 2cd2 1d3d
000001b0: 9d58 a5bd 42af 9dbd bc6d f53c 7bfc a7bd
000001c0: 2e58 6f3e efeb e73c 0a30 42bb 4af5 c8bd
000001d0: b092 c13c 2109 bd3d 5ec9 593d b615 0e3d
000001e0: deae 7abd 3ce1 233d 5c52 ba3c 74a3 843d
000001f0: 6cc6 5bbd bc79 aebd 213d 083e c9f6 573d

model/conv2d_1/BiasAdd/ReadVariableOp/resource f4 [128]
0.055497505 -0.12452471 0.065219745 0.06271964 -0.036718797 -0.07219098 0.035179637 -0.013943827
-0.08013485 0.12915578 -0.066749364 0.06753697 0.012414191 -0.053175695 0.0181043 0.019243443
0.039466113 0.040814925 0.0850821 0.07907644 -0.024307312 -0.038616136 0.06716285 -0.07201115
-0.14608835 0.02287355 -0.059802264 -0.052493706 -0.043867372 -0.1155661 0.04190357 -0.0851087
-0.11177461 -0.0946001 -0.056996062 0.019783186 -0.06502028 0.13420513 -0.075027525 -0.057074692
-0.07071605 -0.04748253 0.055090457 0.06838762 -0.11223033 0.09051561 -0.05996475 -0.025521195
-0.090028286 -0.02719432 -0.13904779 -0.04986265 -0.18702564 -0.024903035 -0.061431732 -0.083832815
0.09742089 0.043213375 -0.07080144 0.08338414 0.006510894 -0.051666524 0.09508611 -0.082064256
-0.07040286 0.06109311 -0.20239165 -0.07379593 -0.010829534 0.060290508 0.02326127 -0.059318703
-0.05880464 0.12440409 -0.08277699 0.07613711 0.07827112 -0.09436661 0.034165666 0.08799536
0.116231225 -0.06721263 0.053815767 -0.055751804 -0.057604995 -0.081267215 -0.054119468 -0.16461374
0.06668794 0.03222323 -0.08933859 0.036143687 0.063318096 -0.08329818 -0.15410648 0.046578813
-0.07384512 -0.068303935 0.10468692 0.09556038 -0.07577248 0.0062037753 0.07764114 -0.045169063
-0.021294856 -0.011889811 -0.054193374 -0.08204186 0.1013233 0.044223607 -0.08093817 -0.06332182
-0.045966964 -0.053387742 0.0962043 -0.055052552 0.068799645 -0.108513795 -0.061484408 -0.10075485
0.03989447 -0.032811947 0.051340964 -0.056057896 0.0052479147 -0.16587491 -0.124697946 -0.05652374
00000000: 5a51 633d d006 ffbd ee91 853d 2873 803d
00000010: 7366 16bd ddd8 93bd 8618 103d a674 64bc
00000020: be1d a4bd 6a41 043e e4b3 88bd d350 8a3d
00000030: e464 4b3c c2ce 59bd 784f 943c 6da4 9d3c
00000040: 38a7 213d 8d2d 273d 863f ae3d d4f2 a13d
00000050: 2120 c7bc f42b 1ebd ad8c 893d 957a 93bd
00000060: 2f98 15be 5061 bb3c 38f3 74bd a403 57bd
00000070: 46ae 33bd ebad ecbd 14a3 2b3d 784d aebd
00000080: 16ea e4bd b2bd c1bd b474 69bd 5910 a23c
00000090: 5a29 85bd 126d 093e 08a8 99bd 27c7 69bd
000000a0: 94d3 90bd 0b7d 42bd 88a6 613d cf0e 8c3d
000000b0: 04d9 e5bd 4060 b93d 999d 75bd d311 d1bc
000000c0: c060 b8bd 9fc6 debc 8b62 0ebe c73c 4cbd
000000d0: a683 3fbe 7301 ccbc d79f 7bbd 8ab0 abbd
000000e0: 9b84 c73d 8200 313d 5800 91bd 4ec5 aa3d
000000f0: 5659 d53b 47a0 53bd 82bc c23d 4e11 a8bd
00000100: 602f 90bd c53c 7a3d c23f 4fbe 5222 97bd
00000110: 5c6e 31bc 2ef3 763d 6b8e be3c 2bf8 72bd
00000120: 22dd 70bd 92c7 fe3d fc86 a9bd c6ed 9b3d
00000130: 9c4c a03d 4843 c1bd 4cf1 0b3d e936 b43d
00000140: a30a ee3d c6a6 89bd ec6d 5c3d 015c 64bd
00000150: 37f3 6bbd 6d6f a6bd 60ac 5dbd 8190 28be
00000160: b093 883d 81fc 033d 27f7 b6bd 670b 143d
00000170: ebac 813d 3c98 aabd 17ce 1dbe 6dc9 3e3d
00000180: 1c3c 97bd efe2 8bbd 1966 d63d 29b5 c33d
00000190: 9a2e 9bbd 0a49 cb3b 5102 9f3d 3203 39bd
000001a0: 8d72 aebc 7bcd 42bc dff9 5dbd 9005 a8bd
000001b0: 9782 cf3d d023 353d e9c2 a5bd dfae 81bd
000001c0: db47 3cbd 1bad 5abd c306 c53d c97e 61bd
000001d0: d4e6 8c3d 7b3c debd 13d7 7bbd 8f58 cebd
000001e0: 6268 233d d265 06bd e74a 523d f79c 65bd
000001f0: b3f6 ab3b 1ddb 29be a361 ffbd 7085 67bd

model/conv2d_2/BiasAdd/ReadVariableOp/resource f4 [64]
-0.008764785 0.012505586 0.031900745 0.012016287 -0.09811709 -0.053579964 -0.005011753 -0.02057232
-0.20173045 -0.099995434 -0.028247226 -0.04915279 0.012500784 0.038894426 0.07791195 0.07671042
0.02538566 -0.013508552 -0.067522265 0.026729977 -0.066038996 0.10710423 0.028258974 -0.03714233
-0.04515623 0.007926249 0.021924077 0.04035892 0.021199955 -0.11341575 0.014744135 0.045798976
0.05661972 -0.045316357 -0.015273016 -0.015783405 0.0769601 0.08473351 -0.004802454 0.08653567
0.031250168 0.05209619 -0.019488206 -0.032680675 -0.08380956 -0.049817823 0.018053368 0.17117597
0.08316227 -0.021752857 0.08500334 0.01622236 -0.6162852 -0.029468179 -0.02883045 -0.16432975
-0.05064887 -0.024014693 -0.04933467 -0.048828986 -0.06817212 -0.012382909 0.018740358 0.07583323
00000000: 2c9a 0fbc 3be4 4c3c 5baa 023d f6df 443c
00000010: 9df1 c8bd aa76 5bbd a239 a4bb 4887 a8bc
00000020: 6d92 4ebe 68ca ccbd ba66 e7bc 7054 49bd
00000030: 17d0 4c3c c34f 1f3d 4d90 9f3d 5a1a 9d3d
00000040: 96f5 cf3c f952 5dbc 1d49 8abd d3f8 da3c
00000050: 743f 87bd 7659 db3d 5d7f e73c 8e22 18bd
00000060: bdf5 38bd 19dd 013c 1f9a b33c 654f 253d
00000070: 87ab ad3c 8446 e8bd 6291 713c b597 3b3d
00000080: 14ea 673d a59d 39bd ac3b 7abc 334c 81bc
00000090: 429d 9d3d c388 ad3d e75d 9dbb 9d39 b13d
000000a0: 2d00 003d d162 553d bba5 9fbc 2cdc 05bd
000000b0: 59a4 abbd c60d 4cbd a8e4 933c c148 2f3e
000000c0: fb50 aa3d 0c33 b2bc 3b16 ae3d c1e4 843c
000000d0: dec4 1dbf 4067 f1bc d62d ecbc 0f46 28be
000000e0: 3175 4fbd 76ba c4bc 2713 4abd e700 48bd
000000f0: d39d 8bbd afe1 4abc 6185 993c 744e 9b3d

model/conv2d/Conv2D i1 [128, 3, 3, 1]
60 7 14 127 -25 8 25 15
29 31 -19 -127 -99 -15 -100 -97
-36 -72 127 -72 26 126 -11 39
16 -26 1 6 84 -100 -46 85
-73 -87 127 23 6 57 2 -109
127 51 -92 -33 21 -16 -111 -75
-44 -127 -72 -91 -99 -85 37 -3
14 17 91 -60 13 127 -78 -81
-37 -83 -85 -57 -52 -28 -127 -35
-122 -49 -39 -127 -101 -115 14 8
25 49 -48 -31 -35 -55 3 -107
-40 -127 -16 43 53 -113 2 32
-127 -11 -9 60 78 58 47 127
47 58 5 57 -63 -104 -14 -29
-42 -72 0 -127 -67 -23 67 56
61 11 89 -27 -29 127 20 19
14 83 1 -37 5 127 -95 -127
-67 -68 -37 -69 -90 99 59 39
63 -22 1 127 -4 -71 89 5
-5 -96 -124 -39 -127 -47 -10 -89
-12 -116 3 -74 3 -73 -67 -88
-49 -108 -127 -122 -6 -66 -60 -64
-127 -90 4 -56 -92 -127 -59 -7
-30 13 -115 -46 -40 49 75 0
8 32 31 -23 -49 127 127 4
-63 123 95 -103 -51 95 -19 -11
38 25 127 -30 10 82 90 -62
-120 -58 -127 -95 -67 -33 -102 -27
-116 22 -53 -7 -100 -50 -21 4
-69 -127 127 2 -39 93 12 126
40 -81 122 54 86 127 46 59
94 86 11 53 6 -127 -17 -62
00000000: 3c07 0e7f e708 190f 1d1f ed81 9df1 9c9f
00000010: dcb8 7fb8 1a7e f527 10e6 0106 549c d255
00000020: b7a9 7f17 0639 0293 7f33 a4df 15f0 91b5
00000030: d481 b8a5 9dab 25fd 0e11 5bc4 0d7f b2af
00000040: dbad abc7 cce4 81dd 86cf d981 9b8d 0e08
00000050: 1931 d0e1 ddc9 0395 d881 f02b 358f 0220
00000060: 81f5 f73c 4e3a 2f7f 2f3a 0539 c198 f2e3
00000070: d6b8 0081 bde9 4338 3d0b 59e5 e37f 1413
00000080: 0e53 01db 057f a181 bdbc dbbb a663 3b27
00000090: 3fea 017f fcb9 5905 fba0 84d9 81d1 f6a7
000000a0: f48c 03b6 03b7 bda8 cf94 8186 fabe c4c0
000000b0: 81a6 04c8 a481 c5f9 e20d 8dd2 d831 4b00
000000c0: 0820 1fe9 cf7f 7f04 c17b 5f99 cd5f edf5
000000d0: 2619 7fe2 0a52 5ac2 88c6 81a1 bddf 9ae5
000000e0: 8c16 cbf9 9cce eb04 bb81 7f02 d95d 0c7e
000000f0: 28af 7a36 567f 2e3b 5e56 0b35 0681 efc2

model/conv2d_1/Conv2D i1 [128, 3, 3, 128]
-19 6 -19 -17 -6 18 -16 20
13 -4 -23 -12 3 -9 -18 6
-10 12 -17 -6 11 -4 -4 1
-5 11 -11 -13 7 -11 12 -8
-11 -7 34 -21 -10 -13 8 -17
-1 -13 -17 -19 17 0 -22 -12
-17 12 -12 -12 -10 -18 -11 -6
14 -4 18 -4 1 21 -6 -10
19 -16 15 19 -1 -2 -4 -11
-6 19 -8 -9 0 -6 -14 -11
-3 -21 -16 -11 1 -11 0 7
-2 11 -1 -5 11 3 2 17
-16 7 -6 7 18 -23 -4 -13
19 12 -18 22 5 -6 -4 8
2 -18 -13 -17 -2 -14 -21 -8
3 -6 -17 -1 -11 -22 -7 -12
-8 13 13 -11 20 -15 0 -1
5 -5 6 22 -11 22 -8 12
2 9 16 5 -3 -3 3 -2
1 13 -2 20 10 -11 -33 -11
6 -7 4 8 -19 16 6 -9
8 3 -8 -5 -3 0 9 19
12 -5 -15 -5 2 16 -1 -3
-11 -14 19 3 8 3 13 -10
13 25 7 10 5 20 3 -7
17 5 16 -4 17 -8 6 32
17 -19 9 11 7 2 12 18
-13 14 -12 -2 6 9 3 12
4 18 9 30 -15 13 -11 6
21 -22 -8 13 3 3 -11 5
-12 11 10 -10 10 12 11 4
10 4 -14 22 -12 0 -11 -10
00000000: ed06 edef fa12 f014 0dfc e9f4 03f7 ee06
00000010: f60c effa 0bfc fc01 fb0b f5f3 07f5 0cf8
00000020: f5f9 22eb f6f3 08ef fff3 efed 1100 eaf4
00000030: ef0c f4f4 f6ee f5fa 0efc 12fc 0115 faf6
00000040: 13f0 0f13 fffe fcf5 fa13 f8f7 00fa f2f5
00000050: fdeb f0f5 01f5 0007 fe0b fffb 0b03 0211
00000060: f007 fa07 12e9 fcf3 130c ee16 05fa fc08
00000070: 02ee f3ef fef2 ebf8 03fa efff f5ea f9f4
00000080: f80d 0df5 14f1 00ff 05fb 0616 f516 f80c
00000090: 0209 1005 fdfd 03fe 010d fe14 0af5 dff5
000000a0: 06f9 0408 ed10 06f7 0803 f8fb fd00 0913
000000b0: 0cfb f1fb 0210 fffd f5f2 1303 0803 0df6
000000c0: 0d19 070a 0514 03f9 1105 10fc 11f8 0620
000000d0: 11ed 090b 0702 0c12 f30e f4fe 0609 030c
000000e0: 0412 091e f10d f506 15ea f80d 0303 f505
000000f0: f40b 0af6 0a0c 0b04 0a04 f216 f400 f5f6

model/conv2d_2/Conv2D i1 [64, 3, 3, 128]
24 -4 31 -11 21 -12 68 11
19 -32 -10 1 78 7 42 -31
-8 -4 37 55 -30 -42 43 -10
-33 -20 -10 42 -7 10 17 -44
10 21 -10 -54 33 15 -14 25
15 -14 51 30 -10 38 15 -35
56 -9 -9 -30 7 36 7 2
52 -10 -8 30 -7 50 27 17
-36 30 -27 20 37 1 17 -15
34 4 63 44 37 5 51 -21
7 -19 -9 32 -46 -9 -17 -3
35 -5 -7 2 -10 57 -20 -23
22 -21 -4 27 9 45 -12 11
-25 -19 47 23 -7 7 -27 -17
61 4 42 -28 13 -1 -20 -20
-42 43 44 29 -25 -46 14 3
-40 -57 -37 31 0 56 46 24
-47 10 -4 -25 36 -48 2 -56
33 -28 91 16 -32 -22 52 15
8 -4 -92 10 23 -10 14 2
36 -2 -4 -1 29 38 9 22
-14 -41 18 9 9 39 23 -35
29 -1 51 -48 -41 74 25 -19
33 -1 -35 12 -3 -13 28 36
0 19 -23 -19 80 -8 36 -11
2 50 84 47 -11 -28 21 20
10 -1 21 -47 -4 -56 22 -13
34 10 -10 43 23 48 -23 1
-19 7 -1 0 21 48 6 -8
-17 -30 8 36 16 -20 29 -20
59 -29 6 -15 -1 -41 20 8
-19 37 45 9 -14 10 8 -50
00000000: 18fc 1ff5 15f4 440b 13e0 f601 4e07 2ae1
00000010: f8fc 2537 e2d6 2bf6 dfec f62a f90a 11d4
00000020: 0a15 f6ca 210f f219 0ff2 331e f626 0fdd
00000030: 38f7 f7e2 0724 0702 34f6 f81e f932 1b11
00000040: dc1e e514 2501 11f1 2204 3f2c 2505 33eb
00000050: 07ed f720 d2f7 effd 23fb f902 f639 ece9
00000060: 16eb fc1b 092d f40b e7ed 2f17 f907 e5ef
00000070: 3d04 2ae4 0dff ecec d62b 2c1d e7d2 0e03
00000080: d8c7 db1f 0038 2e18 d10a fce7 24d0 02c8
00000090: 21e4 5b10 e0ea 340f 08fc a40a 17f6 0e02
000000a0: 24fe fcff 1d26 0916 f2d7 1209 0927 17dd
000000b0: 1dff 33d0 d74a 19ed 21ff dd0c fdf3 1c24
000000c0: 0013 e9ed 50f8 24f5 0232 542f f5e4 1514
000000d0: 0aff 15d1 fcc8 16f3 220a f62b 1730 e901
000000e0: ed07 ff00 1530 06f8 efe2 0824 10ec 1dec
000000f0: 3be3 06f1 ffd7 1408 ed25 2d09 f20a 08ce
