app/src/main/ml/model_v10.tflite (tflite, 694520 bytes, 14 tensors)

model/dense_1/MatMul f4 [2, 128]
0	0x3e1564ba	0.14589205
1	0xbda27853	-0.07933106
2	0x3d068be0	0.03284824
3	0x3d80fb46	0.062979266
4	0x3c951bd5	0.018201748
5	0xbc5c4be1	-0.013445825
6	0x3c120308	0.0089118555
7	0xbda4d484	-0.08048347
8	0x3e2ffbaf	0.17185853
9	0x3d9fa5b5	0.07795278
10	0x3e00decb	0.12584989
11	0xbd7b73eb	-0.061389845
12	0x3d37144d	0.044697095
13	0x3d85bd1a	0.06530209
14	0xbd9d8aa6	-0.07692461
15	0x3d57b702	0.052664764
16	0xbe02e1af	-0.12781404
17	0x3dbda879	0.09260649
18	0xbdd8c732	-0.105848685
19	0x3dbee9a9	0.09321911
20	0xbe46f8ae	-0.19430801
21	0x3d266dde	0.04063212
22	0xbd63c76a	-0.055610098
23	0xbd03bb1f	-0.032160874
24	0x3d8de5fd	0.069286324
25	0xbd8457de	-0.06462072
26	0x3de18420	0.11011529
27	0x3e041536	0.12898716
28	0x3dce06ae	0.10059868
29	0xbd51d2df	-0.051226493
30	0x3cc82de4	0.024435945
31	0xbc87efbb	-0.016593805
32	0x3d9bf910	0.07615864
33	0x3db32016	0.08746354
34	0x3da2421e	0.07922767
35	0x3bffbfd6	0.007804851
36	0xbd24ea1a	-0.04026232
37	0xbd8cdc08	-0.06877905
38	0x3df42465	0.11921004
39	0xbd5c70ab	-0.053818386
40	0xbc7efd01	-0.0155632505
41	0xbdaf129a	-0.0854847
42	0x3d2e7edc	0.04260145
43	0xbda50176	-0.08056919
44	0x3e078537	0.13234411
45	0x3dc92127	0.098207764
46	0xbe1acca0	-0.1511712
47	0x3cf9a9f9	0.030476557
48	0x3e7bba6e	0.24582836
49	0x3e109693	0.1411994
50	0xbe47af57	-0.1950048
51	0x3e6ccb09	0.23124327
52	0xbac309c1	-0.0014880226
53	0x3e156068	0.14587557
54	0x3d107598	0.035268396
55	0x3e036ca0	0.12834406
56	0xbba66912	-0.0050784433
57	0x3e00ff40	0.1259737
58	0x3da8a535	0.08234636
59	0xbda435d3	-0.08018079
60	0x3e3a0816	0.18167147
61	0x3d4c2980	0.049844265
62	0x3cdc07bc	0.026859157
63	0x3dcc5a2a	0.09978135
64	0xbdb82b60	-0.08992648
65	0x3e2bbafa	0.16770545
66	0x3d442bc0	0.047893286
67	0xbe104d21	-0.14091922
68	0xbe0a47cf	-0.13503955
69	0x3ddd1a71	0.10796059
70	0xbbc0af0d	-0.0058802427
71	0xbdd425e7	-0.10358792
72	0xbdc6e189	-0.09710986
73	0xbdfef95b	-0.124499045
74	0xbe01e079	-0.12683286
75	0xbe120f16	-0.14263567
76	0x3e2f3d85	0.17113312
77	0x3e7fc368	0.24976885
78	0x3d744a46	0.059641145
79	0xbe03a464	-0.12855679
80	0xbd873446	-0.06601767
81	0x3d56112e	0.052262478
82	0xbe5336e5	-0.2062641
83	0x3d96543c	0.07340285
84	0xbdb0ca03	-0.08632281
85	0x3d92cb5e	0.071676955
86	0xbd7056c1	-0.058676485
87	0xbd144ebc	-0.0362079
88	0x3ca12a95	0.019673625
89	0x3d7243d8	0.059146732
90	0xbe2b142a	-0.1670691
91	0x3e3194d6	0.17341933
92	0xbdc03cc2	-0.09386589
93	0x3d894176	0.06701939
94	0xbe0c003c	-0.13671964
95	0x3dac146c	0.08402333
96	0x3dc47e8b	0.09594449
97	0xbd25f13d	-0.040513266
98	0x3dc42659	0.09577627
99	0xbcf5b1f5	-0.029992083
100	0x3dc90ad5	0.09816519
101	0x3e576c63	0.2103744
102	0xbe29103b	-0.16510098
103	0x3a225235	0.00061920594
104	0x3cad241b	0.02113538
105	0x3e12fed9	0.14355029
106	0xbdc68066	-0.09692459
107	0x3b235de7	0.0024927796
108	0x3e18dc22	0.14927724
109	0x3df9d077	0.12197965
110	0xbd80d63a	-0.062908605
111	0x3b88daba	0.004176465
112	0xbd289508	-0.041157752
113	0xbd01b3ef	-0.03166574
114	0x3d43a2ca	0.04776267
115	0x3e28a67b	0.16469757
116	0xbda62af8	-0.081136644
117	0xbd9e81bd	-0.07739589
118	0x3a651185	0.00087382674
119	0x3e052191	0.13001086
120	0x3ce80cc2	0.028326396
121	0xbe2d719c	-0.1693787
122	0xbdecebbd	-0.11568401
123	0x3e372364	0.17884594
124	0x3dccfec9	0.10009534
125	0xbd538df6	-0.051649056
126	0x3d775cfe	0.06039142
127	0x3e19a704	0.15005118
128	0x3dd5fbee	0.104484424
129	0xbca16ad5	-0.019704262
130	0xbcdc83f7	-0.026918394
131	0x3da4b314	0.08041969
132	0x3dbdb269	0.09262545
133	0x3ab759e9	0.0013988587
134	0x3c6db47f	0.014508366
135	0xbe1a8ffd	-0.1509399
136	0x3e540883	0.20706372
137	0x3d65ad25	0.056073327
138	0x3dfdd593	0.12394252
139	0x3d82a234	0.06378594
140	0xbe06f12a	-0.13177934
141	0x3d9578f1	0.07298458
142	0xbd008328	-0.03137508
143	0xbc133a84	-0.008986119
144	0xbc51e95f	-0.012811988
145	0x3cb2b77e	0.021816012
146	0xbe2d9bc1	-0.16953947
147	0xbda1406a	-0.07873614
148	0xbd787920	-0.06066239
149	0x3e222681	0.15835
150	0xbdd32ac0	-0.10310888
151	0x3cd6df3e	0.026229497
152	0x3db80071	0.08984459
153	0xbe2e2a0d	-0.17008229
154	0x3dd14d92	0.102198735
155	0x3d954cc7	0.07290035
156	0x3cc21946	0.023693692
157	0x3dcc8e6e	0.09988104
158	0x3e080314	0.13282424
159	0xbdfab9eb	-0.12242492
160	0x3e010b7b	0.12602036
161	0xbbc93f72	-0.0061415965
162	0x3c4513b6	0.012028625
163	0x3d443695	0.047903616
164	0xbdd5e411	-0.10443891
165	0xbe36007a	-0.1777362
166	0xbce5b552	-0.028040562
167	0x3d1b4ed8	0.037916988
168	0xbbd1e2d0	-0.006405212
169	0xbda5df56	-0.080992386
170	0xbd6912f6	-0.05690285
171	0xbd24c8f0	-0.04023069
172	0x3cf0daf3	0.029401278
173	0x3e08dafc	0.13364786
174	0xbe487d16	-0.19578966
175	0x3df7b182	0.12094404
176	0xbc655d57	-0.013999305
177	0x3e288d09	0.1646005
178	0xbdd0ffdd	-0.10205052
179	0x3e026f25	0.12737711
180	0xbdb828f6	-0.08992188
181	0x3d88e06e	0.066834316
182	0xbda0d4f1	-0.07853115
183	0xbba9953a	-0.00517526
184	0xbd0909b0	-0.033456504
185	0x3d7bc855	0.06147035
186	0xbd9a6b49	-0.07539994
187	0xbcce04c4	-0.025148757
188	0x3cea99e7	0.02863784
189	0x3c9227e4	0.017841287
190	0xbbe87eb5	-0.007095183
191	0x3e33a53e	0.17543504
192	0x3b521757	0.0032057369
193	0x3dfbcfa9	0.122954674
194	0x3b446dd8	0.0029972699
195	0xbdf768aa	-0.1208051
196	0xbca86cb3	-0.020559644
197	0x3de3992d	0.111132
198	0xbdd8483b	-0.10560652
199	0xbd8ca40a	-0.068672255
200	0xbcb7b943	-0.022427207
201	0xbe1ef74f	-0.15524028
202	0xbe33c643	-0.175561
203	0xbd25d6dc	-0.04048811
204	0x3e11f7b9	0.14254655
205	0x3e273c5c	0.16331619
206	0xbd6c8bd1	-0.057750527
207	0xbdac7826	-0.08421354
208	0x3cdff552	0.027338658
209	0x3d737371	0.059436265
210	0xbe123125	-0.1427656
211	0xbc5e26b2	-0.01355903
212	0xbd268fbf	-0.04066443
213	0xbccdb7c8	-0.025112048
214	0x3d5ef760	0.054435134
215	0x3d8e5f68	0.06951791
216	0x3df3a3ac	0.11896452
217	0x3daf6f12	0.08566107
218	0xbe0974e5	-0.13423498
219	0x3cd5bd48	0.026091233
220	0xbbd7855a	-0.006577176
221	0xbd507f4b	-0.050902646
222	0xbd82db58	-0.06389493
223	0x3db2035b	0.08692046
224	0x3cfd311b	0.030907204
225	0xbd53f7d3	-0.051750015
226	0x3c9980cb	0.018738171
227	0xbc69e2d5	-0.014275272
228	0x3c638803	0.013887408
229	0x3df0dfe3	0.11761453
230	0xbd87d531	-0.0663246
231	0xbd65b7b4	-0.056083396
232	0x3da43b72	0.08019151
233	0x3e3a001d	0.18164106
234	0xbe5b0852	-0.21389893
235	0x3d6a2e2b	0.057172935
236	0x3b803353	0.0039123683
237	0xbe0272de	-0.12739131
238	0xbdd0ffec	-0.10205063
239	0x3d9d1e0e	0.07671748
240	0xbd59fcea	-0.053219713
241	0x3db4e6dd	0.08833096
242	0x3e09686d	0.13418742
243	0x3deb97b8	0.115035474
244	0xbc8c410a	-0.017120857
245	0x3d4e28a6	0.050331734
246	0xbdaf99d3	-0.085742615
247	0x3df28659	0.11842031
248	0xbe133c70	-0.14378524
249	0xbe01dcbc	-0.1268186
250	0xbe3f9bb1	-0.18711735
251	0x3dfd2859	0.12361211
252	0xbcdc45ff	-0.026888845
253	0x3d297e61	0.04138029
254	0x3d2f577e	0.04280805
255	0x3e1b0c52	0.15141419

model/batch_normalization_1/FusedBatchNormV3 f4 [64]
0	0x3ded4743	0.11585858
1	0x3f475d83	0.7787706
2	0x3fa571cf	1.2925357
3	0x3e99be6d	0.30028096
4	0x3ec2e239	0.3806322
5	0x3e9facbb	0.3118647
6	0x3f11685f	0.5679988
7	0x4000ce9f	2.0126112
8	0x3f3a105d	0.7268122
9	0x3da28043	0.0793462
10	0x3e0f5cf9	0.1400031
11	0x3d9b8afe	0.0759487
12	0x3f0fb7c4	0.5613978
13	0x3da5aad4	0.080892235
14	0x3f4d0e81	0.80100256
15	0x3f0a24a8	0.53962183
16	0x3d9ba699	0.07600135
17	0x3dcf9574	0.10135928
18	0x3e0039ce	0.1252205
19	0x3da58a52	0.08083023
20	0x3fe3dd55	1.780192
21	0x3fa884bc	1.3165507
22	0x3f04153d	0.5159491
23	0x3de1285a	0.109940246
24	0x3f87042a	1.0548146
25	0x3dc89a7b	0.0979509
26	0x3da7ea4c	0.081989855
27	0x3dd04ccd	0.101708986
28	0x3f0b95ae	0.5452527
29	0x3deb21df	0.1148107
30	0x400c5a84	2.1930246
31	0x3ef93e1f	0.48680207
32	0x3f6cb3bc	0.9246175
33	0x3f853dc7	1.0409478
34	0x3e08eb35	0.13370974
35	0x3eacdff9	0.33764628
36	0x3e0f009d	0.13965078
37	0x3e905137	0.28186962
38	0x3e229b48	0.15879548
39	0x3f8dfe3f	1.1093215
40	0x3ddc7ac4	0.10765603
41	0x3f620161	0.88283354
42	0x3f22778f	0.6346368
43	0x3f345523	0.7044241
44	0x3f8e67a4	1.1125379
45	0x3f410fba	0.7541462
46	0x3f2596c4	0.64683175
47	0x3e3b3967	0.18283616
48	0x3e1f1e00	0.15538788
49	0x3f3059ae	0.6888684
50	0x4000c2ab	2.0118816
51	0x3f1c2033	0.6098663
52	0x3de97e26	0.11401014
53	0x3f361f3a	0.711414
54	0x3e924961	0.2857161
55	0x3dd0051a	0.10157223
56	0x3f25fa3f	0.6483497
57	0x3f2585cd	0.6465729
58	0x3e02997b	0.1275386
59	0x3dc1cd29	0.09462959
60	0x3e3aedac	0.18254727
61	0x3e5ae666	0.21376953
62	0x3e0d5eb7	0.13805662
63	0x3dd2dd76	0.102961466

model/batch_normalization_1/FusedBatchNormV31 f4 [64]
0	0xbeb97824	-0.36224473
1	0xbeb861a0	-0.36011982
2	0xbebdf828	-0.3710339
3	0xbf053ad5	-0.52042896
4	0xbf256d6b	-0.64620084
5	0xbf12f37e	-0.5740279
6	0xbea8fd82	-0.3300591
7	0xbeb7226e	-0.35768455
8	0xbe8097ba	-0.25115758
9	0xbf00b97d	-0.5028303
10	0xbeafd9ee	-0.34345955
11	0xbec4f867	-0.38470766
12	0xbe874b3f	-0.26424596
13	0xbee11cc0	-0.43967247
14	0xbec5469f	-0.38530442
15	0xbeb1bd9e	-0.3471498
16	0xbea029f4	-0.31282008
17	0xbe966b63	-0.29378805
18	0xbf04cddb	-0.5187661
19	0xbee6952b	-0.4503568
20	0xbe9000d7	-0.2812564
21	0xbe3827fc	-0.17984003
22	0xbe90c6be	-0.28276628
23	0xbf06cd89	-0.5265737
24	0xbebd7280	-0.3700142
25	0xbe961548	-0.2931311
26	0xbeb5190e	-0.35370678
27	0xbed5b75a	-0.4174145
28	0xbe713d40	-0.23558521
29	0xbeb3abbd	-0.35091963
30	0xbe263517	-0.1623119
31	0xbeaefbc1	-0.34176448
32	0xbe8ab10c	-0.270882
33	0xbebc86c5	-0.3682157
34	0xbec83823	-0.3910533
35	0xbeb9fb54	-0.3632456
36	0xbed6cebd	-0.41954604
37	0xbed355bb	-0.41276345
38	0xbedda9b2	-0.4329353
39	0xbecaa66b	-0.39580092
40	0xbeb7b2fe	-0.35878748
41	0xbed7d8ff	-0.42157742
42	0xbe958e19	-0.29209974
43	0xbeb2ec0c	-0.34945714
44	0xbebab2ce	-0.36464542
45	0xbec29921	-0.38007453
46	0xbee6b42e	-0.4505934
47	0xbecfb65b	-0.40568814
48	0xbf0359ae	-0.51308715
49	0xbeff92b7	-0.49916622
50	0xbe88d9ff	-0.26728818
51	0xbe781cad	-0.24229689
52	0xbeb128c2	-0.34601408
53	0xbecd7698	-0.40129542
54	0xbee6963f	-0.45036504
55	0xbea75d49	-0.32688358
56	0xbe88bcae	-0.2670645
57	0xbf1e806d	-0.6191471
58	0xbecd992a	-0.40155917
59	0xbec11fb3	-0.37719497
60	0xbee40db9	-0.4454172
61	0xbed8c729	-0.42339447
62	0xbee7dc5e	-0.45285314
63	0xbedd7cf8	-0.43259406

model/batch_normalization/FusedBatchNormV3 f4 [32]
0	0x41ed626b	29.673056
1	0x3fdbee16	1.7182033
2	0x40b61c81	5.6909795
3	0x406889f7	3.6334207
4	0x4099c862	4.805711
5	0x40291336	2.6417975
6	0x40418e69	3.024317
7	0x42027504	32.614273
8	0x3faf3ff5	1.3691393
9	0x40d94feb	6.7910056
10	0x40036087	2.0527666
11	0x4046cb75	3.106168
12	0x41e8499d	29.035944
13	0x41ed8703	29.690924
14	0x3fe2e05d	1.772472
15	0x40aa1080	5.314514
16	0x3f8b161a	1.086612
17	0x41a3bb83	20.466558
18	0x411a9605	9.661626
19	0x400b1b1b	2.1735294
20	0x41f7a62a	30.956135
21	0x40498017	3.148443
22	0x40ad0a22	5.407487
23	0x4227ddcc	41.9666
24	0x41a45e52	20.546055
25	0x41eeec31	29.865328
26	0x41eaa697	29.331343
27	0x4203b302	32.924812
28	0x41d42209	26.516619
29	0x40260878	2.594267
30	0x40ae3501	5.44397
31	0x40b808c7	5.7510715

model/batch_normalization/FusedBatchNormV31 f4 [32]
0	0x3e4bbe2c	0.19896764
1	0xbf475c0f	-0.77874845
2	0xbe0882fc	-0.13331217
3	0xbf568379	-0.8379436
4	0xbe7ca966	-0.24673995
5	0xbf75f49b	-0.96076363
6	0xbf096c28	-0.5368066
7	0x3ea6dab9	0.32588747
8	0xbf2c64ca	-0.6734129
9	0xbec2700f	-0.3797612
10	0xbf78f9b8	-0.9725604
11	0xbf3286ab	-0.69736737
12	0x3cc8aee5	0.024497459
13	0xbda7688b	-0.08174237
14	0xbf7e871e	-0.9942492
15	0xbf0c1194	-0.5471432
16	0xbf0d9496	-0.5530485
17	0xbf1143c4	-0.5674403
18	0xbf4f47de	-0.80969036
19	0xbf65e2bc	-0.89799094
20	0x3b954a78	0.0045559965
21	0xbf803da6	-1.0018814
22	0xbe6708cc	-0.2256195
23	0xbe179fcc	-0.14807051
24	0xbe45063e	-0.19240662
25	0xbb6b5b0c	-0.0035912422
26	0xbc9d4724	-0.019198962
27	0x3e0baa20	0.13639116
28	0x3e390af6	0.18070588
29	0xbf2d0636	-0.675876
30	0xbea3f99c	-0.32026374
31	0xbf9d99a5	-1.2312514

model/dense/BiasAdd/ReadVariableOp/resource f4 [128]
0	0xbd6e0343	-0.05810858
1	0xbc6b6049	-0.014366218
2	0xbd3aa730	-0.0455696
3	0xbdbea493	-0.09308734
4	0xbd6e755c	-0.05821739
5	0xbe15e16e	-0.14636776
6	0xbd537eec	-0.051634714
7	0xbe0334af	-0.12813066
8	0xbd7b9cd0	-0.061428845
9	0xbe52fd68	-0.2060448
10	0xbd6d9094	-0.05799921
11	0xbddd1058	-0.10794133
12	0xbdb1e772	-0.08686723
13	0xbd4a83f2	-0.04944224
14	0xbd7a7fed	-0.061157156
15	0xbdb084e6	-0.08619098
16	0xbdc134e5	-0.09433917
17	0xbd24a23b	-0.040193778
18	0xbdd313b4	-0.103064924
19	0x3c083fa7	0.008315957
20	0xbe9fd48f	-0.31216857
21	0xbdecdd37	-0.11565631
22	0xbcbe4f7e	-0.023231264
23	0xbdb88635	-0.09009973
24	0xbdf99a74	-0.12187663
25	0xbd2ace84	-0.041700855
26	0xbd5ae60b	-0.053442042
27	0xbdd1a26b	-0.10236057
28	0xbe1bb191	-0.15204455
29	0xbd5f25db	-0.05447946
30	0xbd725fa9	-0.05917326
31	0xbd703c0b	-0.05865101
32	0xbe675132	-0.22589567
33	0x3d213b77	0.03936335
34	0xbd50df5a	-0.050994255
35	0xbd8d5af6	-0.06902115
36	0xbd2dbf9d	-0.042419065
37	0xbd4f9a8a	-0.05068449
38	0xbc81556c	-0.015787803
39	0xbe149b54	-0.14512378
40	0xbd6e539f	-0.058185216
41	0xbd85da42	-0.0653577
42	0xbd08bb1a	-0.03338156
43	0xbdfb6778	-0.122755945
44	0x3d2cd2a5	0.042193074
45	0xbe2fe93d	-0.17178817
46	0xbe174bb2	-0.14774969
47	0xbd531337	-0.051531997
48	0x3d0b30a9	0.033981953
49	0xbd5f18da	-0.05446706
50	0xbe64749b	-0.22310106
51	0xbd88be0c	-0.066768736
52	0xbcdecd0e	-0.027197387
53	0x3d8bc1ca	0.06824072
54	0xbc0d98d0	-0.00864239
55	0xbd5ec979	-0.054391358
56	0xbe0c9c24	-0.13731438
57	0xbc95df90	-0.01829508
58	0xbd9ce12a	-0.07660134
59	0xbdc3deef	-0.095640056
60	0xbcad34cc	-0.02114334
61	0xbe947521	-0.28995612
62	0xbd85203a	-0.06500287
63	0xbd497280	-0.04918146
64	0xbda42f68	-0.080168545
65	0xbdaa8c72	-0.08327569
66	0xbdc72cf5	-0.09725372
67	0xbc15a215	-0.009132882
68	0xbd3cabe0	-0.04606235
69	0xbd4fdb6e	-0.050746374
70	0xbc7ea7b4	-0.015542913
71	0xbd962b13	-0.073324345
72	0xbe79434f	-0.24342082
73	0xbd5f9f1f	-0.05459511
74	0xbe05ca41	-0.13065435
75	0xbe1892b7	-0.14899717
76	0xbd6c04e9	-0.05762187
77	0xbd7761e5	-0.060396094
78	0xbd50ebe0	-0.051006198
79	0xbd408b16	-0.047007643
80	0xbde96c15	-0.11397568
81	0xbcd2dfa5	-0.025741408
82	0xbdb53c6d	-0.08849416
83	0x3dc0b658	0.09409779
84	0xbd25d12a	-0.040482678
85	0xbd57961f	-0.0526334
86	0xbd4a58a2	-0.049400933
87	0xbdc88e1c	-0.0979273
88	0xbe1b7a09	-0.15183271
89	0xbe2291eb	-0.15875976
90	0xbd5471bb	-0.051866274
91	0xbdb3ef42	-0.08785869
92	0xbd2a9900	-0.04164982
93	0x3cd61fa7	0.02613814
94	0xbd42b1c0	-0.047532797
95	0xbdd5a8d8	-0.10432595
96	0x3d856a51	0.06514419
97	0xbd6ceeaa	-0.057844795
98	0x3af5809a	0.0018730343
99	0xbde67557	-0.112528495
100	0xbd381b00	-0.044947624
101	0xbd785ba5	-0.060634274
102	0xbd1adaf2	-0.03780646
103	0xbd021a34	-0.03176327
104	0xbdc75f7f	-0.09735011
105	0xbdac1072	-0.08401574
106	0xbdaa8629	-0.0832637
107	0xbd44437f	-0.04791593
108	0x3c189263	0.009312245
109	0xbd7871fb	-0.060655575
110	0xbd539419	-0.05165491
111	0xbd862055	-0.065491356
112	0xbd4b484e	-0.049629502
113	0xbd4f3d8c	-0.050595805
114	0xbd9434b8	-0.07236618
115	0xbe0126a7	-0.12612401
116	0xbe5add1b	-0.21373408
117	0xbd53428a	-0.05157713
118	0x3ce23309	0.027612226
119	0xbd9101a4	-0.07080391
120	0xbce12045	-0.027481208
121	0x3ba3c1a4	0.004997449
122	0xbd343979	-0.044000123
123	0xbd4ae583	-0.049535286
124	0xbd2402fc	-0.04004191
125	0xbd9dbce2	-0.07702042
126	0xbd833415	-0.06406418
127	0xbe1bdc52	-0.15220764

model/dense_1/BiasAdd/ReadVariableOp/resource f4 [2]
0	0x3e9aeede	0.30260366
1	0xbe9aeedf	-0.3026037

model/preprocessing_pcen/stft/hann_window/sub_2 f4 [2048]
0	0x00000000	0.0
1	0x361e0000	2.3543835e-06
2	0x371e0000	9.417534e-06
3	0x37b1c000	2.1189451e-05
4	0x381de000	3.7640333e-05
5	0x3876c000	5.8829784e-05
6	0x38b1a000	8.46982e-05
7	0x38f1d000	0.000115305185
8	0x391de800	0.00015059114
9	0x3947d800	0.00019058585
10	0x3976b800	0.00023528934
11	0x39954400	0.0002847016
12	0x39b1a000	0.0003387928
13	0x39d07800	0.00039762259
14	0x39f1c400	0.00046113133
15	0x3a0ac400	0.00052934885
16	0x3a1de200	0.00060227513
17	0x3a323a00	0.0006798804
18	0x3a47d000	0.0007622242
19	0x3a5e9e00	0.0008492172
20	0x3a76aa00	0.0009409487
21	0x3a87f800	0.0010373592
22	0x3a953900	0.0011384785
23	0x3aa31700	0.0012442768
24	0x3ab19300	0.0013547838
25	0x3ac0ac00	0.0014699697
26	0x3ad06300	0.0015898645
27	0x3ae0b700	0.0017144382
28	0x3af1a800	0.0018436909
29	0x3b019b80	0.0019776523
30	0x3b0ab180	0.0021162927
31	0x3b141600	0.002259612
32	0x3b1dc980	0.0024076402
33	0x3b27cb80	0.0025603473
34	0x3b321b80	0.0027177036
35	0x3b3cba80	0.0028797686
36	0x3b47a800	0.0030465126
37	0x3b52e400	0.0032179356
38	0x3b5e6e80	0.0033940375
39	0x3b6a4700	0.0035747886
40	0x3b766e00	0.0037602186
41	0x3b817200	0.0039503574
42	0x3b87d3c0	0.0041451156
43	0x3b8e5d00	0.0043445826
44	0x3b950d00	0.004548669
45	0x3b9be480	0.004757464
46	0x3ba2e300	0.004970908
47	0x3baa0880	0.0051890016
48	0x3bb15500	0.005411744
49	0x3bb8c8c0	0.0056391656
50	0x3bc06340	0.0058712065
51	0x3bc82500	0.0061079264
52	0x3bd00dc0	0.0063492954
53	0x3bd81d80	0.0065953135
54	0x3be05400	0.006845951
55	0x3be8b180	0.007101238
56	0x3bf13600	0.0073611736
57	0x3bf9e180	0.0076257586
58	0x3c0159e0	0.007894963
59	0x3c05d660	0.008168787
60	0x3c0a6660	0.00844726
61	0x3c0f09c0	0.008730352
62	0x3c13c080	0.009018064
63	0x3c188aa0	0.0093103945
64	0x3c1d6840	0.009607375
65	0x3c225920	0.009908944
66	0x3c275d40	0.010215104
67	0x3c2c74e0	0.010525912
68	0x3c319fc0	0.01084131
69	0x3c36de00	0.011161327
70	0x3c3c2f80	0.011485934
71	0x3c419440	0.011815131
72	0x3c470c60	0.0121489465
73	0x3c4c97a0	0.012487322
74	0x3c523640	0.012830317
75	0x3c57e800	0.013177872
76	0x3c5dad00	0.013530016
77	0x3c638540	0.01388675
78	0x3c6970a0	0.014248043
79	0x3c6f6f40	0.014613926
80	0x3c758100	0.014984369
81	0x3c7ba5e0	0.015359372
82	0x3c80ef00	0.015738964
83	0x3c841490	0.016123086
84	0x3c8743b0	0.016511768
85	0x3c8a7c60	0.01690501
86	0x3c8dbe90	0.017302781
87	0x3c910a50	0.017705113
88	0x3c945f90	0.018111974
89	0x3c97be50	0.018523365
90	0x3c9b2690	0.018939286
91	0x3c9e9860	0.019359767
92	0x3ca213a0	0.019784749
93	0x3ca59860	0.02021426
94	0x3ca92690	0.02064827
95	0x3cacbe40	0.021086812
96	0x3cb05f50	0.021529824
97	0x3cb409e0	0.021977365
98	0x3cb7bde0	0.022429407
99	0x3cbb7b50	0.022885948
100	0x3cbf4230	0.02334699
101	0x3cc31270	0.023812503
102	0x3cc6ec10	0.024282485
103	0x3ccacf20	0.024756968
104	0x3ccebb90	0.025235921
105	0x3cd2b150	0.025719315
106	0x3cd6b080	0.026207209
107	0x3cdab900	0.026699543
108	0x3cdecae0	0.027196348
109	0x3ce2e610	0.027697593
110	0x3ce70a90	0.028203279
111	0x3ceb3860	0.028713405
112	0x3cef6f80	0.029227972
113	0x3cf3afe0	0.02974695
114	0x3cf7f9a0	0.030270398
115	0x3cfc4c90	0.030798227
116	0x3d005468	0.031330496
117	0x3d028728	0.031867176
118	0x3d04be80	0.032408237
119	0x3d06fa80	0.03295374
120	0x3d093b10	0.033503592
121	0x3d0b8040	0.034057856
122	0x3d0dca10	0.03461653
123	0x3d101870	0.035179555
124	0x3d126b68	0.03574696
125	0x3d14c2f8	0.03631875
126	0x3d171f18	0.036894888
127	0x3d197fc8	0.037475377
128	0x3d1be510	0.038060248
129	0x3d1e4ee0	0.03864944
130	0x3d20bd40	0.039242983
131	0x3d233030	0.039840877
132	0x3d25a7a0	0.040443063
133	0x3d2823a8	0.04104963
134	0x3d2aa430	0.041660488
135	0x3d2d2938	0.042275637
136	0x3d2fb2d0	0.04289514
137	0x3d3240e0	0.0435189
138	0x3d34d378	0.044146985
139	0x3d376a90	0.04477936
140	0x3d3a0620	0.045415998
141	0x3d3ca630	0.046056926
142	0x3d3f4ac0	0.046702147
143	0x3d41f3c8	0.04735163
144	0x3d44a140	0.048005342
145	0x3d475338	0.048663348
146	0x3d4a09a0	0.049325585
147	0x3d4cc478	0.049992055
148	0x3d4f83c0	0.050662756
149	0x3d524780	0.05133772
150	0x3d550fa8	0.052016884
151	0x3d57dc38	0.05270025
152	0x3d5aad38	0.05338785
153	0x3d5d82a0	0.05407965
154	0x3d605c68	0.054775625
155	0x3d633aa0	0.05547583
156	0x3d661d30	0.05618018
157	0x3d690428	0.05688873
158	0x3d6bef80	0.057601452
159	0x3d6edf38	0.058318347
160	0x3d71d348	0.059039384
161	0x3d74cbb0	0.059764564
162	0x3d77c870	0.060493886
163	0x3d7ac988	0.06122735
164	0x3d7dcef8	0.06196496
165	0x3d806c5c	0.06270668
166	0x3d81f364	0.06345251
167	0x3d837c94	0.06420246
168	0x3d8507ec	0.064956516
169	0x3d869568	0.06571466
170	0x3d882508	0.06647688
171	0x3d89b6cc	0.06724319
172	0x3d8b4ab4	0.06801358
173	0x3d8ce0bc	0.06878802
174	0x3d8e78e8	0.06956655
175	0x3d901330	0.0703491
176	0x3d91af98	0.0711357
177	0x3d934e1c	0.071926326
178	0x3d94eec0	0.072721004
179	0x3d969180	0.07351971
180	0x3d983658	0.0743224
181	0x3d99dd4c	0.07512912
182	0x3d9b8658	0.075939834
183	0x3d9d317c	0.07675454
184	0x3d9edeb4	0.07757321
185	0x3da08e04	0.07839587
186	0x3da23f68	0.0792225
187	0x3da3f2e4	0.08005312
188	0x3da5a870	0.080887675
189	0x3da76008	0.081726134
190	0x3da919b8	0.082568586
191	0x3daad570	0.08341491
192	0x3dac933c	0.0842652
193	0x3dae5314	0.0851194
194	0x3db014f8	0.085977495
195	0x3db1d8e8	0.0868395
196	0x3db39ee0	0.087705374
197	0x3db566e0	0.088575125
198	0x3db730e8	0.08944875
199	0x3db8fcf8	0.09032625
200	0x3dbacb0c	0.09120759
201	0x3dbc9b28	0.09209281
202	0x3dbe6d44	0.092981845
203	0x3dc04164	0.09387472
204	0x3dc21784	0.094771415
205	0x3dc3efa4	0.09567192
206	0x3dc5c9c0	0.096576214
207	0x3dc7a5e0	0.09748435
208	0x3dc983f8	0.09839624
209	0x3dcb640c	0.09931192
210	0x3dcd461c	0.10023138
211	0x3dcf2a24	0.101154596
212	0x3dd11020	0.10208154
213	0x3dd2f818	0.103012264
214	0x3dd4e204	0.103946716
215	0x3dd6cde4	0.10488489
216	0x3dd8bbb8	0.105826795
217	0x3ddaab7c	0.10677239
218	0x3ddc9d30	0.10772169
219	0x3dde90d8	0.108674705
220	0x3de0866c	0.10963139
221	0x3de27df0	0.11059177
222	0x3de4775c	0.111555785
223	0x3de672b4	0.11252347
224	0x3de86ff4	0.11349478
225	0x3dea6f1c	0.11446974
226	0x3dec702c	0.115448326
227	0x3dee7324	0.11643055
228	0x3df07800	0.11741638
229	0x3df27ec0	0.11840582
230	0x3df48760	0.11939883
231	0x3df691e0	0.12039542
232	0x3df89e40	0.12139559
233	0x3dfaac7c	0.1223993
234	0x3dfcbc98	0.12340659
235	0x3dfece94	0.124417454
236	0x3e007132	0.1254318
237	0x3e017c08	0.1264497
238	0x3e0287ca	0.12747112
239	0x3e039476	0.12849602
240	0x3e04a20e	0.12952444
241	0x3e05b090	0.13055634
242	0x3e06bffc	0.13159174
243	0x3e07d050	0.13263059
244	0x3e08e18a	0.13367286
245	0x3e09f3ae	0.13471863
246	0x3e0b06b8	0.13576782
247	0x3e0c1aa8	0.13682044
248	0x3e0d2f7c	0.13787645
249	0x3e0e4538	0.13893592
250	0x3e0f5bd4	0.13999873
251	0x3e107358	0.141065
252	0x3e118bbc	0.1421346
253	0x3e12a500	0.14320755
254	0x3e13bf28	0.14428389
255	0x3e14da32	0.1453636

model/conv2d/BiasAdd/ReadVariableOp/resource f4 [32]
0	0xbcc163c8	-0.02360715
1	0xbd407ef2	-0.046996064
2	0xbdb6189c	-0.088914126
3	0x3e0203c7	0.12696753
4	0xbec187e1	-0.3779898
5	0x3d99152d	0.07474742
6	0x3d666df4	0.056257203
7	0xbdb0f3ba	-0.08640237
8	0x3ca28770	0.019839972
9	0x3cb8dae6	0.022565316
10	0xbc8e3c1c	-0.017362647
11	0x3d3b21ff	0.045686718
12	0xbd13a4ee	-0.03604596
13	0xbd9e1db6	-0.07720511
14	0x3d889680	0.066693306
15	0x3d63ac55	0.05558427
16	0xbd1b3c61	-0.03789938
17	0x3d7ee867	0.062233355
18	0x3e55d4e3	0.20881991
19	0x3d05d293	0.032671522
20	0xbda42bde	-0.080161795
21	0x3d1f74c0	0.0389297
22	0xbcfbf975	-0.030758599
23	0xbdbbc530	-0.0916847
24	0x3e1ad2f2	0.15119532
25	0xbdd4308d	-0.10360823
26	0xbd900f57	-0.07034176
27	0xbbdc76de	-0.0067280373
28	0xbd8e8055	-0.06958071
29	0x3d570d0a	0.05250267
30	0x3c7dba4d	0.015486312
31	0x3eea6185	0.45777526

model/conv2d_1/BiasAdd/ReadVariableOp/resource f4 [64]
0	0xbd623ee1	-0.055235747
1	0x3d3682a7	0.044558194
2	0xbd0c0344	-0.0341828
3	0xbccd0b44	-0.025029786
4	0xbcafc5f3	-0.021456694
5	0xbd1dc87a	-0.038521267
6	0x3d04fe38	0.032469004
7	0xbdd6ea17	-0.10493868
8	0x3cc87747	0.024470938
9	0xbd2468d0	-0.04013902
10	0xbcd2fd54	-0.025755562
11	0xbd88f4c9	-0.06687314
12	0xbdb8ab5a	-0.09017058
13	0xbd24adc7	-0.04020479
14	0xbe243ceb	-0.16038863
15	0xbd686dbf	-0.056745287
16	0xbd8cd416	-0.0687639
17	0xbd10ead0	-0.035380185
18	0xbd7a8b9d	-0.0611683
19	0xbd9ee3c4	-0.077582866
20	0xbcc5130a	-0.02405693
21	0xbd81ba18	-0.06334323
22	0xbd970236	-0.073734686
23	0xbd282873	-0.0410542
24	0xbbb9940f	-0.005663402
25	0xbd84385e	-0.06456064
26	0xbd887fa5	-0.06664971
27	0xbd96495d	-0.07338212
28	0xbc971a1c	-0.018445067
29	0xbd9e29ab	-0.07722791
30	0xbda94fb4	-0.08267155
31	0x3d15be87	0.036558654
32	0xbda3c11f	-0.07995819
33	0xbc627869	-0.013822653
34	0xbc2d72e0	-0.01058647
35	0xbd3079b4	-0.043084815
36	0xbd989f20	-0.07452226
37	0x3e09b5f6	0.13448319
38	0xbd408887	-0.047005203
39	0xbe1c5af7	-0.15269075
40	0xbd367fe8	-0.044555575
41	0xbd627850	-0.05529052
42	0xbd89d69a	-0.06730385
43	0xbc49dc94	-0.012320656
44	0xbdf4d1a1	-0.11954046
45	0xbc5902dc	-0.013245311
46	0xbd40f0e2	-0.047104724
47	0xbd044523	-0.032292496
48	0xbd411996	-0.04714354
49	0xbdcc7e22	-0.099849954
50	0xbdf49294	-0.1194202
51	0xbd7492c4	-0.05971028
52	0x3d93f8d9	0.07225198
53	0xbd4ba5d2	-0.049718685
54	0xbcca8420	-0.024721205
55	0xbd0a74fb	-0.033802968
56	0xbd85a0a6	-0.06524782
57	0xbcb7524b	-0.022378108
58	0xbd88fb0d	-0.06688509
59	0xbd288639	-0.04114363
60	0xbcb9bbd6	-0.022672575
61	0xbc0c6261	-0.008568377
62	0xbd82c142	-0.06384517
63	0xbdc5487c	-0.09632966

model/conv2d/Conv2D f4 [32, 3, 3, 1]
0	0xbd7ba6f9	-0.061438534
1	0xbd808606	-0.06275563
2	0xbde7a38a	-0.113104895
3	0xbe0a6c59	-0.13517894
4	0xbdc68f57	-0.09695309
5	0xbe0d9878	-0.13827693
6	0x3c6db311	0.014508025
7	0xbded41e3	-0.115848325
8	0xbe0214f2	-0.12703303
9	0x3de7d13e	0.11319207
10	0xbd67eb07	-0.056620624
11	0xbd3cb5f7	-0.046071973
12	0x3e02a459	0.12758006
13	0x3c329d04	0.010901693
14	0x3deb0358	0.11475247
15	0x3e3e90de	0.1860995
16	0x3e3d107b	0.18463318
17	0xbd393538	-0.04521677
18	0xbdac3cc0	-0.08410025
19	0xbdb21802	-0.086959854
20	0xbd8fb239	-0.07016415
21	0xbd6cb48d	-0.057789374
22	0xbe2165b9	-0.1576146
23	0x3cb4ddf6	0.022078495
24	0x3e2f640f	0.17128013
25	0x3defa863	0.11702039
26	0x3dddd595	0.10831753
27	0x3daca584	0.08430007
28	0x3cd28baf	0.025701372
29	0xbd97a157	-0.0740382
30	0x3e1264f5	0.14296325
31	0x3e8ca56b	0.27469954
32	0xbe33e892	-0.17569187
33	0xbdccc0bf	-0.09997701
34	0xbb88d48b	-0.0041757277
35	0xbd2d20d3	-0.04226763
36	0x3e4b42ac	0.19849652
37	0xbe10e4e8	-0.14149821
38	0xbd3c7fc3	-0.04602028
39	0x3e854a88	0.26033425
40	0xbc174608	-0.009233005
41	0x3ce8b592	0.028406892
42	0xbdc8e875	-0.09809963
43	0x3e44dbec	0.19224519
44	0xbe0b56d0	-0.13607335
45	0x3ddeca1f	0.10878395
46	0xbe145f92	-0.14489582
47	0x3d83757b	0.06418892
48	0x3e8a37b1	0.26995614
49	0x3cda37b4	0.02663789
50	0xbdf827d8	-0.121169746
51	0x3e247ceb	0.16063277
52	0x3ddaf14c	0.10690555
53	0xbd7bb5ef	-0.061452802
54	0x3d6617f8	0.056175202
55	0x3db4fda8	0.088374436
56	0x3d673b0c	0.056452796
57	0xb9c86b0f	-0.00038226738
58	0x3de67ef7	0.11254685
59	0xbb10896d	-0.0022054568
60	0xbe4b4269	-0.19849552
61	0x3d52bec8	0.051451474
62	0x3cdcfc9b	0.02697592
63	0xbdfa8de0	-0.12234092
64	0xbdd65aac	-0.10466513
65	0xbe0b7188	-0.13617527
66	0x3cbdbcf5	0.02316139
67	0x3c90bb2d	0.017667377
68	0xbe6d43af	-0.2317035
69	0xbe4ab36a	-0.19795004
70	0xbdb9643a	-0.0905232
71	0x3d735145	0.059403677
72	0xbc8d8189	-0.017273681
73	0xbd38a7f2	-0.04508204
74	0x3d81720c	0.06320581
75	0x3ddf48e6	0.10902576
76	0x3e238b1b	0.15971033
77	0x3c00a2dd	0.00785133
78	0x3e135d8d	0.14391156
79	0x3b779cf0	0.003778275
80	0x3e3159a0	0.17319345
81	0xbde59b78	-0.11211294
82	0xbe6ecd78	-0.23320568
83	0xbe6eedc2	-0.23332885
84	0xbda568a4	-0.08076599
85	0x3e2f715a	0.17133084
86	0x3dfbdc15	0.12297837
87	0xbd788bca	-0.06068019
88	0x3e2a666f	0.16640638
89	0x3d3d1617	0.046163645
90	0xbc460809	-0.012086877
91	0x3dab8edf	0.0837686
92	0xbd65e8b7	-0.056130137
93	0x3d39e482	0.045383938
94	0x3e11923b	0.14215939
95	0x3e277515	0.16353257
96	0x3abd6eee	0.0014452615
97	0x3daa9585	0.083293
98	0x3d243d03	0.040097248
99	0x3df9f5ee	0.122051105
100	0xbd861dfc	-0.06548688
101	0x3ac36d62	0.0014909918
102	0x3e40e275	0.18836387
103	0x3e048d6c	0.12944573
104	0xbdefe7bc	-0.11714122
105	0x3de03c91	0.10949052
106	0x3d1f808e	0.03894096
107	0xbe3150f3	-0.17316036
108	0xbdc43b6a	-0.09581645
109	0xbe467739	-0.19381417
110	0xbe31b679	-0.17354764
111	0xbdf43d42	-0.119257465
112	0x3ce88f51	0.028388651
113	0xbe350d54	-0.17680866
114	0xbd19b3b5	-0.037524898
115	0x3c216787	0.009851343
116	0x3d9ce7b2	0.0766138
117	0xbd275028	-0.040847927
118	0xbe1561d3	-0.14588098
119	0xbdf446e1	-0.119275816
120	0xbd989219	-0.07449741
121	0xbe562224	-0.20911461
122	0x3dbd8889	0.09254558
123	0xbe0e6d15	-0.13908799
124	0xbd6ee1cb	-0.0583208
125	0xbd34bb0a	-0.044123687
126	0x3dfe3280	0.12411976
127	0x3d8c03c7	0.06836658
128	0x3e1a2a7f	0.15055273
129	0xbd35c2dd	-0.04437529
130	0xbcacdde0	-0.021101892
131	0xbd57afbe	-0.052657835
132	0x3dd2fa06	0.103015944
133	0x3dd1ec37	0.102501325
134	0x3e3d20ec	0.1846959
135	0x3dc1b281	0.09457875
136	0xbdc1d948	-0.09465271
137	0xbcdffaa0	-0.027341187
138	0x3d80a345	0.06281141
139	0xbe886e3a	-0.26646596
140	0x3e3a2162	0.18176797
141	0x3e381db4	0.17980081
142	0xbe27a3d8	-0.16371095
143	0x3b95214b	0.004551088
144	0x3d934789	0.071913786
145	0x3e523ff2	0.20532206
146	0x3d48fa2b	0.049066704
147	0xbccbf6f0	-0.024898022
148	0x3dcda568	0.10041314
149	0x3dc4a74e	0.09602223
150	0x3e0e9b42	0.13926414
151	0x3ca90dd0	0.02063647
152	0xbcd2e547	-0.025744094
153	0xbe03aef1	-0.12859704
154	0x3e6ac5cd	0.22927018
155	0xbe06cfee	-0.13165256
156	0xbe8dcd93	-0.27695903
157	0x3e36a48b	0.17836206
158	0xbdebc6c6	-0.115125224
159	0xbe08f658	-0.13375223
160	0x3cc1ba6c	0.023648463
161	0xbdee6aef	-0.1164149
162	0xbe693bce	-0.2277672
163	0xbedd7861	-0.43255904
164	0xbed958d2	-0.42450577
165	0x3e7bd80c	0.24594134
166	0xbe083c3f	-0.13304232
167	0x3ca5940b	0.020212194
168	0x3eb78d2f	0.35849902
169	0xbe08cb38	-0.13358772
170	0xbd4a0955	-0.049325306
171	0x3e1e9248	0.1548549
172	0xbd15f73c	-0.036612734
173	0x3c8100a4	0.015747376
174	0xba92c7ec	-0.0011198497
175	0xbd31ee77	-0.04344031
176	0x3ea9f77b	0.33196625
177	0xbe0336dd	-0.12813897
178	0x3e2ce568	0.16884387
179	0xbcc20117	-0.02368216
180	0xbe895bc1	-0.26827815
181	0xbe4b97ca	-0.19882122
182	0x3dc3848a	0.09546764
183	0xbe1e784d	-0.15475579
184	0xbe0920db	-0.1339144
185	0xbcb13a60	-0.02163428
186	0x3d0b1a2a	0.0339605
187	0xbc3c6bb1	-0.011500285
188	0xbe3d6376	-0.18494973
189	0xbda431bc	-0.080172986
190	0x3d88ff65	0.06689338
191	0x3d7d2341	0.0618012
192	0x3d40a08b	0.047028106
193	0xbdbd74dd	-0.092508055
194	0x3e7ba9e3	0.24576525
195	0xbdf4e583	-0.119578384
196	0xbdaad212	-0.08340849
197	0x3e4f8b91	0.20268084
198	0xbcee5c72	-0.029096816
199	0x3dbccaf1	0.092183955
200	0xbd157ed1	-0.036497895
201	0xbeabecbe	-0.33579057
202	0x3dfb87a4	0.12281731
203	0x3ea18196	0.3154418
204	0xbee2db70	-0.44308043
205	0x39c9bde9	0.00038479202
206	0x3e1f0511	0.15529276
207	0xbea37b1e	-0.31929868
208	0x3e2db866	0.16964874
209	0xbd346c43	-0.04404856
210	0xbe333040	-0.17498875
211	0xbe4cd7c2	-0.2000418
212	0xbe34f9e2	-0.17673448
213	0xbe05c3bf	-0.13062952
214	0xbe1cf2d6	-0.1532701
215	0xbddc109f	-0.10745358
216	0xbe7ebf89	-0.24877752
217	0xbe4bd5e6	-0.19905815
218	0xbe6e59e8	-0.23276484
219	0xbe16e48b	-0.1473562
220	0xbe1956a2	-0.14974454
221	0xbe2b69ca	-0.16739574
222	0x3df2e3eb	0.11859878
223	0x3dad4ab7	0.08461516
224	0x3d803008	0.06259161
225	0xbcac5fa6	-0.021041702
226	0xbddd80e5	-0.108156
227	0xbdf5c679	-0.12000746
228	0xbda41e7f	-0.08013629
229	0xbd0db6db	-0.034598213
230	0xbe5a3298	-0.21308362
231	0xbdb73bb3	-0.089469336
232	0xbdc15180	-0.09439373
233	0x3da59e23	0.08086803
234	0xbe5423f2	-0.20716837
235	0xbe1575dc	-0.14595741
236	0xbe22dd8a	-0.15904823
237	0xbdd409ff	-0.10353469
238	0xbd72f8d9	-0.05931935
239	0x3d38c582	0.045110233
240	0x3d2606e5	0.04053392
241	0xbdc9abec	-0.098472446
242	0xbe469851	-0.19394042
243	0xbe8fe2da	-0.28102762
244	0xbe4bc513	-0.19899397
245	0xbe0a0d3e	-0.13481614
246	0xbc865570	-0.016398162
247	0xbe1a4318	-0.15064657
248	0xbd2deb60	-0.0424608
249	0xbe910852	-0.2832666
250	0xbdf8e159	-0.12152357
251	0x3d834f5f	0.06411623
252	0x3cacbf64	0.021087356
253	0xbe41d7af	-0.18929933
254	0xbceffbc3	-0.029294854
255	0xbe15a763	-0.14614634

model/conv2d_1/Conv2D i1 [64, 3, 3, 32]
0	0xd6	-42
1	0x0e	14
2	0x23	35
3	0xff	-1
4	0x1a	26
5	0x1c	28
6	0xef	-17
7	0xe6	-26
8	0x20	32
9	0x04	4
10	0x06	6
11	0xdc	-36
12	0x31	49
13	0x30	48
14	0x26	38
15	0xfa	-6
16	0xe3	-29
17	0x13	19
18	0xed	-19
19	0xfa	-6
20	0x06	6
21	0x21	33
22	0xfa	-6
23	0x0e	14
24	0xfd	-3
25	0x1c	28
26	0xf9	-7
27	0x07	7
28	0x09	9
29	0x01	1
30	0xee	-18
31	0x01	1
32	0xb5	-75
33	0xfd	-3
34	0x2d	45
35	0xf5	-11
36	0x1a	26
37	0x10	16
38	0x21	33
39	0xfe	-2
40	0x22	34
41	0x12	18
42	0x0f	15
43	0x25	37
44	0x21	33
45	0x16	22
46	0x35	53
47	0x34	52
48	0x13	19
49	0x1c	28
50	0xf6	-10
51	0x2c	44
52	0xf5	-11
53	0x17	23
54	0xff	-1
55	0x22	34
56	0x03	3
57	0x21	33
58	0xea	-22
59	0x01	1
60	0x0a	10
61	0x09	9
62	0x14	20
63	0x10	16
64	0xe1	-31
65	0x32	50
66	0xf4	-12
67	0x1a	26
68	0x33	51
69	0x0c	12
70	0x1a	26
71	0x26	38
72	0x2c	44
73	0xd9	-39
74	0x0b	11
75	0xfa	-6
76	0x0c	12
77	0x0d	13
78	0x22	34
79	0x0c	12
80	0x1e	30
81	0xf0	-16
82	0x8d	-115
83	0x0d	13
84	0x16	22
85	0x0e	14
86	0xf4	-12
87	0xef	-17
88	0xf9	-7
89	0x1c	28
90	0xeb	-21
91	0x04	4
92	0x16	22
93	0x18	24
94	0x06	6
95	0x17	23
96	0xf9	-7
97	0x10	16
98	0x11	17
99	0xef	-17
100	0x20	32
101	0x06	6
102	0x07	7
103	0x08	8
104	0xfc	-4
105	0x27	39
106	0x28	40
107	0x0e	14
108	0xfe	-2
109	0x38	56
110	0x1e	30
111	0x28	40
112	0xea	-22
113	0x0a	10
114	0x51	81
115	0xfb	-5
116	0x2a	42
117	0x22	34
118	0x12	18
119	0x2c	44
120	0x25	37
121	0x1b	27
122	0x05	5
123	0x1b	27
124	0x29	41
125	0x12	18
126	0x08	8
127	0x1c	28
128	0xed	-19
129	0x38	56
130	0x1d	29
131	0x0d	13
132	0x1e	30
133	0x33	51
134	0x28	40
135	0xfd	-3
136	0x39	57
137	0x35	53
138	0x29	41
139	0x25	37
140	0x05	5
141	0x0e	14
142	0x01	1
143	0x1e	30
144	0xf6	-10
145	0x0d	13
146	0x13	19
147	0xf9	-7
148	0xf9	-7
149	0x38	56
150	0x3a	58
151	0x32	50
152	0x1b	27
153	0x2d	45
154	0xe5	-27
155	0x10	16
156	0x03	3
157	0x08	8
158	0x21	33
159	0xfe	-2
160	0xe5	-27
161	0x18	24
162	0x1e	30
163	0x26	38
164	0x11	17
165	0x35	53
166	0xf3	-13
167	0xee	-18
168	0x26	38
169	0xf2	-14
170	0x0d	13
171	0x2a	42
172	0x17	23
173	0xf8	-8
174	0xfb	-5
175	0x27	39
176	0x02	2
177	0xe3	-29
178	0x9c	-100
179	0x30	48
180	0xef	-17
181	0x1d	29
182	0x1c	28
183	0xda	-38
184	0xf8	-8
185	0x05	5
186	0x0e	14
187	0x1a	26
188	0xe6	-26
189	0x05	5
190	0x04	4
191	0x1e	30
192	0xc9	-55
193	0xde	-34
194	0xf8	-8
195	0x03	3
196	0xe7	-25
197	0xfc	-4
198	0x12	18
199	0xe7	-25
200	0x03	3
201	0xdb	-37
202	0xe6	-26
203	0x13	19
204	0xfe	-2
205	0x0d	13
206	0xdd	-35
207	0x0f	15
208	0x22	34
209	0x02	2
210	0xbe	-66
211	0x18	24
212	0xfa	-6
213	0x0e	14
214	0xf9	-7
215	0x08	8
216	0xf3	-13
217	0x25	37
218	0xf2	-14
219	0x11	17
220	0xee	-18
221	0xf8	-8
222	0x0a	10
223	0xf5	-11
224	0xea	-22
225	0xeb	-21
226	0xfd	-3
227	0xff	-1
228	0x24	36
229	0x01	1
230	0x11	17
231	0xef	-17
232	0xdf	-33
233	0xc8	-56
234	0x07	7
235	0x1d	29
236	0xfc	-4
237	0xd5	-43
238	0x04	4
239	0x03	3
240	0x12	18
241	0x22	34
242	0x81	-127
243	0x09	9
244	0xf7	-9
245	0x30	48
246	0x35	53
247	0x1c	28
248	0xd5	-43
249	0x06	6
250	0xfe	-2
251	0xf8	-8
252	0xdd	-35
253	0x14	20
254	0x31	49
255	0xb3	-77

model/dense/MatMul i1 [128, 4480] scale=0.008045501 zero_point=0
0	0xf4	-0.09654601
1	0xf5	-0.088500515
2	0x15	0.16895552
3	0xe5	-0.21722853
4	0xef	-0.13677351
5	0x04	0.032182004
6	0x00	0.0
7	0xee	-0.14481902
8	0xf9	-0.056318507
9	0xf5	-0.088500515
10	0x03	0.024136502
11	0xf1	-0.120682515
12	0x09	0.07240951
13	0xed	-0.15286452
14	0x0d	0.10459151
15	0x0a	0.08045501
16	0xf8	-0.06436401
17	0xec	-0.16091003
18	0xff	-0.008045501
19	0xfa	-0.048273005
20	0xf8	-0.06436401
21	0xfb	-0.040227506
22	0xef	-0.13677351
23	0xf2	-0.11263701
24	0x00	0.0
25	0xe5	-0.21722853
26	0xf6	-0.08045501
27	0xf0	-0.12872802
28	0x07	0.056318507
29	0xf6	-0.08045501
30	0x0d	0.10459151
31	0xff	-0.008045501
32	0xfd	-0.024136502
33	0x07	0.056318507
34	0xf9	-0.056318507
35	0xed	-0.15286452
36	0xf2	-0.11263701
37	0x06	0.048273005
38	0xfa	-0.048273005
39	0xfb	-0.040227506
40	0xf8	-0.06436401
41	0xfe	-0.016091002
42	0xea	-0.17700103
43	0x09	0.07240951
44	0x15	0.16895552
45	0x1f	0.24941054
46	0xfd	-0.024136502
47	0xf0	-0.12872802
48	0xe5	-0.21722853
49	0x12	0.14481902
50	0x07	0.056318507
51	0x03	0.024136502
52	0xfc	-0.032182004
53	0x12	0.14481902
54	0xfc	-0.032182004
55	0x03	0.024136502
56	0xfe	-0.016091002
57	0xf2	-0.11263701
58	0xe6	-0.20918302
59	0xe9	-0.18504652
60	0xef	-0.13677351
61	0xfa	-0.048273005
62	0xf6	-0.08045501
63	0xe8	-0.19309202
64	0xf1	-0.120682515
65	0xfb	-0.040227506
66	0x14	0.16091003
67	0xe8	-0.19309202
68	0xf3	-0.10459151
69	0xf7	-0.07240951
70	0x01	0.008045501
71	0x0c	0.09654601
72	0xf6	-0.08045501
73	0xee	-0.14481902
74	0xf7	-0.07240951
75	0xee	-0.14481902
76	0xf9	-0.056318507
77	0xf3	-0.10459151
78	0x1f	0.24941054
79	0x08	0.06436401
80	0xe9	-0.18504652
81	0xef	-0.13677351
82	0xee	-0.14481902
83	0xf4	-0.09654601
84	0xf7	-0.07240951
85	0xf6	-0.08045501
86	0xee	-0.14481902
87	0xf8	-0.06436401
88	0xf6	-0.08045501
89	0xfd	-0.024136502
90	0xf1	-0.120682515
91	0x00	0.0
92	0xff	-0.008045501
93	0xec	-0.16091003
94	0x0a	0.08045501
95	0x14	0.16091003
96	0xfd	-0.024136502
97	0x00	0.0
98	0xf6	-0.08045501
99	0xf7	-0.07240951
100	0xee	-0.14481902
101	0x06	0.048273005
102	0xe5	-0.21722853
103	0xfa	-0.048273005
104	0xee	-0.14481902
105	0xec	-0.16091003
106	0xff	-0.008045501
107	0xfe	-0.016091002
108	0x0c	0.09654601
109	0x0d	0.10459151
110	0xfa	-0.048273005
111	0xf1	-0.120682515
112	0x02	0.016091002
113	0x0a	0.08045501
114	0xf6	-0.08045501
115	0xf5	-0.088500515
116	0xf5	-0.088500515
117	0x11	0.13677351
118	0xfb	-0.040227506
119	0xed	-0.15286452
120	0xff	-0.008045501
121	0xea	-0.17700103
122	0xe1	-0.24941054
123	0xe5	-0.21722853
124	0xe6	-0.20918302
125	0xf0	-0.12872802
126	0xef	-0.13677351
127	0xe7	-0.20113753
128	0xe5	-0.21722853
129	0xf4	-0.09654601
130	0x10	0.12872802
131	0xf8	-0.06436401
132	0xec	-0.16091003
133	0xf2	-0.11263701
134	0xfa	-0.048273005
135	0x05	0.040227506
136	0xf8	-0.06436401
137	0xf3	-0.10459151
138	0xfa	-0.048273005
139	0xf3	-0.10459151
140	0xeb	-0.16895552
141	0x00	0.0
142	0x13	0.15286452
143	0x0c	0.09654601
144	0xf3	-0.10459151
145	0xef	-0.13677351
146	0xef	-0.13677351
147	0xfa	-0.048273005
148	0xf6	-0.08045501
149	0xf5	-0.088500515
150	0xf2	-0.11263701
151	0xf3	-0.10459151
152	0xf7	-0.07240951
153	0xed	-0.15286452
154	0xf4	-0.09654601
155	0xe6	-0.20918302
156	0xfe	-0.016091002
157	0xf1	-0.120682515
158	0x06	0.048273005
159	0x01	0.008045501
160	0xfa	-0.048273005
161	0xfc	-0.032182004
162	0xf5	-0.088500515
163	0xfa	-0.048273005
164	0xf2	-0.11263701
165	0x02	0.016091002
166	0xf0	-0.12872802
167	0xfa	-0.048273005
168	0xed	-0.15286452
169	0xee	-0.14481902
170	0xf9	-0.056318507
171	0xf7	-0.07240951
172	0x0a	0.08045501
173	0x00	0.0
174	0xf8	-0.06436401
175	0xf3	-0.10459151
176	0xe9	-0.18504652
177	0x02	0.016091002
178	0x14	0.16091003
179	0xf7	-0.07240951
180	0xf8	-0.06436401
181	0x06	0.048273005
182	0xf9	-0.056318507
183	0xe8	-0.19309202
184	0xfa	-0.048273005
185	0xf4	-0.09654601
186	0xef	-0.13677351
187	0xee	-0.14481902
188	0xf3	-0.10459151
189	0xf0	-0.12872802
190	0xf6	-0.08045501
191	0xf7	-0.07240951
192	0xf9	-0.056318507
193	0xf5	-0.088500515
194	0xfe	-0.016091002
195	0xf1	-0.120682515
196	0xf8	-0.06436401
197	0xf3	-0.10459151
198	0xf7	-0.07240951
199	0x2a	0.33791104
200	0xf4	-0.09654601
201	0xed	-0.15286452
202	0xf9	-0.056318507
203	0xfb	-0.040227506
204	0xf9	-0.056318507
205	0xfc	-0.032182004
206	0x0f	0.120682515
207	0xf6	-0.08045501
208	0xf7	-0.07240951
209	0xf6	-0.08045501
210	0xf4	-0.09654601
211	0xf4	-0.09654601
212	0xfb	-0.040227506
213	0xf7	-0.07240951
214	0xf3	-0.10459151
215	0xf8	-0.06436401
216	0xf4	-0.09654601
217	0xee	-0.14481902
218	0xf7	-0.07240951
219	0xf1	-0.120682515
220	0xfc	-0.032182004
221	0xf6	-0.08045501
222	0x0c	0.09654601
223	0x16	0.17700103
224	0xfb	-0.040227506
225	0xfc	-0.032182004
226	0xf8	-0.06436401
227	0xf5	-0.088500515
228	0xf8	-0.06436401
229	0xfa	-0.048273005
230	0xfa	-0.048273005
231	0xfe	-0.016091002
232	0xf6	-0.08045501
233	0xfa	-0.048273005
234	0xff	-0.008045501
235	0xfd	-0.024136502
236	0xfc	-0.032182004
237	0xff	-0.008045501
238	0xf8	-0.06436401
239	0xf0	-0.12872802
240	0xe1	-0.24941054
241	0x06	0.048273005
242	0xf1	-0.120682515
243	0xf6	-0.08045501
244	0xfa	-0.048273005
245	0xf8	-0.06436401
246	0xf7	-0.07240951
247	0xf7	-0.07240951
248	0xf9	-0.056318507
249	0xea	-0.17700103
250	0xf4	-0.09654601
251	0xf6	-0.08045501
252	0xf8	-0.06436401
253	0xf7	-0.07240951
254	0xf2	-0.11263701
255	0xee	-0.14481902

model/preprocessing_pcen/Tensordot/MatMul1 i1 [40, 1025] scale=0.00787113 zero_point=0
0	0x00	0.0
1	0x17	0.18103598
2	0x2e	0.36207196
3	0x44	0.53523684
4	0x5a	0.7084017
5	0x70	0.8815665
6	0x78	0.94453555
7	0x63	0.7792418
8	0x4d	0.60607696
9	0x38	0.44078326
10	0x23	0.27548954
11	0x0f	0.118066944
12	0x00	0.0
13	0x00	0.0
14	0x00	0.0
15	0x00	0.0
16	0x00	0.0
17	0x00	0.0
18	0x00	0.0
19	0x00	0.0
20	0x00	0.0
21	0x00	0.0
22	0x00	0.0
23	0x00	0.0
24	0x00	0.0
25	0x00	0.0
26	0x00	0.0
27	0x00	0.0
28	0x00	0.0
29	0x00	0.0
30	0x00	0.0
31	0x00	0.0
32	0x00	0.0
33	0x00	0.0
34	0x00	0.0
35	0x00	0.0
36	0x00	0.0
37	0x00	0.0
38	0x00	0.0
39	0x00	0.0
40	0x00	0.0
41	0x00	0.0
42	0x00	0.0
43	0x00	0.0
44	0x00	0.0
45	0x00	0.0
46	0x00	0.0
47	0x00	0.0
48	0x00	0.0
49	0x00	0.0
50	0x00	0.0
51	0x00	0.0
52	0x00	0.0
53	0x00	0.0
54	0x00	0.0
55	0x00	0.0
56	0x00	0.0
57	0x00	0.0
58	0x00	0.0
59	0x00	0.0
60	0x00	0.0
61	0x00	0.0
62	0x00	0.0
63	0x00	0.0
64	0x00	0.0
65	0x00	0.0
66	0x00	0.0
67	0x00	0.0
68	0x00	0.0
69	0x00	0.0
70	0x00	0.0
71	0x00	0.0
72	0x00	0.0
73	0x00	0.0
74	0x00	0.0
75	0x00	0.0
76	0x00	0.0
77	0x00	0.0
78	0x00	0.0
79	0x00	0.0
80	0x00	0.0
81	0x00	0.0
82	0x00	0.0
83	0x00	0.0
84	0x00	0.0
85	0x00	0.0
86	0x00	0.0
87	0x00	0.0
88	0x00	0.0
89	0x00	0.0
90	0x00	0.0
91	0x00	0.0
92	0x00	0.0
93	0x00	0.0
94	0x00	0.0
95	0x00	0.0
96	0x00	0.0
97	0x00	0.0
98	0x00	0.0
99	0x00	0.0
100	0x00	0.0
101	0x00	0.0
102	0x00	0.0
103	0x00	0.0
104	0x00	0.0
105	0x00	0.0
106	0x00	0.0
107	0x00	0.0
108	0x00	0.0
109	0x00	0.0
110	0x00	0.0
111	0x00	0.0
112	0x00	0.0
113	0x00	0.0
114	0x00	0.0
115	0x00	0.0
116	0x00	0.0
117	0x00	0.0
118	0x00	0.0
119	0x00	0.0
120	0x00	0.0
121	0x00	0.0
122	0x00	0.0
123	0x00	0.0
124	0x00	0.0
125	0x00	0.0
126	0x00	0.0
127	0x00	0.0
128	0x00	0.0
129	0x00	0.0
130	0x00	0.0
131	0x00	0.0
132	0x00	0.0
133	0x00	0.0
134	0x00	0.0
135	0x00	0.0
136	0x00	0.0
137	0x00	0.0
138	0x00	0.0
139	0x00	0.0
140	0x00	0.0
141	0x00	0.0
142	0x00	0.0
143	0x00	0.0
144	0x00	0.0
145	0x00	0.0
146	0x00	0.0
147	0x00	0.0
148	0x00	0.0
149	0x00	0.0
150	0x00	0.0
151	0x00	0.0
152	0x00	0.0
153	0x00	0.0
154	0x00	0.0
155	0x00	0.0
156	0x00	0.0
157	0x00	0.0
158	0x00	0.0
159	0x00	0.0
160	0x00	0.0
161	0x00	0.0
162	0x00	0.0
163	0x00	0.0
164	0x00	0.0
165	0x00	0.0
166	0x00	0.0
167	0x00	0.0
168	0x00	0.0
169	0x00	0.0
170	0x00	0.0
171	0x00	0.0
172	0x00	0.0
173	0x00	0.0
174	0x00	0.0
175	0x00	0.0
176	0x00	0.0
177	0x00	0.0
178	0x00	0.0
179	0x00	0.0
180	0x00	0.0
181	0x00	0.0
182	0x00	0.0
183	0x00	0.0
184	0x00	0.0
185	0x00	0.0
186	0x00	0.0
187	0x00	0.0
188	0x00	0.0
189	0x00	0.0
190	0x00	0.0
191	0x00	0.0
192	0x00	0.0
193	0x00	0.0
194	0x00	0.0
195	0x00	0.0
196	0x00	0.0
197	0x00	0.0
198	0x00	0.0
199	0x00	0.0
200	0x00	0.0
201	0x00	0.0
202	0x00	0.0
203	0x00	0.0
204	0x00	0.0
205	0x00	0.0
206	0x00	0.0
207	0x00	0.0
208	0x00	0.0
209	0x00	0.0
210	0x00	0.0
211	0x00	0.0
212	0x00	0.0
213	0x00	0.0
214	0x00	0.0
215	0x00	0.0
216	0x00	0.0
217	0x00	0.0
218	0x00	0.0
219	0x00	0.0
220	0x00	0.0
221	0x00	0.0
222	0x00	0.0
223	0x00	0.0
224	0x00	0.0
225	0x00	0.0
226	0x00	0.0
227	0x00	0.0
228	0x00	0.0
229	0x00	0.0
230	0x00	0.0
231	0x00	0.0
232	0x00	0.0
233	0x00	0.0
234	0x00	0.0
235	0x00	0.0
236	0x00	0.0
237	0x00	0.0
238	0x00	0.0
239	0x00	0.0
240	0x00	0.0
241	0x00	0.0
242	0x00	0.0
243	0x00	0.0
244	0x00	0.0
245	0x00	0.0
246	0x00	0.0
247	0x00	0.0
248	0x00	0.0
249	0x00	0.0
250	0x00	0.0
251	0x00	0.0
252	0x00	0.0
253	0x00	0.0
254	0x00	0.0
255	0x00	0.0
